{"format": "graph-model", "generatedBy": "2.6.0", "convertedBy": "TensorFlow.js Converter v3.9.0", "signature": {"outputs": {"Identity": {"name": "Identity"}}}, "modelTopology": {"node": [{"name": "model/tf.strided_slice_30/StridedSlice/begin", "op": "Const", "attr": {"dtype": {"type": "DT_INT64"}, "value": {"tensor": {"dtype": "DT_INT64", "tensorShape": {"dim": [{"size": "4"}]}}}}}, {"name": "model/tf.strided_slice_30/StridedSlice/end", "op": "Const", "attr": {"dtype": {"type": "DT_INT64"}, "value": {"tensor": {"dtype": "DT_INT64", "tensorShape": {"dim": [{"size": "4"}]}}}}}, {"name": "model/tf.strided_slice_30/StridedSlice/strides", "op": "Const", "attr": {"value": {"tensor": {"dtype": "DT_INT64", "tensorShape": {"dim": [{"size": "4"}]}}}, "dtype": {"type": "DT_INT64"}}}, {"name": "model/tf.math.multiply_32/Mul/y", "op": "Const", "attr": {"value": {"tensor": {"dtype": "DT_FLOAT", "tensorShape": {"dim": [{"size": "1"}, {"size": "1"}, {"size": "1"}, {"size": "8"}]}}}, "dtype": {"type": "DT_FLOAT"}}}, {"name": "model/tf.math.add_108/Add/y", "op": "Const", "attr": {"dtype": {"type": "DT_FLOAT"}, "value": {"tensor": {"dtype": "DT_FLOAT", "tensorShape": {"dim": [{"size": "8"}]}}}}}, {"name": "model/tf.math.reduce_mean_46/Const", "op": "Const", "attr": {"value": {"tensor": {"dtype": "DT_INT32", "tensorShape": {"dim": [{"size": "4"}]}}}, "dtype": {"type": "DT_INT32"}}}, {"name": "model/tf.strided_slice_28/StridedSlice/begin", "op": "Const", "attr": {"value": {"tensor": {"dtype": "DT_INT64", "tensorShape": {"dim": [{"size": "4"}]}}}, "dtype": {"type": "DT_INT64"}}}, {"name": "model/tf.strided_slice_28/StridedSlice/end", "op": "Const", "attr": {"dtype": {"type": "DT_INT64"}, "value": {"tensor": {"dtype": "DT_INT64", "tensorShape": {"dim": [{"size": "4"}]}}}}}, {"name": "model/tf.strided_slice_28/StridedSlice/strides", "op": "Const", "attr": {"value": {"tensor": {"dtype": "DT_INT64", "tensorShape": {"dim": [{"size": "4"}]}}}, "dtype": {"type": "DT_INT64"}}}, {"name": "model/tf.math.multiply_30/Mul/y", "op": "Const", "attr": {"value": {"tensor": {"dtype": "DT_FLOAT", "tensorShape": {"dim": [{"size": "1"}, {"size": "1"}, {"size": "1"}, {"size": "16"}]}}}, "dtype": {"type": "DT_FLOAT"}}}, {"name": "model/tf.math.add_105/Add/y", "op": "Const", "attr": {"value": {"tensor": {"dtype": "DT_FLOAT", "tensorShape": {"dim": [{"size": "16"}]}}}, "dtype": {"type": "DT_FLOAT"}}}, {"name": "model/tf.math.reduce_mean_43/Const", "op": "Const", "attr": {"value": {"tensor": {"dtype": "DT_INT32", "tensorShape": {"dim": [{"size": "4"}]}}}, "dtype": {"type": "DT_INT32"}}}, {"name": "model/tf.strided_slice_4/StridedSlice/begin", "op": "Const", "attr": {"value": {"tensor": {"dtype": "DT_INT64", "tensorShape": {"dim": [{"size": "4"}]}}}, "dtype": {"type": "DT_INT64"}}}, {"name": "model/tf.strided_slice_4/StridedSlice/end", "op": "Const", "attr": {"dtype": {"type": "DT_INT64"}, "value": {"tensor": {"dtype": "DT_INT64", "tensorShape": {"dim": [{"size": "4"}]}}}}}, {"name": "model/tf.strided_slice_4/StridedSlice/strides", "op": "Const", "attr": {"value": {"tensor": {"dtype": "DT_INT64", "tensorShape": {"dim": [{"size": "4"}]}}}, "dtype": {"type": "DT_INT64"}}}, {"name": "model/tf.math.multiply_6/Mul/y", "op": "Const", "attr": {"dtype": {"type": "DT_FLOAT"}, "value": {"tensor": {"dtype": "DT_FLOAT", "tensorShape": {"dim": [{"size": "1"}, {"size": "1"}, {"size": "1"}, {"size": "16"}]}}}}}, {"name": "model/tf.math.add_69/Add/y", "op": "Const", "attr": {"value": {"tensor": {"dtype": "DT_FLOAT", "tensorShape": {"dim": [{"size": "16"}]}}}, "dtype": {"type": "DT_FLOAT"}}}, {"name": "model/tf.math.reduce_mean_7/Const", "op": "Const", "attr": {"dtype": {"type": "DT_INT32"}, "value": {"tensor": {"dtype": "DT_INT32", "tensorShape": {"dim": [{"size": "4"}]}}}}}, {"name": "model/lambda_2/resize/size", "op": "Const", "attr": {"value": {"tensor": {"dtype": "DT_INT32", "tensorShape": {"dim": [{"size": "2"}]}}}, "dtype": {"type": "DT_INT32"}}}, {"name": "model/zero_padding2d_20/Pad/paddings", "op": "Const", "attr": {"value": {"tensor": {"dtype": "DT_INT32", "tensorShape": {"dim": [{"size": "4"}, {"size": "2"}]}}}, "dtype": {"type": "DT_INT32"}}}, {"name": "model/conv2d_37/Conv2D/ReadVariableOp", "op": "Const", "attr": {"value": {"tensor": {"dtype": "DT_FLOAT", "tensorShape": {"dim": [{"size": "5"}, {"size": "5"}, {"size": "32"}, {"size": "32"}]}}}, "dtype": {"type": "DT_FLOAT"}}}, {"name": "model/tf.math.add_68/Add/y", "op": "Const", "attr": {"value": {"tensor": {"dtype": "DT_FLOAT", "tensorShape": {"dim": [{"size": "32"}]}}}, "dtype": {"type": "DT_FLOAT"}}}, {"name": "model/tf.strided_slice_5/StridedSlice/begin", "op": "Const", "attr": {"value": {"tensor": {"dtype": "DT_INT64", "tensorShape": {"dim": [{"size": "4"}]}}}, "dtype": {"type": "DT_INT64"}}}, {"name": "model/tf.strided_slice_5/StridedSlice/end", "op": "Const", "attr": {"dtype": {"type": "DT_INT64"}, "value": {"tensor": {"dtype": "DT_INT64", "tensorShape": {"dim": [{"size": "4"}]}}}}}, {"name": "model/tf.strided_slice_5/StridedSlice/strides", "op": "Const", "attr": {"dtype": {"type": "DT_INT64"}, "value": {"tensor": {"dtype": "DT_INT64", "tensorShape": {"dim": [{"size": "4"}]}}}}}, {"name": "model/tf.math.reduce_mean_8/Const", "op": "Const", "attr": {"value": {"tensor": {"dtype": "DT_INT32", "tensorShape": {"dim": [{"size": "4"}]}}}, "dtype": {"type": "DT_INT32"}}}, {"name": "model/tf.math.reduce_mean_9/Const", "op": "Const", "attr": {"value": {"tensor": {"dtype": "DT_INT32", "tensorShape": {"dim": [{"size": "4"}]}}}, "dtype": {"type": "DT_INT32"}}}, {"name": "model/tf.__operators__.add_2/y", "op": "Const", "attr": {"value": {"tensor": {"dtype": "DT_FLOAT", "tensorShape": {}}}, "dtype": {"type": "DT_FLOAT"}}}, {"name": "model/tf.concat_2/concat/axis", "op": "Const", "attr": {"dtype": {"type": "DT_INT32"}, "value": {"tensor": {"dtype": "DT_INT32", "tensorShape": {}}}}}, {"name": "model/lambda_3/resize/size", "op": "Const", "attr": {"value": {"tensor": {"dtype": "DT_INT32", "tensorShape": {"dim": [{"size": "2"}]}}}, "dtype": {"type": "DT_INT32"}}}, {"name": "model/tf.strided_slice_26/StridedSlice/begin", "op": "Const", "attr": {"value": {"tensor": {"dtype": "DT_INT64", "tensorShape": {"dim": [{"size": "4"}]}}}, "dtype": {"type": "DT_INT64"}}}, {"name": "model/tf.strided_slice_26/StridedSlice/end", "op": "Const", "attr": {"value": {"tensor": {"dtype": "DT_INT64", "tensorShape": {"dim": [{"size": "4"}]}}}, "dtype": {"type": "DT_INT64"}}}, {"name": "model/tf.strided_slice_26/StridedSlice/strides", "op": "Const", "attr": {"dtype": {"type": "DT_INT64"}, "value": {"tensor": {"dtype": "DT_INT64", "tensorShape": {"dim": [{"size": "4"}]}}}}}, {"name": "model/tf.math.multiply_28/Mul/y", "op": "Const", "attr": {"value": {"tensor": {"dtype": "DT_FLOAT", "tensorShape": {"dim": [{"size": "1"}, {"size": "1"}, {"size": "1"}, {"size": "16"}]}}}, "dtype": {"type": "DT_FLOAT"}}}, {"name": "model/tf.math.add_102/Add/y", "op": "Const", "attr": {"dtype": {"type": "DT_FLOAT"}, "value": {"tensor": {"dtype": "DT_FLOAT", "tensorShape": {"dim": [{"size": "16"}]}}}}}, {"name": "model/tf.math.reduce_mean_40/Const", "op": "Const", "attr": {"value": {"tensor": {"dtype": "DT_INT32", "tensorShape": {"dim": [{"size": "4"}]}}}, "dtype": {"type": "DT_INT32"}}}, {"name": "model/tf.strided_slice_24/StridedSlice/begin", "op": "Const", "attr": {"dtype": {"type": "DT_INT64"}, "value": {"tensor": {"dtype": "DT_INT64", "tensorShape": {"dim": [{"size": "4"}]}}}}}, {"name": "model/tf.strided_slice_24/StridedSlice/end", "op": "Const", "attr": {"value": {"tensor": {"dtype": "DT_INT64", "tensorShape": {"dim": [{"size": "4"}]}}}, "dtype": {"type": "DT_INT64"}}}, {"name": "model/tf.strided_slice_24/StridedSlice/strides", "op": "Const", "attr": {"value": {"tensor": {"dtype": "DT_INT64", "tensorShape": {"dim": [{"size": "4"}]}}}, "dtype": {"type": "DT_INT64"}}}, {"name": "model/tf.math.multiply_26/Mul/y", "op": "Const", "attr": {"dtype": {"type": "DT_FLOAT"}, "value": {"tensor": {"dtype": "DT_FLOAT", "tensorShape": {"dim": [{"size": "1"}, {"size": "1"}, {"size": "1"}, {"size": "16"}]}}}}}, {"name": "model/tf.math.add_99/Add/y", "op": "Const", "attr": {"dtype": {"type": "DT_FLOAT"}, "value": {"tensor": {"dtype": "DT_FLOAT", "tensorShape": {"dim": [{"size": "16"}]}}}}}, {"name": "model/tf.math.reduce_mean_37/Const", "op": "Const", "attr": {"value": {"tensor": {"dtype": "DT_INT32", "tensorShape": {"dim": [{"size": "4"}]}}}, "dtype": {"type": "DT_INT32"}}}, {"name": "model/tf.strided_slice_22/StridedSlice/begin", "op": "Const", "attr": {"value": {"tensor": {"dtype": "DT_INT64", "tensorShape": {"dim": [{"size": "4"}]}}}, "dtype": {"type": "DT_INT64"}}}, {"name": "model/tf.strided_slice_22/StridedSlice/end", "op": "Const", "attr": {"dtype": {"type": "DT_INT64"}, "value": {"tensor": {"dtype": "DT_INT64", "tensorShape": {"dim": [{"size": "4"}]}}}}}, {"name": "model/tf.strided_slice_22/StridedSlice/strides", "op": "Const", "attr": {"value": {"tensor": {"dtype": "DT_INT64", "tensorShape": {"dim": [{"size": "4"}]}}}, "dtype": {"type": "DT_INT64"}}}, {"name": "model/tf.math.multiply_24/Mul/y", "op": "Const", "attr": {"value": {"tensor": {"dtype": "DT_FLOAT", "tensorShape": {"dim": [{"size": "1"}, {"size": "1"}, {"size": "1"}, {"size": "16"}]}}}, "dtype": {"type": "DT_FLOAT"}}}, {"name": "model/tf.math.add_96/Add/y", "op": "Const", "attr": {"dtype": {"type": "DT_FLOAT"}, "value": {"tensor": {"dtype": "DT_FLOAT", "tensorShape": {"dim": [{"size": "16"}]}}}}}, {"name": "model/tf.math.reduce_mean_34/Const", "op": "Const", "attr": {"dtype": {"type": "DT_INT32"}, "value": {"tensor": {"dtype": "DT_INT32", "tensorShape": {"dim": [{"size": "4"}]}}}}}, {"name": "model/tf.strided_slice_20/StridedSlice/begin", "op": "Const", "attr": {"dtype": {"type": "DT_INT64"}, "value": {"tensor": {"dtype": "DT_INT64", "tensorShape": {"dim": [{"size": "4"}]}}}}}, {"name": "model/tf.strided_slice_20/StridedSlice/end", "op": "Const", "attr": {"value": {"tensor": {"dtype": "DT_INT64", "tensorShape": {"dim": [{"size": "4"}]}}}, "dtype": {"type": "DT_INT64"}}}, {"name": "model/tf.strided_slice_20/StridedSlice/strides", "op": "Const", "attr": {"value": {"tensor": {"dtype": "DT_INT64", "tensorShape": {"dim": [{"size": "4"}]}}}, "dtype": {"type": "DT_INT64"}}}, {"name": "model/tf.math.multiply_22/Mul/y", "op": "Const", "attr": {"dtype": {"type": "DT_FLOAT"}, "value": {"tensor": {"dtype": "DT_FLOAT", "tensorShape": {"dim": [{"size": "1"}, {"size": "1"}, {"size": "1"}, {"size": "32"}]}}}}}, {"name": "model/tf.math.add_93/Add/y", "op": "Const", "attr": {"value": {"tensor": {"dtype": "DT_FLOAT", "tensorShape": {"dim": [{"size": "32"}]}}}, "dtype": {"type": "DT_FLOAT"}}}, {"name": "model/tf.math.reduce_mean_31/Const", "op": "Const", "attr": {"dtype": {"type": "DT_INT32"}, "value": {"tensor": {"dtype": "DT_INT32", "tensorShape": {"dim": [{"size": "4"}]}}}}}, {"name": "model/tf.strided_slice_18/StridedSlice/begin", "op": "Const", "attr": {"dtype": {"type": "DT_INT64"}, "value": {"tensor": {"dtype": "DT_INT64", "tensorShape": {"dim": [{"size": "4"}]}}}}}, {"name": "model/tf.strided_slice_18/StridedSlice/end", "op": "Const", "attr": {"value": {"tensor": {"dtype": "DT_INT64", "tensorShape": {"dim": [{"size": "4"}]}}}, "dtype": {"type": "DT_INT64"}}}, {"name": "model/tf.strided_slice_18/StridedSlice/strides", "op": "Const", "attr": {"dtype": {"type": "DT_INT64"}, "value": {"tensor": {"dtype": "DT_INT64", "tensorShape": {"dim": [{"size": "4"}]}}}}}, {"name": "model/tf.math.multiply_20/Mul/y", "op": "Const", "attr": {"dtype": {"type": "DT_FLOAT"}, "value": {"tensor": {"dtype": "DT_FLOAT", "tensorShape": {"dim": [{"size": "1"}, {"size": "1"}, {"size": "1"}, {"size": "16"}]}}}}}, {"name": "model/tf.math.add_90/Add/y", "op": "Const", "attr": {"dtype": {"type": "DT_FLOAT"}, "value": {"tensor": {"dtype": "DT_FLOAT", "tensorShape": {"dim": [{"size": "16"}]}}}}}, {"name": "model/tf.math.reduce_mean_28/Const", "op": "Const", "attr": {"value": {"tensor": {"dtype": "DT_INT32", "tensorShape": {"dim": [{"size": "4"}]}}}, "dtype": {"type": "DT_INT32"}}}, {"name": "model/tf.strided_slice_16/StridedSlice/begin", "op": "Const", "attr": {"value": {"tensor": {"dtype": "DT_INT64", "tensorShape": {"dim": [{"size": "4"}]}}}, "dtype": {"type": "DT_INT64"}}}, {"name": "model/tf.strided_slice_16/StridedSlice/end", "op": "Const", "attr": {"value": {"tensor": {"dtype": "DT_INT64", "tensorShape": {"dim": [{"size": "4"}]}}}, "dtype": {"type": "DT_INT64"}}}, {"name": "model/tf.strided_slice_16/StridedSlice/strides", "op": "Const", "attr": {"dtype": {"type": "DT_INT64"}, "value": {"tensor": {"dtype": "DT_INT64", "tensorShape": {"dim": [{"size": "4"}]}}}}}, {"name": "model/tf.math.multiply_18/Mul/y", "op": "Const", "attr": {"value": {"tensor": {"dtype": "DT_FLOAT", "tensorShape": {"dim": [{"size": "1"}, {"size": "1"}, {"size": "1"}, {"size": "32"}]}}}, "dtype": {"type": "DT_FLOAT"}}}, {"name": "model/tf.math.add_87/Add/y", "op": "Const", "attr": {"value": {"tensor": {"dtype": "DT_FLOAT", "tensorShape": {"dim": [{"size": "32"}]}}}, "dtype": {"type": "DT_FLOAT"}}}, {"name": "model/tf.math.reduce_mean_25/Const", "op": "Const", "attr": {"value": {"tensor": {"dtype": "DT_INT32", "tensorShape": {"dim": [{"size": "4"}]}}}, "dtype": {"type": "DT_INT32"}}}, {"name": "model/tf.strided_slice_14/StridedSlice/begin", "op": "Const", "attr": {"value": {"tensor": {"dtype": "DT_INT64", "tensorShape": {"dim": [{"size": "4"}]}}}, "dtype": {"type": "DT_INT64"}}}, {"name": "model/tf.strided_slice_14/StridedSlice/end", "op": "Const", "attr": {"value": {"tensor": {"dtype": "DT_INT64", "tensorShape": {"dim": [{"size": "4"}]}}}, "dtype": {"type": "DT_INT64"}}}, {"name": "model/tf.strided_slice_14/StridedSlice/strides", "op": "Const", "attr": {"value": {"tensor": {"dtype": "DT_INT64", "tensorShape": {"dim": [{"size": "4"}]}}}, "dtype": {"type": "DT_INT64"}}}, {"name": "model/tf.math.multiply_16/Mul/y", "op": "Const", "attr": {"value": {"tensor": {"dtype": "DT_FLOAT", "tensorShape": {"dim": [{"size": "1"}, {"size": "1"}, {"size": "1"}, {"size": "32"}]}}}, "dtype": {"type": "DT_FLOAT"}}}, {"name": "model/tf.math.add_84/Add/y", "op": "Const", "attr": {"value": {"tensor": {"dtype": "DT_FLOAT", "tensorShape": {"dim": [{"size": "32"}]}}}, "dtype": {"type": "DT_FLOAT"}}}, {"name": "model/tf.math.reduce_mean_22/Const", "op": "Const", "attr": {"dtype": {"type": "DT_INT32"}, "value": {"tensor": {"dtype": "DT_INT32", "tensorShape": {"dim": [{"size": "4"}]}}}}}, {"name": "model/tf.strided_slice_12/StridedSlice/begin", "op": "Const", "attr": {"dtype": {"type": "DT_INT64"}, "value": {"tensor": {"dtype": "DT_INT64", "tensorShape": {"dim": [{"size": "4"}]}}}}}, {"name": "model/tf.strided_slice_12/StridedSlice/end", "op": "Const", "attr": {"dtype": {"type": "DT_INT64"}, "value": {"tensor": {"dtype": "DT_INT64", "tensorShape": {"dim": [{"size": "4"}]}}}}}, {"name": "model/tf.strided_slice_12/StridedSlice/strides", "op": "Const", "attr": {"dtype": {"type": "DT_INT64"}, "value": {"tensor": {"dtype": "DT_INT64", "tensorShape": {"dim": [{"size": "4"}]}}}}}, {"name": "model/tf.math.multiply_14/Mul/y", "op": "Const", "attr": {"value": {"tensor": {"dtype": "DT_FLOAT", "tensorShape": {"dim": [{"size": "1"}, {"size": "1"}, {"size": "1"}, {"size": "32"}]}}}, "dtype": {"type": "DT_FLOAT"}}}, {"name": "model/tf.math.add_81/Add/y", "op": "Const", "attr": {"value": {"tensor": {"dtype": "DT_FLOAT", "tensorShape": {"dim": [{"size": "32"}]}}}, "dtype": {"type": "DT_FLOAT"}}}, {"name": "model/tf.math.reduce_mean_19/Const", "op": "Const", "attr": {"dtype": {"type": "DT_INT32"}, "value": {"tensor": {"dtype": "DT_INT32", "tensorShape": {"dim": [{"size": "4"}]}}}}}, {"name": "model/tf.strided_slice_8/StridedSlice/begin", "op": "Const", "attr": {"value": {"tensor": {"dtype": "DT_INT64", "tensorShape": {"dim": [{"size": "4"}]}}}, "dtype": {"type": "DT_INT64"}}}, {"name": "model/tf.strided_slice_8/StridedSlice/end", "op": "Const", "attr": {"dtype": {"type": "DT_INT64"}, "value": {"tensor": {"dtype": "DT_INT64", "tensorShape": {"dim": [{"size": "4"}]}}}}}, {"name": "model/tf.strided_slice_8/StridedSlice/strides", "op": "Const", "attr": {"value": {"tensor": {"dtype": "DT_INT64", "tensorShape": {"dim": [{"size": "4"}]}}}, "dtype": {"type": "DT_INT64"}}}, {"name": "model/tf.math.multiply_10/Mul/y", "op": "Const", "attr": {"value": {"tensor": {"dtype": "DT_FLOAT", "tensorShape": {"dim": [{"size": "1"}, {"size": "1"}, {"size": "1"}, {"size": "16"}]}}}, "dtype": {"type": "DT_FLOAT"}}}, {"name": "model/tf.math.add_75/Add/y", "op": "Const", "attr": {"dtype": {"type": "DT_FLOAT"}, "value": {"tensor": {"dtype": "DT_FLOAT", "tensorShape": {"dim": [{"size": "16"}]}}}}}, {"name": "model/tf.math.reduce_mean_13/Const", "op": "Const", "attr": {"dtype": {"type": "DT_INT32"}, "value": {"tensor": {"dtype": "DT_INT32", "tensorShape": {"dim": [{"size": "4"}]}}}}}, {"name": "model/tf.image.resize/resize/size", "op": "Const", "attr": {"value": {"tensor": {"dtype": "DT_INT32", "tensorShape": {"dim": [{"size": "2"}]}}}, "dtype": {"type": "DT_INT32"}}}, {"name": "model/tf.concat_4/concat/axis", "op": "Const", "attr": {"value": {"tensor": {"dtype": "DT_INT32", "tensorShape": {}}}, "dtype": {"type": "DT_INT32"}}}, {"name": "model/zero_padding2d_21/Pad/paddings", "op": "Const", "attr": {"value": {"tensor": {"dtype": "DT_INT32", "tensorShape": {"dim": [{"size": "4"}, {"size": "2"}]}}}, "dtype": {"type": "DT_INT32"}}}, {"name": "model/conv2d_39/Conv2D/ReadVariableOp", "op": "Const", "attr": {"value": {"tensor": {"dtype": "DT_FLOAT", "tensorShape": {"dim": [{"size": "3"}, {"size": "3"}, {"size": "35"}, {"size": "32"}]}}}, "dtype": {"type": "DT_FLOAT"}}}, {"name": "model/tf.math.add_74/Add/y", "op": "Const", "attr": {"dtype": {"type": "DT_FLOAT"}, "value": {"tensor": {"dtype": "DT_FLOAT", "tensorShape": {"dim": [{"size": "32"}]}}}}}, {"name": "model/tf.strided_slice_9/StridedSlice/begin", "op": "Const", "attr": {"dtype": {"type": "DT_INT64"}, "value": {"tensor": {"dtype": "DT_INT64", "tensorShape": {"dim": [{"size": "4"}]}}}}}, {"name": "model/tf.strided_slice_9/StridedSlice/end", "op": "Const", "attr": {"dtype": {"type": "DT_INT64"}, "value": {"tensor": {"dtype": "DT_INT64", "tensorShape": {"dim": [{"size": "4"}]}}}}}, {"name": "model/tf.strided_slice_9/StridedSlice/strides", "op": "Const", "attr": {"value": {"tensor": {"dtype": "DT_INT64", "tensorShape": {"dim": [{"size": "4"}]}}}, "dtype": {"type": "DT_INT64"}}}, {"name": "model/tf.math.reduce_mean_14/Const", "op": "Const", "attr": {"value": {"tensor": {"dtype": "DT_INT32", "tensorShape": {"dim": [{"size": "4"}]}}}, "dtype": {"type": "DT_INT32"}}}, {"name": "model/tf.math.reduce_mean_15/Const", "op": "Const", "attr": {"value": {"tensor": {"dtype": "DT_INT32", "tensorShape": {"dim": [{"size": "4"}]}}}, "dtype": {"type": "DT_INT32"}}}, {"name": "model/tf.__operators__.add_4/y", "op": "Const", "attr": {"value": {"tensor": {"dtype": "DT_FLOAT", "tensorShape": {}}}, "dtype": {"type": "DT_FLOAT"}}}, {"name": "model/tf.strided_slice_10/StridedSlice/begin", "op": "Const", "attr": {"dtype": {"type": "DT_INT64"}, "value": {"tensor": {"dtype": "DT_INT64", "tensorShape": {"dim": [{"size": "4"}]}}}}}, {"name": "model/tf.strided_slice_10/StridedSlice/end", "op": "Const", "attr": {"dtype": {"type": "DT_INT64"}, "value": {"tensor": {"dtype": "DT_INT64", "tensorShape": {"dim": [{"size": "4"}]}}}}}, {"name": "model/tf.strided_slice_10/StridedSlice/strides", "op": "Const", "attr": {"dtype": {"type": "DT_INT64"}, "value": {"tensor": {"dtype": "DT_INT64", "tensorShape": {"dim": [{"size": "4"}]}}}}}, {"name": "model/tf.math.multiply_12/Mul/y", "op": "Const", "attr": {"value": {"tensor": {"dtype": "DT_FLOAT", "tensorShape": {"dim": [{"size": "1"}, {"size": "1"}, {"size": "1"}, {"size": "16"}]}}}, "dtype": {"type": "DT_FLOAT"}}}, {"name": "model/tf.math.add_78/Add/y", "op": "Const", "attr": {"dtype": {"type": "DT_FLOAT"}, "value": {"tensor": {"dtype": "DT_FLOAT", "tensorShape": {"dim": [{"size": "16"}]}}}}}, {"name": "model/tf.math.reduce_mean_16/Const", "op": "Const", "attr": {"value": {"tensor": {"dtype": "DT_INT32", "tensorShape": {"dim": [{"size": "4"}]}}}, "dtype": {"type": "DT_INT32"}}}, {"name": "model/conv2d_40/Conv2D/ReadVariableOp", "op": "Const", "attr": {"value": {"tensor": {"dtype": "DT_FLOAT", "tensorShape": {"dim": [{"size": "1"}, {"size": "1"}, {"size": "24"}, {"size": "32"}]}}}, "dtype": {"type": "DT_FLOAT"}}}, {"name": "model/tf.math.add_77/Add/y", "op": "Const", "attr": {"value": {"tensor": {"dtype": "DT_FLOAT", "tensorShape": {"dim": [{"size": "32"}]}}}, "dtype": {"type": "DT_FLOAT"}}}, {"name": "model/tf.strided_slice_11/StridedSlice/begin", "op": "Const", "attr": {"value": {"tensor": {"dtype": "DT_INT64", "tensorShape": {"dim": [{"size": "4"}]}}}, "dtype": {"type": "DT_INT64"}}}, {"name": "model/tf.strided_slice_11/StridedSlice/end", "op": "Const", "attr": {"value": {"tensor": {"dtype": "DT_INT64", "tensorShape": {"dim": [{"size": "4"}]}}}, "dtype": {"type": "DT_INT64"}}}, {"name": "model/tf.strided_slice_11/StridedSlice/strides", "op": "Const", "attr": {"value": {"tensor": {"dtype": "DT_INT64", "tensorShape": {"dim": [{"size": "4"}]}}}, "dtype": {"type": "DT_INT64"}}}, {"name": "model/tf.math.reduce_mean_17/Const", "op": "Const", "attr": {"value": {"tensor": {"dtype": "DT_INT32", "tensorShape": {"dim": [{"size": "4"}]}}}, "dtype": {"type": "DT_INT32"}}}, {"name": "model/tf.math.reduce_mean_18/Const", "op": "Const", "attr": {"dtype": {"type": "DT_INT32"}, "value": {"tensor": {"dtype": "DT_INT32", "tensorShape": {"dim": [{"size": "4"}]}}}}}, {"name": "model/tf.__operators__.add_5/y", "op": "Const", "attr": {"dtype": {"type": "DT_FLOAT"}, "value": {"tensor": {"dtype": "DT_FLOAT", "tensorShape": {}}}}}, {"name": "model/tf.concat_7/concat/axis", "op": "Const", "attr": {"value": {"tensor": {"dtype": "DT_INT32", "tensorShape": {}}}, "dtype": {"type": "DT_INT32"}}}, {"name": "model/zero_padding2d_22/Pad/paddings", "op": "Const", "attr": {"value": {"tensor": {"dtype": "DT_INT32", "tensorShape": {"dim": [{"size": "4"}, {"size": "2"}]}}}, "dtype": {"type": "DT_INT32"}}}, {"name": "model/conv2d_41/Conv2D/ReadVariableOp", "op": "Const", "attr": {"dtype": {"type": "DT_FLOAT"}, "value": {"tensor": {"dtype": "DT_FLOAT", "tensorShape": {"dim": [{"size": "3"}, {"size": "3"}, {"size": "64"}, {"size": "64"}]}}}}}, {"name": "model/tf.math.add_80/Add/y", "op": "Const", "attr": {"dtype": {"type": "DT_FLOAT"}, "value": {"tensor": {"dtype": "DT_FLOAT", "tensorShape": {"dim": [{"size": "64"}]}}}}}, {"name": "model/tf.strided_slice_13/StridedSlice/begin", "op": "Const", "attr": {"value": {"tensor": {"dtype": "DT_INT64", "tensorShape": {"dim": [{"size": "4"}]}}}, "dtype": {"type": "DT_INT64"}}}, {"name": "model/tf.strided_slice_13/StridedSlice/end", "op": "Const", "attr": {"dtype": {"type": "DT_INT64"}, "value": {"tensor": {"dtype": "DT_INT64", "tensorShape": {"dim": [{"size": "4"}]}}}}}, {"name": "model/tf.strided_slice_13/StridedSlice/strides", "op": "Const", "attr": {"value": {"tensor": {"dtype": "DT_INT64", "tensorShape": {"dim": [{"size": "4"}]}}}, "dtype": {"type": "DT_INT64"}}}, {"name": "model/tf.math.reduce_mean_20/Const", "op": "Const", "attr": {"value": {"tensor": {"dtype": "DT_INT32", "tensorShape": {"dim": [{"size": "4"}]}}}, "dtype": {"type": "DT_INT32"}}}, {"name": "model/tf.math.reduce_mean_21/Const", "op": "Const", "attr": {"dtype": {"type": "DT_INT32"}, "value": {"tensor": {"dtype": "DT_INT32", "tensorShape": {"dim": [{"size": "4"}]}}}}}, {"name": "model/tf.__operators__.add_6/y", "op": "Const", "attr": {"value": {"tensor": {"dtype": "DT_FLOAT", "tensorShape": {}}}, "dtype": {"type": "DT_FLOAT"}}}, {"name": "model/tf.concat_8/concat/axis", "op": "Const", "attr": {"dtype": {"type": "DT_INT32"}, "value": {"tensor": {"dtype": "DT_INT32", "tensorShape": {}}}}}, {"name": "model/tf.strided_slice_2/StridedSlice/begin", "op": "Const", "attr": {"value": {"tensor": {"dtype": "DT_INT64", "tensorShape": {"dim": [{"size": "4"}]}}}, "dtype": {"type": "DT_INT64"}}}, {"name": "model/tf.strided_slice_2/StridedSlice/end", "op": "Const", "attr": {"dtype": {"type": "DT_INT64"}, "value": {"tensor": {"dtype": "DT_INT64", "tensorShape": {"dim": [{"size": "4"}]}}}}}, {"name": "model/tf.strided_slice_2/StridedSlice/strides", "op": "Const", "attr": {"value": {"tensor": {"dtype": "DT_INT64", "tensorShape": {"dim": [{"size": "4"}]}}}, "dtype": {"type": "DT_INT64"}}}, {"name": "model/tf.math.multiply_4/Mul/y", "op": "Const", "attr": {"dtype": {"type": "DT_FLOAT"}, "value": {"tensor": {"dtype": "DT_FLOAT", "tensorShape": {"dim": [{"size": "1"}, {"size": "1"}, {"size": "1"}, {"size": "16"}]}}}}}, {"name": "model/tf.math.add_66/Add/y", "op": "Const", "attr": {"value": {"tensor": {"dtype": "DT_FLOAT", "tensorShape": {"dim": [{"size": "16"}]}}}, "dtype": {"type": "DT_FLOAT"}}}, {"name": "model/tf.math.reduce_mean_4/Const", "op": "Const", "attr": {"dtype": {"type": "DT_INT32"}, "value": {"tensor": {"dtype": "DT_INT32", "tensorShape": {"dim": [{"size": "4"}]}}}}}, {"name": "model/tf.strided_slice/StridedSlice/begin", "op": "Const", "attr": {"value": {"tensor": {"dtype": "DT_INT64", "tensorShape": {"dim": [{"size": "4"}]}}}, "dtype": {"type": "DT_INT64"}}}, {"name": "model/tf.strided_slice/StridedSlice/end", "op": "Const", "attr": {"dtype": {"type": "DT_INT64"}, "value": {"tensor": {"dtype": "DT_INT64", "tensorShape": {"dim": [{"size": "4"}]}}}}}, {"name": "model/tf.strided_slice/StridedSlice/strides", "op": "Const", "attr": {"value": {"tensor": {"dtype": "DT_INT64", "tensorShape": {"dim": [{"size": "4"}]}}}, "dtype": {"type": "DT_INT64"}}}, {"name": "model/tf.math.multiply_2/Mul/y", "op": "Const", "attr": {"value": {"tensor": {"dtype": "DT_FLOAT", "tensorShape": {"dim": [{"size": "1"}, {"size": "1"}, {"size": "1"}, {"size": "48"}]}}}, "dtype": {"type": "DT_FLOAT"}}}, {"name": "model/tf.math.add_63/Add/y", "op": "Const", "attr": {"value": {"tensor": {"dtype": "DT_FLOAT", "tensorShape": {"dim": [{"size": "48"}]}}}, "dtype": {"type": "DT_FLOAT"}}}, {"name": "model/tf.math.reduce_mean_1/Const", "op": "Const", "attr": {"value": {"tensor": {"dtype": "DT_INT32", "tensorShape": {"dim": [{"size": "4"}]}}}, "dtype": {"type": "DT_INT32"}}}, {"name": "model/conv2d_2/Conv2D/ReadVariableOp", "op": "Const", "attr": {"dtype": {"type": "DT_FLOAT"}, "value": {"tensor": {"dtype": "DT_FLOAT", "tensorShape": {"dim": [{"size": "1"}, {"size": "1"}, {"size": "16"}, {"size": "96"}]}}}}}, {"name": "model/tf.math.add_3/Add/y", "op": "Const", "attr": {"dtype": {"type": "DT_FLOAT"}, "value": {"tensor": {"dtype": "DT_FLOAT", "tensorShape": {"dim": [{"size": "96"}]}}}}}, {"name": "model/zero_padding2d_2/Pad/paddings", "op": "Const", "attr": {"value": {"tensor": {"dtype": "DT_INT32", "tensorShape": {"dim": [{"size": "4"}, {"size": "2"}]}}}, "dtype": {"type": "DT_INT32"}}}, {"name": "model/depthwise_conv2d_1/depthwise/ReadVariableOp", "op": "Const", "attr": {"value": {"tensor": {"dtype": "DT_FLOAT", "tensorShape": {"dim": [{"size": "3"}, {"size": "3"}, {"size": "96"}, {"size": "1"}]}}}, "dtype": {"type": "DT_FLOAT"}}}, {"name": "model/tf.math.add_4/Add/y", "op": "Const", "attr": {"dtype": {"type": "DT_FLOAT"}, "value": {"tensor": {"dtype": "DT_FLOAT", "tensorShape": {"dim": [{"size": "96"}]}}}}}, {"name": "model/conv2d_3/Conv2D/ReadVariableOp", "op": "Const", "attr": {"value": {"tensor": {"dtype": "DT_FLOAT", "tensorShape": {"dim": [{"size": "1"}, {"size": "1"}, {"size": "96"}, {"size": "24"}]}}}, "dtype": {"type": "DT_FLOAT"}}}, {"name": "model/tf.math.add_5/Add/y", "op": "Const", "attr": {"dtype": {"type": "DT_FLOAT"}, "value": {"tensor": {"dtype": "DT_FLOAT", "tensorShape": {"dim": [{"size": "24"}]}}}}}, {"name": "model/conv2d_4/Conv2D/ReadVariableOp", "op": "Const", "attr": {"dtype": {"type": "DT_FLOAT"}, "value": {"tensor": {"dtype": "DT_FLOAT", "tensorShape": {"dim": [{"size": "1"}, {"size": "1"}, {"size": "24"}, {"size": "144"}]}}}}}, {"name": "model/tf.math.add_6/Add/y", "op": "Const", "attr": {"value": {"tensor": {"dtype": "DT_FLOAT", "tensorShape": {"dim": [{"size": "144"}]}}}, "dtype": {"type": "DT_FLOAT"}}}, {"name": "model/zero_padding2d_3/Pad/paddings", "op": "Const", "attr": {"value": {"tensor": {"dtype": "DT_INT32", "tensorShape": {"dim": [{"size": "4"}, {"size": "2"}]}}}, "dtype": {"type": "DT_INT32"}}}, {"name": "model/depthwise_conv2d_2/depthwise/ReadVariableOp", "op": "Const", "attr": {"dtype": {"type": "DT_FLOAT"}, "value": {"tensor": {"dtype": "DT_FLOAT", "tensorShape": {"dim": [{"size": "3"}, {"size": "3"}, {"size": "144"}, {"size": "1"}]}}}}}, {"name": "model/tf.math.add_7/Add/y", "op": "Const", "attr": {"dtype": {"type": "DT_FLOAT"}, "value": {"tensor": {"dtype": "DT_FLOAT", "tensorShape": {"dim": [{"size": "144"}]}}}}}, {"name": "model/conv2d_5/Conv2D/ReadVariableOp", "op": "Const", "attr": {"dtype": {"type": "DT_FLOAT"}, "value": {"tensor": {"dtype": "DT_FLOAT", "tensorShape": {"dim": [{"size": "1"}, {"size": "1"}, {"size": "144"}, {"size": "24"}]}}}}}, {"name": "model/tf.math.add_8/Add/y", "op": "Const", "attr": {"dtype": {"type": "DT_FLOAT"}, "value": {"tensor": {"dtype": "DT_FLOAT", "tensorShape": {"dim": [{"size": "24"}]}}}}}, {"name": "model/conv2d_6/Conv2D/ReadVariableOp", "op": "Const", "attr": {"dtype": {"type": "DT_FLOAT"}, "value": {"tensor": {"dtype": "DT_FLOAT", "tensorShape": {"dim": [{"size": "1"}, {"size": "1"}, {"size": "24"}, {"size": "144"}]}}}}}, {"name": "model/tf.math.add_10/Add/y", "op": "Const", "attr": {"value": {"tensor": {"dtype": "DT_FLOAT", "tensorShape": {"dim": [{"size": "144"}]}}}, "dtype": {"type": "DT_FLOAT"}}}, {"name": "model/zero_padding2d_4/Pad/paddings", "op": "Const", "attr": {"value": {"tensor": {"dtype": "DT_INT32", "tensorShape": {"dim": [{"size": "4"}, {"size": "2"}]}}}, "dtype": {"type": "DT_INT32"}}}, {"name": "model/depthwise_conv2d_3/depthwise/ReadVariableOp", "op": "Const", "attr": {"value": {"tensor": {"dtype": "DT_FLOAT", "tensorShape": {"dim": [{"size": "3"}, {"size": "3"}, {"size": "144"}, {"size": "1"}]}}}, "dtype": {"type": "DT_FLOAT"}}}, {"name": "model/tf.math.add_11/Add/y", "op": "Const", "attr": {"dtype": {"type": "DT_FLOAT"}, "value": {"tensor": {"dtype": "DT_FLOAT", "tensorShape": {"dim": [{"size": "144"}]}}}}}, {"name": "model/conv2d_7/Conv2D/ReadVariableOp", "op": "Const", "attr": {"value": {"tensor": {"dtype": "DT_FLOAT", "tensorShape": {"dim": [{"size": "1"}, {"size": "1"}, {"size": "144"}, {"size": "32"}]}}}, "dtype": {"type": "DT_FLOAT"}}}, {"name": "model/tf.math.add_12/Add/y", "op": "Const", "attr": {"value": {"tensor": {"dtype": "DT_FLOAT", "tensorShape": {"dim": [{"size": "32"}]}}}, "dtype": {"type": "DT_FLOAT"}}}, {"name": "model/conv2d_8/Conv2D/ReadVariableOp", "op": "Const", "attr": {"dtype": {"type": "DT_FLOAT"}, "value": {"tensor": {"dtype": "DT_FLOAT", "tensorShape": {"dim": [{"size": "1"}, {"size": "1"}, {"size": "32"}, {"size": "192"}]}}}}}, {"name": "model/tf.math.add_13/Add/y", "op": "Const", "attr": {"dtype": {"type": "DT_FLOAT"}, "value": {"tensor": {"dtype": "DT_FLOAT", "tensorShape": {"dim": [{"size": "192"}]}}}}}, {"name": "model/zero_padding2d_5/Pad/paddings", "op": "Const", "attr": {"value": {"tensor": {"dtype": "DT_INT32", "tensorShape": {"dim": [{"size": "4"}, {"size": "2"}]}}}, "dtype": {"type": "DT_INT32"}}}, {"name": "model/depthwise_conv2d_4/depthwise/ReadVariableOp", "op": "Const", "attr": {"dtype": {"type": "DT_FLOAT"}, "value": {"tensor": {"dtype": "DT_FLOAT", "tensorShape": {"dim": [{"size": "3"}, {"size": "3"}, {"size": "192"}, {"size": "1"}]}}}}}, {"name": "model/tf.math.add_14/Add/y", "op": "Const", "attr": {"value": {"tensor": {"dtype": "DT_FLOAT", "tensorShape": {"dim": [{"size": "192"}]}}}, "dtype": {"type": "DT_FLOAT"}}}, {"name": "model/conv2d_9/Conv2D/ReadVariableOp", "op": "Const", "attr": {"value": {"tensor": {"dtype": "DT_FLOAT", "tensorShape": {"dim": [{"size": "1"}, {"size": "1"}, {"size": "192"}, {"size": "32"}]}}}, "dtype": {"type": "DT_FLOAT"}}}, {"name": "model/tf.math.add_15/Add/y", "op": "Const", "attr": {"value": {"tensor": {"dtype": "DT_FLOAT", "tensorShape": {"dim": [{"size": "32"}]}}}, "dtype": {"type": "DT_FLOAT"}}}, {"name": "model/conv2d_10/Conv2D/ReadVariableOp", "op": "Const", "attr": {"value": {"tensor": {"dtype": "DT_FLOAT", "tensorShape": {"dim": [{"size": "1"}, {"size": "1"}, {"size": "32"}, {"size": "192"}]}}}, "dtype": {"type": "DT_FLOAT"}}}, {"name": "model/tf.math.add_17/Add/y", "op": "Const", "attr": {"dtype": {"type": "DT_FLOAT"}, "value": {"tensor": {"dtype": "DT_FLOAT", "tensorShape": {"dim": [{"size": "192"}]}}}}}, {"name": "model/zero_padding2d_6/Pad/paddings", "op": "Const", "attr": {"value": {"tensor": {"dtype": "DT_INT32", "tensorShape": {"dim": [{"size": "4"}, {"size": "2"}]}}}, "dtype": {"type": "DT_INT32"}}}, {"name": "model/depthwise_conv2d_5/depthwise/ReadVariableOp", "op": "Const", "attr": {"dtype": {"type": "DT_FLOAT"}, "value": {"tensor": {"dtype": "DT_FLOAT", "tensorShape": {"dim": [{"size": "3"}, {"size": "3"}, {"size": "192"}, {"size": "1"}]}}}}}, {"name": "model/tf.math.add_18/Add/y", "op": "Const", "attr": {"value": {"tensor": {"dtype": "DT_FLOAT", "tensorShape": {"dim": [{"size": "192"}]}}}, "dtype": {"type": "DT_FLOAT"}}}, {"name": "model/conv2d_11/Conv2D/ReadVariableOp", "op": "Const", "attr": {"value": {"tensor": {"dtype": "DT_FLOAT", "tensorShape": {"dim": [{"size": "1"}, {"size": "1"}, {"size": "192"}, {"size": "32"}]}}}, "dtype": {"type": "DT_FLOAT"}}}, {"name": "model/tf.math.add_19/Add/y", "op": "Const", "attr": {"value": {"tensor": {"dtype": "DT_FLOAT", "tensorShape": {"dim": [{"size": "32"}]}}}, "dtype": {"type": "DT_FLOAT"}}}, {"name": "model/conv2d_12/Conv2D/ReadVariableOp", "op": "Const", "attr": {"value": {"tensor": {"dtype": "DT_FLOAT", "tensorShape": {"dim": [{"size": "1"}, {"size": "1"}, {"size": "32"}, {"size": "192"}]}}}, "dtype": {"type": "DT_FLOAT"}}}, {"name": "model/tf.math.add_21/Add/y", "op": "Const", "attr": {"value": {"tensor": {"dtype": "DT_FLOAT", "tensorShape": {"dim": [{"size": "192"}]}}}, "dtype": {"type": "DT_FLOAT"}}}, {"name": "model/zero_padding2d_7/Pad/paddings", "op": "Const", "attr": {"dtype": {"type": "DT_INT32"}, "value": {"tensor": {"dtype": "DT_INT32", "tensorShape": {"dim": [{"size": "4"}, {"size": "2"}]}}}}}, {"name": "model/depthwise_conv2d_6/depthwise/ReadVariableOp", "op": "Const", "attr": {"value": {"tensor": {"dtype": "DT_FLOAT", "tensorShape": {"dim": [{"size": "3"}, {"size": "3"}, {"size": "192"}, {"size": "1"}]}}}, "dtype": {"type": "DT_FLOAT"}}}, {"name": "model/tf.math.add_22/Add/y", "op": "Const", "attr": {"value": {"tensor": {"dtype": "DT_FLOAT", "tensorShape": {"dim": [{"size": "192"}]}}}, "dtype": {"type": "DT_FLOAT"}}}, {"name": "model/conv2d_13/Conv2D/ReadVariableOp", "op": "Const", "attr": {"dtype": {"type": "DT_FLOAT"}, "value": {"tensor": {"dtype": "DT_FLOAT", "tensorShape": {"dim": [{"size": "1"}, {"size": "1"}, {"size": "192"}, {"size": "64"}]}}}}}, {"name": "model/tf.math.add_23/Add/y", "op": "Const", "attr": {"value": {"tensor": {"dtype": "DT_FLOAT", "tensorShape": {"dim": [{"size": "64"}]}}}, "dtype": {"type": "DT_FLOAT"}}}, {"name": "model/conv2d_14/Conv2D/ReadVariableOp", "op": "Const", "attr": {"dtype": {"type": "DT_FLOAT"}, "value": {"tensor": {"dtype": "DT_FLOAT", "tensorShape": {"dim": [{"size": "1"}, {"size": "1"}, {"size": "64"}, {"size": "384"}]}}}}}, {"name": "model/tf.math.add_24/Add/y", "op": "Const", "attr": {"dtype": {"type": "DT_FLOAT"}, "value": {"tensor": {"dtype": "DT_FLOAT", "tensorShape": {"dim": [{"size": "384"}]}}}}}, {"name": "model/zero_padding2d_8/Pad/paddings", "op": "Const", "attr": {"value": {"tensor": {"dtype": "DT_INT32", "tensorShape": {"dim": [{"size": "4"}, {"size": "2"}]}}}, "dtype": {"type": "DT_INT32"}}}, {"name": "model/depthwise_conv2d_7/depthwise/ReadVariableOp", "op": "Const", "attr": {"value": {"tensor": {"dtype": "DT_FLOAT", "tensorShape": {"dim": [{"size": "3"}, {"size": "3"}, {"size": "384"}, {"size": "1"}]}}}, "dtype": {"type": "DT_FLOAT"}}}, {"name": "model/tf.math.add_25/Add/y", "op": "Const", "attr": {"dtype": {"type": "DT_FLOAT"}, "value": {"tensor": {"dtype": "DT_FLOAT", "tensorShape": {"dim": [{"size": "384"}]}}}}}, {"name": "model/conv2d_15/Conv2D/ReadVariableOp", "op": "Const", "attr": {"dtype": {"type": "DT_FLOAT"}, "value": {"tensor": {"dtype": "DT_FLOAT", "tensorShape": {"dim": [{"size": "1"}, {"size": "1"}, {"size": "384"}, {"size": "64"}]}}}}}, {"name": "model/tf.math.add_26/Add/y", "op": "Const", "attr": {"value": {"tensor": {"dtype": "DT_FLOAT", "tensorShape": {"dim": [{"size": "64"}]}}}, "dtype": {"type": "DT_FLOAT"}}}, {"name": "model/conv2d_16/Conv2D/ReadVariableOp", "op": "Const", "attr": {"dtype": {"type": "DT_FLOAT"}, "value": {"tensor": {"dtype": "DT_FLOAT", "tensorShape": {"dim": [{"size": "1"}, {"size": "1"}, {"size": "64"}, {"size": "384"}]}}}}}, {"name": "model/tf.math.add_28/Add/y", "op": "Const", "attr": {"dtype": {"type": "DT_FLOAT"}, "value": {"tensor": {"dtype": "DT_FLOAT", "tensorShape": {"dim": [{"size": "384"}]}}}}}, {"name": "model/zero_padding2d_9/Pad/paddings", "op": "Const", "attr": {"value": {"tensor": {"dtype": "DT_INT32", "tensorShape": {"dim": [{"size": "4"}, {"size": "2"}]}}}, "dtype": {"type": "DT_INT32"}}}, {"name": "model/depthwise_conv2d_8/depthwise/ReadVariableOp", "op": "Const", "attr": {"value": {"tensor": {"dtype": "DT_FLOAT", "tensorShape": {"dim": [{"size": "3"}, {"size": "3"}, {"size": "384"}, {"size": "1"}]}}}, "dtype": {"type": "DT_FLOAT"}}}, {"name": "model/tf.math.add_29/Add/y", "op": "Const", "attr": {"value": {"tensor": {"dtype": "DT_FLOAT", "tensorShape": {"dim": [{"size": "384"}]}}}, "dtype": {"type": "DT_FLOAT"}}}, {"name": "model/conv2d_17/Conv2D/ReadVariableOp", "op": "Const", "attr": {"value": {"tensor": {"dtype": "DT_FLOAT", "tensorShape": {"dim": [{"size": "1"}, {"size": "1"}, {"size": "384"}, {"size": "64"}]}}}, "dtype": {"type": "DT_FLOAT"}}}, {"name": "model/tf.math.add_30/Add/y", "op": "Const", "attr": {"dtype": {"type": "DT_FLOAT"}, "value": {"tensor": {"dtype": "DT_FLOAT", "tensorShape": {"dim": [{"size": "64"}]}}}}}, {"name": "model/conv2d_18/Conv2D/ReadVariableOp", "op": "Const", "attr": {"dtype": {"type": "DT_FLOAT"}, "value": {"tensor": {"dtype": "DT_FLOAT", "tensorShape": {"dim": [{"size": "1"}, {"size": "1"}, {"size": "64"}, {"size": "384"}]}}}}}, {"name": "model/tf.math.add_32/Add/y", "op": "Const", "attr": {"value": {"tensor": {"dtype": "DT_FLOAT", "tensorShape": {"dim": [{"size": "384"}]}}}, "dtype": {"type": "DT_FLOAT"}}}, {"name": "model/zero_padding2d_10/Pad/paddings", "op": "Const", "attr": {"value": {"tensor": {"dtype": "DT_INT32", "tensorShape": {"dim": [{"size": "4"}, {"size": "2"}]}}}, "dtype": {"type": "DT_INT32"}}}, {"name": "model/depthwise_conv2d_9/depthwise/ReadVariableOp", "op": "Const", "attr": {"value": {"tensor": {"dtype": "DT_FLOAT", "tensorShape": {"dim": [{"size": "3"}, {"size": "3"}, {"size": "384"}, {"size": "1"}]}}}, "dtype": {"type": "DT_FLOAT"}}}, {"name": "model/tf.math.add_33/Add/y", "op": "Const", "attr": {"value": {"tensor": {"dtype": "DT_FLOAT", "tensorShape": {"dim": [{"size": "384"}]}}}, "dtype": {"type": "DT_FLOAT"}}}, {"name": "model/conv2d_19/Conv2D/ReadVariableOp", "op": "Const", "attr": {"dtype": {"type": "DT_FLOAT"}, "value": {"tensor": {"dtype": "DT_FLOAT", "tensorShape": {"dim": [{"size": "1"}, {"size": "1"}, {"size": "384"}, {"size": "64"}]}}}}}, {"name": "model/tf.math.add_34/Add/y", "op": "Const", "attr": {"dtype": {"type": "DT_FLOAT"}, "value": {"tensor": {"dtype": "DT_FLOAT", "tensorShape": {"dim": [{"size": "64"}]}}}}}, {"name": "model/conv2d_20/Conv2D/ReadVariableOp", "op": "Const", "attr": {"value": {"tensor": {"dtype": "DT_FLOAT", "tensorShape": {"dim": [{"size": "1"}, {"size": "1"}, {"size": "64"}, {"size": "384"}]}}}, "dtype": {"type": "DT_FLOAT"}}}, {"name": "model/tf.math.add_36/Add/y", "op": "Const", "attr": {"value": {"tensor": {"dtype": "DT_FLOAT", "tensorShape": {"dim": [{"size": "384"}]}}}, "dtype": {"type": "DT_FLOAT"}}}, {"name": "model/zero_padding2d_11/Pad/paddings", "op": "Const", "attr": {"dtype": {"type": "DT_INT32"}, "value": {"tensor": {"dtype": "DT_INT32", "tensorShape": {"dim": [{"size": "4"}, {"size": "2"}]}}}}}, {"name": "model/depthwise_conv2d_10/depthwise/ReadVariableOp", "op": "Const", "attr": {"dtype": {"type": "DT_FLOAT"}, "value": {"tensor": {"dtype": "DT_FLOAT", "tensorShape": {"dim": [{"size": "3"}, {"size": "3"}, {"size": "384"}, {"size": "1"}]}}}}}, {"name": "model/tf.math.add_37/Add/y", "op": "Const", "attr": {"value": {"tensor": {"dtype": "DT_FLOAT", "tensorShape": {"dim": [{"size": "384"}]}}}, "dtype": {"type": "DT_FLOAT"}}}, {"name": "model/conv2d_21/Conv2D/ReadVariableOp", "op": "Const", "attr": {"dtype": {"type": "DT_FLOAT"}, "value": {"tensor": {"dtype": "DT_FLOAT", "tensorShape": {"dim": [{"size": "1"}, {"size": "1"}, {"size": "384"}, {"size": "96"}]}}}}}, {"name": "model/tf.math.add_38/Add/y", "op": "Const", "attr": {"value": {"tensor": {"dtype": "DT_FLOAT", "tensorShape": {"dim": [{"size": "96"}]}}}, "dtype": {"type": "DT_FLOAT"}}}, {"name": "model/conv2d_22/Conv2D/ReadVariableOp", "op": "Const", "attr": {"dtype": {"type": "DT_FLOAT"}, "value": {"tensor": {"dtype": "DT_FLOAT", "tensorShape": {"dim": [{"size": "1"}, {"size": "1"}, {"size": "96"}, {"size": "576"}]}}}}}, {"name": "model/tf.math.add_39/Add/y", "op": "Const", "attr": {"value": {"tensor": {"dtype": "DT_FLOAT", "tensorShape": {"dim": [{"size": "576"}]}}}, "dtype": {"type": "DT_FLOAT"}}}, {"name": "model/zero_padding2d_12/Pad/paddings", "op": "Const", "attr": {"value": {"tensor": {"dtype": "DT_INT32", "tensorShape": {"dim": [{"size": "4"}, {"size": "2"}]}}}, "dtype": {"type": "DT_INT32"}}}, {"name": "model/depthwise_conv2d_11/depthwise/ReadVariableOp", "op": "Const", "attr": {"dtype": {"type": "DT_FLOAT"}, "value": {"tensor": {"dtype": "DT_FLOAT", "tensorShape": {"dim": [{"size": "3"}, {"size": "3"}, {"size": "576"}, {"size": "1"}]}}}}}, {"name": "model/tf.math.add_40/Add/y", "op": "Const", "attr": {"dtype": {"type": "DT_FLOAT"}, "value": {"tensor": {"dtype": "DT_FLOAT", "tensorShape": {"dim": [{"size": "576"}]}}}}}, {"name": "model/conv2d_23/Conv2D/ReadVariableOp", "op": "Const", "attr": {"value": {"tensor": {"dtype": "DT_FLOAT", "tensorShape": {"dim": [{"size": "1"}, {"size": "1"}, {"size": "576"}, {"size": "96"}]}}}, "dtype": {"type": "DT_FLOAT"}}}, {"name": "model/tf.math.add_41/Add/y", "op": "Const", "attr": {"value": {"tensor": {"dtype": "DT_FLOAT", "tensorShape": {"dim": [{"size": "96"}]}}}, "dtype": {"type": "DT_FLOAT"}}}, {"name": "model/conv2d_24/Conv2D/ReadVariableOp", "op": "Const", "attr": {"value": {"tensor": {"dtype": "DT_FLOAT", "tensorShape": {"dim": [{"size": "1"}, {"size": "1"}, {"size": "96"}, {"size": "576"}]}}}, "dtype": {"type": "DT_FLOAT"}}}, {"name": "model/tf.math.add_43/Add/y", "op": "Const", "attr": {"value": {"tensor": {"dtype": "DT_FLOAT", "tensorShape": {"dim": [{"size": "576"}]}}}, "dtype": {"type": "DT_FLOAT"}}}, {"name": "model/zero_padding2d_13/Pad/paddings", "op": "Const", "attr": {"value": {"tensor": {"dtype": "DT_INT32", "tensorShape": {"dim": [{"size": "4"}, {"size": "2"}]}}}, "dtype": {"type": "DT_INT32"}}}, {"name": "model/depthwise_conv2d_12/depthwise/ReadVariableOp", "op": "Const", "attr": {"value": {"tensor": {"dtype": "DT_FLOAT", "tensorShape": {"dim": [{"size": "3"}, {"size": "3"}, {"size": "576"}, {"size": "1"}]}}}, "dtype": {"type": "DT_FLOAT"}}}, {"name": "model/tf.math.add_44/Add/y", "op": "Const", "attr": {"value": {"tensor": {"dtype": "DT_FLOAT", "tensorShape": {"dim": [{"size": "576"}]}}}, "dtype": {"type": "DT_FLOAT"}}}, {"name": "model/conv2d_25/Conv2D/ReadVariableOp", "op": "Const", "attr": {"value": {"tensor": {"dtype": "DT_FLOAT", "tensorShape": {"dim": [{"size": "1"}, {"size": "1"}, {"size": "576"}, {"size": "96"}]}}}, "dtype": {"type": "DT_FLOAT"}}}, {"name": "model/tf.math.add_45/Add/y", "op": "Const", "attr": {"value": {"tensor": {"dtype": "DT_FLOAT", "tensorShape": {"dim": [{"size": "96"}]}}}, "dtype": {"type": "DT_FLOAT"}}}, {"name": "model/conv2d_26/Conv2D/ReadVariableOp", "op": "Const", "attr": {"value": {"tensor": {"dtype": "DT_FLOAT", "tensorShape": {"dim": [{"size": "1"}, {"size": "1"}, {"size": "96"}, {"size": "576"}]}}}, "dtype": {"type": "DT_FLOAT"}}}, {"name": "model/tf.math.add_47/Add/y", "op": "Const", "attr": {"dtype": {"type": "DT_FLOAT"}, "value": {"tensor": {"dtype": "DT_FLOAT", "tensorShape": {"dim": [{"size": "576"}]}}}}}, {"name": "model/zero_padding2d_14/Pad/paddings", "op": "Const", "attr": {"dtype": {"type": "DT_INT32"}, "value": {"tensor": {"dtype": "DT_INT32", "tensorShape": {"dim": [{"size": "4"}, {"size": "2"}]}}}}}, {"name": "model/depthwise_conv2d_13/depthwise/ReadVariableOp", "op": "Const", "attr": {"value": {"tensor": {"dtype": "DT_FLOAT", "tensorShape": {"dim": [{"size": "3"}, {"size": "3"}, {"size": "576"}, {"size": "1"}]}}}, "dtype": {"type": "DT_FLOAT"}}}, {"name": "model/tf.math.add_48/Add/y", "op": "Const", "attr": {"value": {"tensor": {"dtype": "DT_FLOAT", "tensorShape": {"dim": [{"size": "576"}]}}}, "dtype": {"type": "DT_FLOAT"}}}, {"name": "model/conv2d_27/Conv2D/ReadVariableOp", "op": "Const", "attr": {"value": {"tensor": {"dtype": "DT_FLOAT", "tensorShape": {"dim": [{"size": "1"}, {"size": "1"}, {"size": "576"}, {"size": "160"}]}}}, "dtype": {"type": "DT_FLOAT"}}}, {"name": "model/tf.math.add_49/Add/y", "op": "Const", "attr": {"dtype": {"type": "DT_FLOAT"}, "value": {"tensor": {"dtype": "DT_FLOAT", "tensorShape": {"dim": [{"size": "160"}]}}}}}, {"name": "model/conv2d_28/Conv2D/ReadVariableOp", "op": "Const", "attr": {"dtype": {"type": "DT_FLOAT"}, "value": {"tensor": {"dtype": "DT_FLOAT", "tensorShape": {"dim": [{"size": "1"}, {"size": "1"}, {"size": "160"}, {"size": "960"}]}}}}}, {"name": "model/tf.math.add_50/Add/y", "op": "Const", "attr": {"value": {"tensor": {"dtype": "DT_FLOAT", "tensorShape": {"dim": [{"size": "960"}]}}}, "dtype": {"type": "DT_FLOAT"}}}, {"name": "model/zero_padding2d_15/Pad/paddings", "op": "Const", "attr": {"value": {"tensor": {"dtype": "DT_INT32", "tensorShape": {"dim": [{"size": "4"}, {"size": "2"}]}}}, "dtype": {"type": "DT_INT32"}}}, {"name": "model/depthwise_conv2d_14/depthwise/ReadVariableOp", "op": "Const", "attr": {"dtype": {"type": "DT_FLOAT"}, "value": {"tensor": {"dtype": "DT_FLOAT", "tensorShape": {"dim": [{"size": "3"}, {"size": "3"}, {"size": "960"}, {"size": "1"}]}}}}}, {"name": "model/tf.math.add_51/Add/y", "op": "Const", "attr": {"value": {"tensor": {"dtype": "DT_FLOAT", "tensorShape": {"dim": [{"size": "960"}]}}}, "dtype": {"type": "DT_FLOAT"}}}, {"name": "model/conv2d_29/Conv2D/ReadVariableOp", "op": "Const", "attr": {"value": {"tensor": {"dtype": "DT_FLOAT", "tensorShape": {"dim": [{"size": "1"}, {"size": "1"}, {"size": "960"}, {"size": "160"}]}}}, "dtype": {"type": "DT_FLOAT"}}}, {"name": "model/tf.math.add_52/Add/y", "op": "Const", "attr": {"dtype": {"type": "DT_FLOAT"}, "value": {"tensor": {"dtype": "DT_FLOAT", "tensorShape": {"dim": [{"size": "160"}]}}}}}, {"name": "model/conv2d_30/Conv2D/ReadVariableOp", "op": "Const", "attr": {"value": {"tensor": {"dtype": "DT_FLOAT", "tensorShape": {"dim": [{"size": "1"}, {"size": "1"}, {"size": "160"}, {"size": "960"}]}}}, "dtype": {"type": "DT_FLOAT"}}}, {"name": "model/tf.math.add_54/Add/y", "op": "Const", "attr": {"value": {"tensor": {"dtype": "DT_FLOAT", "tensorShape": {"dim": [{"size": "960"}]}}}, "dtype": {"type": "DT_FLOAT"}}}, {"name": "model/zero_padding2d_16/Pad/paddings", "op": "Const", "attr": {"value": {"tensor": {"dtype": "DT_INT32", "tensorShape": {"dim": [{"size": "4"}, {"size": "2"}]}}}, "dtype": {"type": "DT_INT32"}}}, {"name": "model/depthwise_conv2d_15/depthwise/ReadVariableOp", "op": "Const", "attr": {"value": {"tensor": {"dtype": "DT_FLOAT", "tensorShape": {"dim": [{"size": "3"}, {"size": "3"}, {"size": "960"}, {"size": "1"}]}}}, "dtype": {"type": "DT_FLOAT"}}}, {"name": "model/tf.math.add_55/Add/y", "op": "Const", "attr": {"dtype": {"type": "DT_FLOAT"}, "value": {"tensor": {"dtype": "DT_FLOAT", "tensorShape": {"dim": [{"size": "960"}]}}}}}, {"name": "model/conv2d_31/Conv2D/ReadVariableOp", "op": "Const", "attr": {"value": {"tensor": {"dtype": "DT_FLOAT", "tensorShape": {"dim": [{"size": "1"}, {"size": "1"}, {"size": "960"}, {"size": "160"}]}}}, "dtype": {"type": "DT_FLOAT"}}}, {"name": "model/tf.math.add_56/Add/y", "op": "Const", "attr": {"dtype": {"type": "DT_FLOAT"}, "value": {"tensor": {"dtype": "DT_FLOAT", "tensorShape": {"dim": [{"size": "160"}]}}}}}, {"name": "model/conv2d_32/Conv2D/ReadVariableOp", "op": "Const", "attr": {"dtype": {"type": "DT_FLOAT"}, "value": {"tensor": {"dtype": "DT_FLOAT", "tensorShape": {"dim": [{"size": "1"}, {"size": "1"}, {"size": "160"}, {"size": "960"}]}}}}}, {"name": "model/tf.math.add_58/Add/y", "op": "Const", "attr": {"dtype": {"type": "DT_FLOAT"}, "value": {"tensor": {"dtype": "DT_FLOAT", "tensorShape": {"dim": [{"size": "960"}]}}}}}, {"name": "model/zero_padding2d_17/Pad/paddings", "op": "Const", "attr": {"value": {"tensor": {"dtype": "DT_INT32", "tensorShape": {"dim": [{"size": "4"}, {"size": "2"}]}}}, "dtype": {"type": "DT_INT32"}}}, {"name": "model/depthwise_conv2d_16/depthwise/ReadVariableOp", "op": "Const", "attr": {"value": {"tensor": {"dtype": "DT_FLOAT", "tensorShape": {"dim": [{"size": "3"}, {"size": "3"}, {"size": "960"}, {"size": "1"}]}}}, "dtype": {"type": "DT_FLOAT"}}}, {"name": "model/tf.math.add_59/Add/y", "op": "Const", "attr": {"dtype": {"type": "DT_FLOAT"}, "value": {"tensor": {"dtype": "DT_FLOAT", "tensorShape": {"dim": [{"size": "960"}]}}}}}, {"name": "model/conv2d_33/Conv2D/ReadVariableOp", "op": "Const", "attr": {"dtype": {"type": "DT_FLOAT"}, "value": {"tensor": {"dtype": "DT_FLOAT", "tensorShape": {"dim": [{"size": "1"}, {"size": "1"}, {"size": "960"}, {"size": "320"}]}}}}}, {"name": "model/tf.math.add_60/Add/y", "op": "Const", "attr": {"value": {"tensor": {"dtype": "DT_FLOAT", "tensorShape": {"dim": [{"size": "320"}]}}}, "dtype": {"type": "DT_FLOAT"}}}, {"name": "model/conv2d_34/Conv2D/ReadVariableOp", "op": "Const", "attr": {"value": {"tensor": {"dtype": "DT_FLOAT", "tensorShape": {"dim": [{"size": "1"}, {"size": "1"}, {"size": "320"}, {"size": "1280"}]}}}, "dtype": {"type": "DT_FLOAT"}}}, {"name": "model/tf.math.add_61/Add/y", "op": "Const", "attr": {"dtype": {"type": "DT_FLOAT"}, "value": {"tensor": {"dtype": "DT_FLOAT", "tensorShape": {"dim": [{"size": "1280"}]}}}}}, {"name": "model/tf.math.reduce_mean/Mean/reduction_indices", "op": "Const", "device": "/job:localhost/replica:0/task:0/device:CPU:0", "attr": {"value": {"tensor": {"dtype": "DT_INT32", "tensorShape": {"dim": [{"size": "2"}]}}}, "dtype": {"type": "DT_INT32"}}}, {"name": "model/tf.reshape/Reshape/shape", "op": "Const", "device": "/job:localhost/replica:0/task:0/device:CPU:0", "attr": {"value": {"tensor": {"dtype": "DT_INT64", "tensorShape": {"dim": [{"size": "2"}]}}}, "dtype": {"type": "DT_INT64"}}}, {"name": "model/tf.linalg.matmul/MatMul/b", "op": "Const", "attr": {"dtype": {"type": "DT_FLOAT"}, "value": {"tensor": {"dtype": "DT_FLOAT", "tensorShape": {"dim": [{"size": "320"}, {"size": "1280"}]}}}}}, {"name": "model/tf.linalg.matmul_1/MatMul/b", "op": "Const", "attr": {"value": {"tensor": {"dtype": "DT_FLOAT", "tensorShape": {"dim": [{"size": "1280"}, {"size": "320"}]}}}, "dtype": {"type": "DT_FLOAT"}}}, {"name": "model/tf.reshape_1/Reshape/shape", "op": "Const", "attr": {"value": {"tensor": {"dtype": "DT_INT32", "tensorShape": {"dim": [{"size": "4"}]}}}, "dtype": {"type": "DT_INT32"}}}, {"name": "ConstantFolding/model/tf.math.multiply/Mul-broadcastto_shape-0", "op": "Const", "attr": {"dtype": {"type": "DT_INT32"}, "value": {"tensor": {"dtype": "DT_INT32", "tensorShape": {"dim": [{"size": "4"}]}}}}}, {"name": "model/lambda/resize/size", "op": "Const", "attr": {"dtype": {"type": "DT_INT32"}, "value": {"tensor": {"dtype": "DT_INT32", "tensorShape": {"dim": [{"size": "2"}]}}}}}, {"name": "model/zero_padding2d_18/Pad/paddings", "op": "Const", "attr": {"value": {"tensor": {"dtype": "DT_INT32", "tensorShape": {"dim": [{"size": "4"}, {"size": "2"}]}}}, "dtype": {"type": "DT_INT32"}}}, {"name": "model/conv2d_35/Conv2D/ReadVariableOp", "op": "Const", "attr": {"value": {"tensor": {"dtype": "DT_FLOAT", "tensorShape": {"dim": [{"size": "5"}, {"size": "5"}, {"size": "1280"}, {"size": "96"}]}}}, "dtype": {"type": "DT_FLOAT"}}}, {"name": "model/tf.math.add_62/Add/y", "op": "Const", "attr": {"dtype": {"type": "DT_FLOAT"}, "value": {"tensor": {"dtype": "DT_FLOAT", "tensorShape": {"dim": [{"size": "96"}]}}}}}, {"name": "model/tf.strided_slice_1/StridedSlice/begin", "op": "Const", "attr": {"dtype": {"type": "DT_INT64"}, "value": {"tensor": {"dtype": "DT_INT64", "tensorShape": {"dim": [{"size": "4"}]}}}}}, {"name": "model/tf.strided_slice_1/StridedSlice/end", "op": "Const", "attr": {"value": {"tensor": {"dtype": "DT_INT64", "tensorShape": {"dim": [{"size": "4"}]}}}, "dtype": {"type": "DT_INT64"}}}, {"name": "model/tf.strided_slice_1/StridedSlice/strides", "op": "Const", "attr": {"dtype": {"type": "DT_INT64"}, "value": {"tensor": {"dtype": "DT_INT64", "tensorShape": {"dim": [{"size": "4"}]}}}}}, {"name": "model/tf.math.reduce_mean_2/Const", "op": "Const", "attr": {"value": {"tensor": {"dtype": "DT_INT32", "tensorShape": {"dim": [{"size": "4"}]}}}, "dtype": {"type": "DT_INT32"}}}, {"name": "model/tf.math.reduce_mean_3/Const", "op": "Const", "attr": {"value": {"tensor": {"dtype": "DT_INT32", "tensorShape": {"dim": [{"size": "4"}]}}}, "dtype": {"type": "DT_INT32"}}}, {"name": "model/tf.__operators__.add/y", "op": "Const", "attr": {"dtype": {"type": "DT_FLOAT"}, "value": {"tensor": {"dtype": "DT_FLOAT", "tensorShape": {}}}}}, {"name": "model/tf.concat/concat/axis", "op": "Const", "attr": {"dtype": {"type": "DT_INT32"}, "value": {"tensor": {"dtype": "DT_INT32", "tensorShape": {}}}}}, {"name": "model/lambda_1/resize/size", "op": "Const", "attr": {"value": {"tensor": {"dtype": "DT_INT32", "tensorShape": {"dim": [{"size": "2"}]}}}, "dtype": {"type": "DT_INT32"}}}, {"name": "model/zero_padding2d_19/Pad/paddings", "op": "Const", "attr": {"value": {"tensor": {"dtype": "DT_INT32", "tensorShape": {"dim": [{"size": "4"}, {"size": "2"}]}}}, "dtype": {"type": "DT_INT32"}}}, {"name": "model/conv2d_36/Conv2D/ReadVariableOp", "op": "Const", "attr": {"value": {"tensor": {"dtype": "DT_FLOAT", "tensorShape": {"dim": [{"size": "5"}, {"size": "5"}, {"size": "96"}, {"size": "32"}]}}}, "dtype": {"type": "DT_FLOAT"}}}, {"name": "model/tf.math.add_65/Add/y", "op": "Const", "attr": {"dtype": {"type": "DT_FLOAT"}, "value": {"tensor": {"dtype": "DT_FLOAT", "tensorShape": {"dim": [{"size": "32"}]}}}}}, {"name": "model/tf.strided_slice_3/StridedSlice/begin", "op": "Const", "attr": {"value": {"tensor": {"dtype": "DT_INT64", "tensorShape": {"dim": [{"size": "4"}]}}}, "dtype": {"type": "DT_INT64"}}}, {"name": "model/tf.strided_slice_3/StridedSlice/end", "op": "Const", "attr": {"value": {"tensor": {"dtype": "DT_INT64", "tensorShape": {"dim": [{"size": "4"}]}}}, "dtype": {"type": "DT_INT64"}}}, {"name": "model/tf.strided_slice_3/StridedSlice/strides", "op": "Const", "attr": {"value": {"tensor": {"dtype": "DT_INT64", "tensorShape": {"dim": [{"size": "4"}]}}}, "dtype": {"type": "DT_INT64"}}}, {"name": "model/tf.math.reduce_mean_5/Const", "op": "Const", "attr": {"value": {"tensor": {"dtype": "DT_INT32", "tensorShape": {"dim": [{"size": "4"}]}}}, "dtype": {"type": "DT_INT32"}}}, {"name": "model/tf.math.reduce_mean_6/Const", "op": "Const", "attr": {"value": {"tensor": {"dtype": "DT_INT32", "tensorShape": {"dim": [{"size": "4"}]}}}, "dtype": {"type": "DT_INT32"}}}, {"name": "model/tf.__operators__.add_1/y", "op": "Const", "attr": {"dtype": {"type": "DT_FLOAT"}, "value": {"tensor": {"dtype": "DT_FLOAT", "tensorShape": {}}}}}, {"name": "model/tf.concat_1/concat/axis", "op": "Const", "attr": {"dtype": {"type": "DT_INT32"}, "value": {"tensor": {"dtype": "DT_INT32", "tensorShape": {}}}}}, {"name": "model/lambda_4/resize/size", "op": "Const", "attr": {"value": {"tensor": {"dtype": "DT_INT32", "tensorShape": {"dim": [{"size": "2"}]}}}, "dtype": {"type": "DT_INT32"}}}, {"name": "model/tf.image.resize_1/resize/size", "op": "Const", "attr": {"value": {"tensor": {"dtype": "DT_INT32", "tensorShape": {"dim": [{"size": "2"}]}}}, "dtype": {"type": "DT_INT32"}}}, {"name": "model/tf.concat_9/concat/axis", "op": "Const", "attr": {"value": {"tensor": {"dtype": "DT_INT32", "tensorShape": {}}}, "dtype": {"type": "DT_INT32"}}}, {"name": "model/zero_padding2d_23/Pad/paddings", "op": "Const", "attr": {"value": {"tensor": {"dtype": "DT_INT32", "tensorShape": {"dim": [{"size": "4"}, {"size": "2"}]}}}, "dtype": {"type": "DT_INT32"}}}, {"name": "model/conv2d_42/Conv2D/ReadVariableOp", "op": "Const", "attr": {"dtype": {"type": "DT_FLOAT"}, "value": {"tensor": {"dtype": "DT_FLOAT", "tensorShape": {"dim": [{"size": "3"}, {"size": "3"}, {"size": "99"}, {"size": "64"}]}}}}}, {"name": "model/tf.math.add_83/Add/y", "op": "Const", "attr": {"dtype": {"type": "DT_FLOAT"}, "value": {"tensor": {"dtype": "DT_FLOAT", "tensorShape": {"dim": [{"size": "64"}]}}}}}, {"name": "model/tf.strided_slice_15/StridedSlice/begin", "op": "Const", "attr": {"value": {"tensor": {"dtype": "DT_INT64", "tensorShape": {"dim": [{"size": "4"}]}}}, "dtype": {"type": "DT_INT64"}}}, {"name": "model/tf.strided_slice_15/StridedSlice/end", "op": "Const", "attr": {"dtype": {"type": "DT_INT64"}, "value": {"tensor": {"dtype": "DT_INT64", "tensorShape": {"dim": [{"size": "4"}]}}}}}, {"name": "model/tf.strided_slice_15/StridedSlice/strides", "op": "Const", "attr": {"dtype": {"type": "DT_INT64"}, "value": {"tensor": {"dtype": "DT_INT64", "tensorShape": {"dim": [{"size": "4"}]}}}}}, {"name": "model/tf.math.reduce_mean_23/Const", "op": "Const", "attr": {"dtype": {"type": "DT_INT32"}, "value": {"tensor": {"dtype": "DT_INT32", "tensorShape": {"dim": [{"size": "4"}]}}}}}, {"name": "model/tf.math.reduce_mean_24/Const", "op": "Const", "attr": {"dtype": {"type": "DT_INT32"}, "value": {"tensor": {"dtype": "DT_INT32", "tensorShape": {"dim": [{"size": "4"}]}}}}}, {"name": "model/tf.__operators__.add_7/y", "op": "Const", "attr": {"dtype": {"type": "DT_FLOAT"}, "value": {"tensor": {"dtype": "DT_FLOAT", "tensorShape": {}}}}}, {"name": "model/tf.concat_10/concat/axis", "op": "Const", "attr": {"dtype": {"type": "DT_INT32"}, "value": {"tensor": {"dtype": "DT_INT32", "tensorShape": {}}}}}, {"name": "model/zero_padding2d_24/Pad/paddings", "op": "Const", "attr": {"value": {"tensor": {"dtype": "DT_INT32", "tensorShape": {"dim": [{"size": "4"}, {"size": "2"}]}}}, "dtype": {"type": "DT_INT32"}}}, {"name": "model/conv2d_43/Conv2D/ReadVariableOp", "op": "Const", "attr": {"dtype": {"type": "DT_FLOAT"}, "value": {"tensor": {"dtype": "DT_FLOAT", "tensorShape": {"dim": [{"size": "3"}, {"size": "3"}, {"size": "64"}, {"size": "64"}]}}}}}, {"name": "model/tf.math.add_86/Add/y", "op": "Const", "attr": {"dtype": {"type": "DT_FLOAT"}, "value": {"tensor": {"dtype": "DT_FLOAT", "tensorShape": {"dim": [{"size": "64"}]}}}}}, {"name": "model/tf.strided_slice_17/StridedSlice/begin", "op": "Const", "attr": {"dtype": {"type": "DT_INT64"}, "value": {"tensor": {"dtype": "DT_INT64", "tensorShape": {"dim": [{"size": "4"}]}}}}}, {"name": "model/tf.strided_slice_17/StridedSlice/end", "op": "Const", "attr": {"value": {"tensor": {"dtype": "DT_INT64", "tensorShape": {"dim": [{"size": "4"}]}}}, "dtype": {"type": "DT_INT64"}}}, {"name": "model/tf.strided_slice_17/StridedSlice/strides", "op": "Const", "attr": {"dtype": {"type": "DT_INT64"}, "value": {"tensor": {"dtype": "DT_INT64", "tensorShape": {"dim": [{"size": "4"}]}}}}}, {"name": "model/tf.math.reduce_mean_26/Const", "op": "Const", "attr": {"dtype": {"type": "DT_INT32"}, "value": {"tensor": {"dtype": "DT_INT32", "tensorShape": {"dim": [{"size": "4"}]}}}}}, {"name": "model/tf.math.reduce_mean_27/Const", "op": "Const", "attr": {"value": {"tensor": {"dtype": "DT_INT32", "tensorShape": {"dim": [{"size": "4"}]}}}, "dtype": {"type": "DT_INT32"}}}, {"name": "model/tf.__operators__.add_8/y", "op": "Const", "attr": {"dtype": {"type": "DT_FLOAT"}, "value": {"tensor": {"dtype": "DT_FLOAT", "tensorShape": {}}}}}, {"name": "model/tf.concat_11/concat/axis", "op": "Const", "attr": {"value": {"tensor": {"dtype": "DT_INT32", "tensorShape": {}}}, "dtype": {"type": "DT_INT32"}}}, {"name": "model/zero_padding2d_25/Pad/paddings", "op": "Const", "attr": {"value": {"tensor": {"dtype": "DT_INT32", "tensorShape": {"dim": [{"size": "4"}, {"size": "2"}]}}}, "dtype": {"type": "DT_INT32"}}}, {"name": "model/conv2d_44/Conv2D/ReadVariableOp", "op": "Const", "attr": {"value": {"tensor": {"dtype": "DT_FLOAT", "tensorShape": {"dim": [{"size": "3"}, {"size": "3"}, {"size": "64"}, {"size": "32"}]}}}, "dtype": {"type": "DT_FLOAT"}}}, {"name": "model/tf.math.add_89/Add/y", "op": "Const", "attr": {"dtype": {"type": "DT_FLOAT"}, "value": {"tensor": {"dtype": "DT_FLOAT", "tensorShape": {"dim": [{"size": "32"}]}}}}}, {"name": "model/tf.strided_slice_19/StridedSlice/begin", "op": "Const", "attr": {"dtype": {"type": "DT_INT64"}, "value": {"tensor": {"dtype": "DT_INT64", "tensorShape": {"dim": [{"size": "4"}]}}}}}, {"name": "model/tf.strided_slice_19/StridedSlice/end", "op": "Const", "attr": {"dtype": {"type": "DT_INT64"}, "value": {"tensor": {"dtype": "DT_INT64", "tensorShape": {"dim": [{"size": "4"}]}}}}}, {"name": "model/tf.strided_slice_19/StridedSlice/strides", "op": "Const", "attr": {"dtype": {"type": "DT_INT64"}, "value": {"tensor": {"dtype": "DT_INT64", "tensorShape": {"dim": [{"size": "4"}]}}}}}, {"name": "model/tf.math.reduce_mean_29/Const", "op": "Const", "attr": {"value": {"tensor": {"dtype": "DT_INT32", "tensorShape": {"dim": [{"size": "4"}]}}}, "dtype": {"type": "DT_INT32"}}}, {"name": "model/tf.math.reduce_mean_30/Const", "op": "Const", "attr": {"value": {"tensor": {"dtype": "DT_INT32", "tensorShape": {"dim": [{"size": "4"}]}}}, "dtype": {"type": "DT_INT32"}}}, {"name": "model/tf.__operators__.add_9/y", "op": "Const", "attr": {"value": {"tensor": {"dtype": "DT_FLOAT", "tensorShape": {}}}, "dtype": {"type": "DT_FLOAT"}}}, {"name": "model/tf.concat_12/concat/axis", "op": "Const", "attr": {"value": {"tensor": {"dtype": "DT_INT32", "tensorShape": {}}}, "dtype": {"type": "DT_INT32"}}}, {"name": "model/lambda_5/resize/size", "op": "Const", "attr": {"value": {"tensor": {"dtype": "DT_INT32", "tensorShape": {"dim": [{"size": "2"}]}}}, "dtype": {"type": "DT_INT32"}}}, {"name": "model/tf.strided_slice_6/StridedSlice/begin", "op": "Const", "attr": {"value": {"tensor": {"dtype": "DT_INT64", "tensorShape": {"dim": [{"size": "4"}]}}}, "dtype": {"type": "DT_INT64"}}}, {"name": "model/tf.strided_slice_6/StridedSlice/end", "op": "Const", "attr": {"dtype": {"type": "DT_INT64"}, "value": {"tensor": {"dtype": "DT_INT64", "tensorShape": {"dim": [{"size": "4"}]}}}}}, {"name": "model/tf.strided_slice_6/StridedSlice/strides", "op": "Const", "attr": {"value": {"tensor": {"dtype": "DT_INT64", "tensorShape": {"dim": [{"size": "4"}]}}}, "dtype": {"type": "DT_INT64"}}}, {"name": "model/tf.math.multiply_8/Mul/y", "op": "Const", "attr": {"dtype": {"type": "DT_FLOAT"}, "value": {"tensor": {"dtype": "DT_FLOAT", "tensorShape": {"dim": [{"size": "1"}, {"size": "1"}, {"size": "1"}, {"size": "16"}]}}}}}, {"name": "model/tf.math.add_72/Add/y", "op": "Const", "attr": {"dtype": {"type": "DT_FLOAT"}, "value": {"tensor": {"dtype": "DT_FLOAT", "tensorShape": {"dim": [{"size": "16"}]}}}}}, {"name": "model/tf.math.reduce_mean_10/Const", "op": "Const", "attr": {"dtype": {"type": "DT_INT32"}, "value": {"tensor": {"dtype": "DT_INT32", "tensorShape": {"dim": [{"size": "4"}]}}}}}, {"name": "model/zero_padding2d/Pad/paddings", "op": "Const", "attr": {"value": {"tensor": {"dtype": "DT_INT32", "tensorShape": {"dim": [{"size": "4"}, {"size": "2"}]}}}, "dtype": {"type": "DT_INT32"}}}, {"name": "model/conv2d/Conv2D/ReadVariableOp", "op": "Const", "attr": {"value": {"tensor": {"dtype": "DT_FLOAT", "tensorShape": {"dim": [{"size": "3"}, {"size": "3"}, {"size": "3"}, {"size": "32"}]}}}, "dtype": {"type": "DT_FLOAT"}}}, {"name": "model/tf.math.add/Add/y", "op": "Const", "attr": {"dtype": {"type": "DT_FLOAT"}, "value": {"tensor": {"dtype": "DT_FLOAT", "tensorShape": {"dim": [{"size": "32"}]}}}}}, {"name": "model/zero_padding2d_1/Pad/paddings", "op": "Const", "attr": {"dtype": {"type": "DT_INT32"}, "value": {"tensor": {"dtype": "DT_INT32", "tensorShape": {"dim": [{"size": "4"}, {"size": "2"}]}}}}}, {"name": "model/depthwise_conv2d/depthwise/ReadVariableOp", "op": "Const", "attr": {"dtype": {"type": "DT_FLOAT"}, "value": {"tensor": {"dtype": "DT_FLOAT", "tensorShape": {"dim": [{"size": "3"}, {"size": "3"}, {"size": "32"}, {"size": "1"}]}}}}}, {"name": "model/tf.math.add_1/Add/y", "op": "Const", "attr": {"dtype": {"type": "DT_FLOAT"}, "value": {"tensor": {"dtype": "DT_FLOAT", "tensorShape": {"dim": [{"size": "32"}]}}}}}, {"name": "model/conv2d_1/Conv2D/ReadVariableOp", "op": "Const", "attr": {"value": {"tensor": {"dtype": "DT_FLOAT", "tensorShape": {"dim": [{"size": "1"}, {"size": "1"}, {"size": "32"}, {"size": "16"}]}}}, "dtype": {"type": "DT_FLOAT"}}}, {"name": "model/tf.math.add_2/Add/y", "op": "Const", "attr": {"dtype": {"type": "DT_FLOAT"}, "value": {"tensor": {"dtype": "DT_FLOAT", "tensorShape": {"dim": [{"size": "16"}]}}}}}, {"name": "model/conv2d_38/Conv2D/ReadVariableOp", "op": "Const", "attr": {"dtype": {"type": "DT_FLOAT"}, "value": {"tensor": {"dtype": "DT_FLOAT", "tensorShape": {"dim": [{"size": "1"}, {"size": "1"}, {"size": "16"}, {"size": "32"}]}}}}}, {"name": "model/tf.math.add_71/Add/y", "op": "Const", "attr": {"value": {"tensor": {"dtype": "DT_FLOAT", "tensorShape": {"dim": [{"size": "32"}]}}}, "dtype": {"type": "DT_FLOAT"}}}, {"name": "model/tf.strided_slice_7/StridedSlice/begin", "op": "Const", "attr": {"dtype": {"type": "DT_INT64"}, "value": {"tensor": {"dtype": "DT_INT64", "tensorShape": {"dim": [{"size": "4"}]}}}}}, {"name": "model/tf.strided_slice_7/StridedSlice/end", "op": "Const", "attr": {"dtype": {"type": "DT_INT64"}, "value": {"tensor": {"dtype": "DT_INT64", "tensorShape": {"dim": [{"size": "4"}]}}}}}, {"name": "model/tf.strided_slice_7/StridedSlice/strides", "op": "Const", "attr": {"value": {"tensor": {"dtype": "DT_INT64", "tensorShape": {"dim": [{"size": "4"}]}}}, "dtype": {"type": "DT_INT64"}}}, {"name": "model/tf.math.reduce_mean_11/Const", "op": "Const", "attr": {"value": {"tensor": {"dtype": "DT_INT32", "tensorShape": {"dim": [{"size": "4"}]}}}, "dtype": {"type": "DT_INT32"}}}, {"name": "model/tf.math.reduce_mean_12/Const", "op": "Const", "attr": {"value": {"tensor": {"dtype": "DT_INT32", "tensorShape": {"dim": [{"size": "4"}]}}}, "dtype": {"type": "DT_INT32"}}}, {"name": "model/tf.__operators__.add_3/y", "op": "Const", "attr": {"dtype": {"type": "DT_FLOAT"}, "value": {"tensor": {"dtype": "DT_FLOAT", "tensorShape": {}}}}}, {"name": "model/tf.concat_3/concat/axis", "op": "Const", "attr": {"dtype": {"type": "DT_INT32"}, "value": {"tensor": {"dtype": "DT_INT32", "tensorShape": {}}}}}, {"name": "model/tf.concat_13/concat/axis", "op": "Const", "attr": {"value": {"tensor": {"dtype": "DT_INT32", "tensorShape": {}}}, "dtype": {"type": "DT_INT32"}}}, {"name": "model/zero_padding2d_26/Pad/paddings", "op": "Const", "attr": {"dtype": {"type": "DT_INT32"}, "value": {"tensor": {"dtype": "DT_INT32", "tensorShape": {"dim": [{"size": "4"}, {"size": "2"}]}}}}}, {"name": "model/conv2d_45/Conv2D/ReadVariableOp", "op": "Const", "attr": {"value": {"tensor": {"dtype": "DT_FLOAT", "tensorShape": {"dim": [{"size": "3"}, {"size": "3"}, {"size": "64"}, {"size": "64"}]}}}, "dtype": {"type": "DT_FLOAT"}}}, {"name": "model/tf.math.add_92/Add/y", "op": "Const", "attr": {"value": {"tensor": {"dtype": "DT_FLOAT", "tensorShape": {"dim": [{"size": "64"}]}}}, "dtype": {"type": "DT_FLOAT"}}}, {"name": "model/tf.strided_slice_21/StridedSlice/begin", "op": "Const", "attr": {"value": {"tensor": {"dtype": "DT_INT64", "tensorShape": {"dim": [{"size": "4"}]}}}, "dtype": {"type": "DT_INT64"}}}, {"name": "model/tf.strided_slice_21/StridedSlice/end", "op": "Const", "attr": {"dtype": {"type": "DT_INT64"}, "value": {"tensor": {"dtype": "DT_INT64", "tensorShape": {"dim": [{"size": "4"}]}}}}}, {"name": "model/tf.strided_slice_21/StridedSlice/strides", "op": "Const", "attr": {"dtype": {"type": "DT_INT64"}, "value": {"tensor": {"dtype": "DT_INT64", "tensorShape": {"dim": [{"size": "4"}]}}}}}, {"name": "model/tf.math.reduce_mean_32/Const", "op": "Const", "attr": {"value": {"tensor": {"dtype": "DT_INT32", "tensorShape": {"dim": [{"size": "4"}]}}}, "dtype": {"type": "DT_INT32"}}}, {"name": "model/tf.math.reduce_mean_33/Const", "op": "Const", "attr": {"value": {"tensor": {"dtype": "DT_INT32", "tensorShape": {"dim": [{"size": "4"}]}}}, "dtype": {"type": "DT_INT32"}}}, {"name": "model/tf.__operators__.add_10/y", "op": "Const", "attr": {"dtype": {"type": "DT_FLOAT"}, "value": {"tensor": {"dtype": "DT_FLOAT", "tensorShape": {}}}}}, {"name": "model/tf.concat_14/concat/axis", "op": "Const", "attr": {"dtype": {"type": "DT_INT32"}, "value": {"tensor": {"dtype": "DT_INT32", "tensorShape": {}}}}}, {"name": "model/zero_padding2d_27/Pad/paddings", "op": "Const", "attr": {"value": {"tensor": {"dtype": "DT_INT32", "tensorShape": {"dim": [{"size": "4"}, {"size": "2"}]}}}, "dtype": {"type": "DT_INT32"}}}, {"name": "model/conv2d_46/Conv2D/ReadVariableOp", "op": "Const", "attr": {"dtype": {"type": "DT_FLOAT"}, "value": {"tensor": {"dtype": "DT_FLOAT", "tensorShape": {"dim": [{"size": "3"}, {"size": "3"}, {"size": "64"}, {"size": "32"}]}}}}}, {"name": "model/tf.math.add_95/Add/y", "op": "Const", "attr": {"dtype": {"type": "DT_FLOAT"}, "value": {"tensor": {"dtype": "DT_FLOAT", "tensorShape": {"dim": [{"size": "32"}]}}}}}, {"name": "model/tf.strided_slice_23/StridedSlice/begin", "op": "Const", "attr": {"value": {"tensor": {"dtype": "DT_INT64", "tensorShape": {"dim": [{"size": "4"}]}}}, "dtype": {"type": "DT_INT64"}}}, {"name": "model/tf.strided_slice_23/StridedSlice/end", "op": "Const", "attr": {"value": {"tensor": {"dtype": "DT_INT64", "tensorShape": {"dim": [{"size": "4"}]}}}, "dtype": {"type": "DT_INT64"}}}, {"name": "model/tf.strided_slice_23/StridedSlice/strides", "op": "Const", "attr": {"dtype": {"type": "DT_INT64"}, "value": {"tensor": {"dtype": "DT_INT64", "tensorShape": {"dim": [{"size": "4"}]}}}}}, {"name": "model/tf.math.reduce_mean_35/Const", "op": "Const", "attr": {"value": {"tensor": {"dtype": "DT_INT32", "tensorShape": {"dim": [{"size": "4"}]}}}, "dtype": {"type": "DT_INT32"}}}, {"name": "model/tf.math.reduce_mean_36/Const", "op": "Const", "attr": {"dtype": {"type": "DT_INT32"}, "value": {"tensor": {"dtype": "DT_INT32", "tensorShape": {"dim": [{"size": "4"}]}}}}}, {"name": "model/tf.__operators__.add_11/y", "op": "Const", "attr": {"value": {"tensor": {"dtype": "DT_FLOAT", "tensorShape": {}}}, "dtype": {"type": "DT_FLOAT"}}}, {"name": "model/tf.concat_15/concat/axis", "op": "Const", "attr": {"value": {"tensor": {"dtype": "DT_INT32", "tensorShape": {}}}, "dtype": {"type": "DT_INT32"}}}, {"name": "model/zero_padding2d_28/Pad/paddings", "op": "Const", "attr": {"dtype": {"type": "DT_INT32"}, "value": {"tensor": {"dtype": "DT_INT32", "tensorShape": {"dim": [{"size": "4"}, {"size": "2"}]}}}}}, {"name": "model/conv2d_47/Conv2D/ReadVariableOp", "op": "Const", "attr": {"dtype": {"type": "DT_FLOAT"}, "value": {"tensor": {"dtype": "DT_FLOAT", "tensorShape": {"dim": [{"size": "3"}, {"size": "3"}, {"size": "32"}, {"size": "32"}]}}}}}, {"name": "model/tf.math.add_98/Add/y", "op": "Const", "attr": {"value": {"tensor": {"dtype": "DT_FLOAT", "tensorShape": {"dim": [{"size": "32"}]}}}, "dtype": {"type": "DT_FLOAT"}}}, {"name": "model/tf.strided_slice_25/StridedSlice/begin", "op": "Const", "attr": {"value": {"tensor": {"dtype": "DT_INT64", "tensorShape": {"dim": [{"size": "4"}]}}}, "dtype": {"type": "DT_INT64"}}}, {"name": "model/tf.strided_slice_25/StridedSlice/end", "op": "Const", "attr": {"dtype": {"type": "DT_INT64"}, "value": {"tensor": {"dtype": "DT_INT64", "tensorShape": {"dim": [{"size": "4"}]}}}}}, {"name": "model/tf.strided_slice_25/StridedSlice/strides", "op": "Const", "attr": {"value": {"tensor": {"dtype": "DT_INT64", "tensorShape": {"dim": [{"size": "4"}]}}}, "dtype": {"type": "DT_INT64"}}}, {"name": "model/tf.math.reduce_mean_38/Const", "op": "Const", "attr": {"dtype": {"type": "DT_INT32"}, "value": {"tensor": {"dtype": "DT_INT32", "tensorShape": {"dim": [{"size": "4"}]}}}}}, {"name": "model/tf.math.reduce_mean_39/Const", "op": "Const", "attr": {"value": {"tensor": {"dtype": "DT_INT32", "tensorShape": {"dim": [{"size": "4"}]}}}, "dtype": {"type": "DT_INT32"}}}, {"name": "model/tf.__operators__.add_12/y", "op": "Const", "attr": {"value": {"tensor": {"dtype": "DT_FLOAT", "tensorShape": {}}}, "dtype": {"type": "DT_FLOAT"}}}, {"name": "model/tf.concat_16/concat/axis", "op": "Const", "attr": {"dtype": {"type": "DT_INT32"}, "value": {"tensor": {"dtype": "DT_INT32", "tensorShape": {}}}}}, {"name": "model/zero_padding2d_29/Pad/paddings", "op": "Const", "attr": {"value": {"tensor": {"dtype": "DT_INT32", "tensorShape": {"dim": [{"size": "4"}, {"size": "2"}]}}}, "dtype": {"type": "DT_INT32"}}}, {"name": "model/conv2d_48/Conv2D/ReadVariableOp", "op": "Const", "attr": {"value": {"tensor": {"dtype": "DT_FLOAT", "tensorShape": {"dim": [{"size": "3"}, {"size": "3"}, {"size": "32"}, {"size": "32"}]}}}, "dtype": {"type": "DT_FLOAT"}}}, {"name": "model/tf.math.add_101/Add/y", "op": "Const", "attr": {"value": {"tensor": {"dtype": "DT_FLOAT", "tensorShape": {"dim": [{"size": "32"}]}}}, "dtype": {"type": "DT_FLOAT"}}}, {"name": "model/tf.strided_slice_27/StridedSlice/begin", "op": "Const", "attr": {"value": {"tensor": {"dtype": "DT_INT64", "tensorShape": {"dim": [{"size": "4"}]}}}, "dtype": {"type": "DT_INT64"}}}, {"name": "model/tf.strided_slice_27/StridedSlice/end", "op": "Const", "attr": {"dtype": {"type": "DT_INT64"}, "value": {"tensor": {"dtype": "DT_INT64", "tensorShape": {"dim": [{"size": "4"}]}}}}}, {"name": "model/tf.strided_slice_27/StridedSlice/strides", "op": "Const", "attr": {"dtype": {"type": "DT_INT64"}, "value": {"tensor": {"dtype": "DT_INT64", "tensorShape": {"dim": [{"size": "4"}]}}}}}, {"name": "model/tf.math.reduce_mean_41/Const", "op": "Const", "attr": {"value": {"tensor": {"dtype": "DT_INT32", "tensorShape": {"dim": [{"size": "4"}]}}}, "dtype": {"type": "DT_INT32"}}}, {"name": "model/tf.math.reduce_mean_42/Const", "op": "Const", "attr": {"value": {"tensor": {"dtype": "DT_INT32", "tensorShape": {"dim": [{"size": "4"}]}}}, "dtype": {"type": "DT_INT32"}}}, {"name": "model/tf.__operators__.add_13/y", "op": "Const", "attr": {"value": {"tensor": {"dtype": "DT_FLOAT", "tensorShape": {}}}, "dtype": {"type": "DT_FLOAT"}}}, {"name": "model/tf.concat_17/concat/axis", "op": "Const", "attr": {"value": {"tensor": {"dtype": "DT_INT32", "tensorShape": {}}}, "dtype": {"type": "DT_INT32"}}}, {"name": "model/tf.concat_18/concat/axis", "op": "Const", "attr": {"dtype": {"type": "DT_INT32"}, "value": {"tensor": {"dtype": "DT_INT32", "tensorShape": {}}}}}, {"name": "model/zero_padding2d_30/Pad/paddings", "op": "Const", "attr": {"dtype": {"type": "DT_INT32"}, "value": {"tensor": {"dtype": "DT_INT32", "tensorShape": {"dim": [{"size": "4"}, {"size": "2"}]}}}}}, {"name": "model/conv2d_49/Conv2D/ReadVariableOp", "op": "Const", "attr": {"dtype": {"type": "DT_FLOAT"}, "value": {"tensor": {"dtype": "DT_FLOAT", "tensorShape": {"dim": [{"size": "3"}, {"size": "3"}, {"size": "64"}, {"size": "32"}]}}}}}, {"name": "model/tf.math.add_104/Add/y", "op": "Const", "attr": {"dtype": {"type": "DT_FLOAT"}, "value": {"tensor": {"dtype": "DT_FLOAT", "tensorShape": {"dim": [{"size": "32"}]}}}}}, {"name": "model/tf.strided_slice_29/StridedSlice/begin", "op": "Const", "attr": {"value": {"tensor": {"dtype": "DT_INT64", "tensorShape": {"dim": [{"size": "4"}]}}}, "dtype": {"type": "DT_INT64"}}}, {"name": "model/tf.strided_slice_29/StridedSlice/end", "op": "Const", "attr": {"value": {"tensor": {"dtype": "DT_INT64", "tensorShape": {"dim": [{"size": "4"}]}}}, "dtype": {"type": "DT_INT64"}}}, {"name": "model/tf.strided_slice_29/StridedSlice/strides", "op": "Const", "attr": {"value": {"tensor": {"dtype": "DT_INT64", "tensorShape": {"dim": [{"size": "4"}]}}}, "dtype": {"type": "DT_INT64"}}}, {"name": "model/tf.math.reduce_mean_44/Const", "op": "Const", "attr": {"dtype": {"type": "DT_INT32"}, "value": {"tensor": {"dtype": "DT_INT32", "tensorShape": {"dim": [{"size": "4"}]}}}}}, {"name": "model/tf.math.reduce_mean_45/Const", "op": "Const", "attr": {"dtype": {"type": "DT_INT32"}, "value": {"tensor": {"dtype": "DT_INT32", "tensorShape": {"dim": [{"size": "4"}]}}}}}, {"name": "model/tf.__operators__.add_14/y", "op": "Const", "attr": {"dtype": {"type": "DT_FLOAT"}, "value": {"tensor": {"dtype": "DT_FLOAT", "tensorShape": {}}}}}, {"name": "model/tf.concat_19/concat/axis", "op": "Const", "attr": {"dtype": {"type": "DT_INT32"}, "value": {"tensor": {"dtype": "DT_INT32", "tensorShape": {}}}}}, {"name": "model/lambda_6/resize/size", "op": "Const", "attr": {"value": {"tensor": {"dtype": "DT_INT32", "tensorShape": {"dim": [{"size": "2"}]}}}, "dtype": {"type": "DT_INT32"}}}, {"name": "model/tf.concat_20/concat/axis", "op": "Const", "attr": {"dtype": {"type": "DT_INT32"}, "value": {"tensor": {"dtype": "DT_INT32", "tensorShape": {}}}}}, {"name": "model/zero_padding2d_31/Pad/paddings", "op": "Const", "attr": {"value": {"tensor": {"dtype": "DT_INT32", "tensorShape": {"dim": [{"size": "4"}, {"size": "2"}]}}}, "dtype": {"type": "DT_INT32"}}}, {"name": "model/conv2d_50/Conv2D/ReadVariableOp", "op": "Const", "attr": {"value": {"tensor": {"dtype": "DT_FLOAT", "tensorShape": {"dim": [{"size": "3"}, {"size": "3"}, {"size": "35"}, {"size": "16"}]}}}, "dtype": {"type": "DT_FLOAT"}}}, {"name": "model/tf.math.add_107/Add/y", "op": "Const", "attr": {"value": {"tensor": {"dtype": "DT_FLOAT", "tensorShape": {"dim": [{"size": "16"}]}}}, "dtype": {"type": "DT_FLOAT"}}}, {"name": "model/tf.strided_slice_31/StridedSlice/begin", "op": "Const", "attr": {"value": {"tensor": {"dtype": "DT_INT64", "tensorShape": {"dim": [{"size": "4"}]}}}, "dtype": {"type": "DT_INT64"}}}, {"name": "model/tf.strided_slice_31/StridedSlice/end", "op": "Const", "attr": {"dtype": {"type": "DT_INT64"}, "value": {"tensor": {"dtype": "DT_INT64", "tensorShape": {"dim": [{"size": "4"}]}}}}}, {"name": "model/tf.strided_slice_31/StridedSlice/strides", "op": "Const", "attr": {"dtype": {"type": "DT_INT64"}, "value": {"tensor": {"dtype": "DT_INT64", "tensorShape": {"dim": [{"size": "4"}]}}}}}, {"name": "model/tf.math.reduce_mean_47/Const", "op": "Const", "attr": {"dtype": {"type": "DT_INT32"}, "value": {"tensor": {"dtype": "DT_INT32", "tensorShape": {"dim": [{"size": "4"}]}}}}}, {"name": "model/tf.math.reduce_mean_48/Const", "op": "Const", "attr": {"value": {"tensor": {"dtype": "DT_INT32", "tensorShape": {"dim": [{"size": "4"}]}}}, "dtype": {"type": "DT_INT32"}}}, {"name": "model/tf.__operators__.add_15/y", "op": "Const", "attr": {"value": {"tensor": {"dtype": "DT_FLOAT", "tensorShape": {}}}, "dtype": {"type": "DT_FLOAT"}}}, {"name": "model/tf.concat_21/concat/axis", "op": "Const", "attr": {"value": {"tensor": {"dtype": "DT_INT32", "tensorShape": {}}}, "dtype": {"type": "DT_INT32"}}}, {"name": "model/conv2d_51/Conv2D/ReadVariableOp", "op": "Const", "attr": {"dtype": {"type": "DT_FLOAT"}, "value": {"tensor": {"dtype": "DT_FLOAT", "tensorShape": {"dim": [{"size": "1"}, {"size": "1"}, {"size": "16"}, {"size": "1"}]}}}}}, {"name": "model/tf.math.add_110/Add/y", "op": "Const", "attr": {"dtype": {"type": "DT_FLOAT"}, "value": {"tensor": {"dtype": "DT_FLOAT", "tensorShape": {"dim": [{"size": "1"}]}}}}}, {"name": "inputs", "op": "Placeholder", "attr": {"dtype": {"type": "DT_FLOAT"}, "shape": {"shape": {"dim": [{"size": "1"}, {"size": "192"}, {"size": "192"}, {"size": "3"}]}}}}, {"name": "model/tf.image.resize/resize/ResizeBilinear", "op": "ResizeBilinear", "input": ["inputs", "model/tf.image.resize/resize/size"], "attr": {"align_corners": {"b": false}, "T": {"type": "DT_FLOAT"}, "half_pixel_centers": {"b": true}}}, {"name": "model/tf.image.resize_1/resize/ResizeBilinear", "op": "ResizeBilinear", "input": ["inputs", "model/tf.image.resize_1/resize/size"], "attr": {"half_pixel_centers": {"b": true}, "T": {"type": "DT_FLOAT"}, "align_corners": {"b": false}}}, {"name": "model/zero_padding2d/Pad", "op": "Pad", "input": ["inputs", "model/zero_padding2d/Pad/paddings"], "attr": {"Tpaddings": {"type": "DT_INT32"}, "T": {"type": "DT_FLOAT"}}}, {"name": "model/conv2d/Conv2D", "op": "Conv2D", "input": ["model/zero_padding2d/Pad", "model/conv2d/Conv2D/ReadVariableOp"], "device": "/device:CPU:0", "attr": {"T": {"type": "DT_FLOAT"}, "strides": {"list": {"i": ["1", "2", "2", "1"]}}, "explicit_paddings": {"list": {}}, "use_cudnn_on_gpu": {"b": true}, "padding": {"s": "VkFMSUQ="}, "data_format": {"s": "TkhXQw=="}, "dilations": {"list": {"i": ["1", "1", "1", "1"]}}}}, {"name": "model/tf.math.add/Add", "op": "Add", "input": ["model/conv2d/Conv2D", "model/tf.math.add/Add/y"], "attr": {"T": {"type": "DT_FLOAT"}}}, {"name": "model/tf.nn.relu6/Relu6", "op": "Relu6", "input": ["model/tf.math.add/Add"], "attr": {"T": {"type": "DT_FLOAT"}}}, {"name": "model/zero_padding2d_1/Pad", "op": "Pad", "input": ["model/tf.nn.relu6/Relu6", "model/zero_padding2d_1/Pad/paddings"], "attr": {"Tpaddings": {"type": "DT_INT32"}, "T": {"type": "DT_FLOAT"}}}, {"name": "model/depthwise_conv2d/depthwise", "op": "DepthwiseConv2dNative", "input": ["model/zero_padding2d_1/Pad", "model/depthwise_conv2d/depthwise/ReadVariableOp"], "attr": {"data_format": {"s": "TkhXQw=="}, "explicit_paddings": {"list": {}}, "strides": {"list": {"i": ["1", "1", "1", "1"]}}, "padding": {"s": "VkFMSUQ="}, "dilations": {"list": {"i": ["1", "1", "1", "1"]}}, "T": {"type": "DT_FLOAT"}}}, {"name": "model/tf.math.add_1/Add", "op": "Add", "input": ["model/depthwise_conv2d/depthwise", "model/tf.math.add_1/Add/y"], "attr": {"T": {"type": "DT_FLOAT"}}}, {"name": "model/tf.nn.relu6_1/Relu6", "op": "Relu6", "input": ["model/tf.math.add_1/Add"], "attr": {"T": {"type": "DT_FLOAT"}}}, {"name": "model/conv2d_1/Conv2D", "op": "Conv2D", "input": ["model/tf.nn.relu6_1/Relu6", "model/conv2d_1/Conv2D/ReadVariableOp"], "device": "/device:CPU:0", "attr": {"explicit_paddings": {"list": {}}, "strides": {"list": {"i": ["1", "1", "1", "1"]}}, "use_cudnn_on_gpu": {"b": true}, "dilations": {"list": {"i": ["1", "1", "1", "1"]}}, "padding": {"s": "VkFMSUQ="}, "data_format": {"s": "TkhXQw=="}, "T": {"type": "DT_FLOAT"}}}, {"name": "model/tf.math.add_2/Add", "op": "Add", "input": ["model/conv2d_1/Conv2D", "model/tf.math.add_2/Add/y"], "attr": {"T": {"type": "DT_FLOAT"}}}, {"name": "model/conv2d_2/Conv2D", "op": "Conv2D", "input": ["model/tf.math.add_2/Add", "model/conv2d_2/Conv2D/ReadVariableOp"], "device": "/device:CPU:0", "attr": {"use_cudnn_on_gpu": {"b": true}, "dilations": {"list": {"i": ["1", "1", "1", "1"]}}, "padding": {"s": "VkFMSUQ="}, "data_format": {"s": "TkhXQw=="}, "explicit_paddings": {"list": {}}, "T": {"type": "DT_FLOAT"}, "strides": {"list": {"i": ["1", "1", "1", "1"]}}}}, {"name": "model/conv2d_38/Conv2D", "op": "Conv2D", "input": ["model/tf.math.add_2/Add", "model/conv2d_38/Conv2D/ReadVariableOp"], "device": "/device:CPU:0", "attr": {"explicit_paddings": {"list": {}}, "dilations": {"list": {"i": ["1", "1", "1", "1"]}}, "use_cudnn_on_gpu": {"b": true}, "padding": {"s": "VkFMSUQ="}, "strides": {"list": {"i": ["1", "1", "1", "1"]}}, "T": {"type": "DT_FLOAT"}, "data_format": {"s": "TkhXQw=="}}}, {"name": "model/tf.math.add_3/Add", "op": "Add", "input": ["model/conv2d_2/Conv2D", "model/tf.math.add_3/Add/y"], "attr": {"T": {"type": "DT_FLOAT"}}}, {"name": "model/tf.math.add_71/Add", "op": "Add", "input": ["model/conv2d_38/Conv2D", "model/tf.math.add_71/Add/y"], "attr": {"T": {"type": "DT_FLOAT"}}}, {"name": "model/tf.nn.relu6_2/Relu6", "op": "Relu6", "input": ["model/tf.math.add_3/Add"], "attr": {"T": {"type": "DT_FLOAT"}}}, {"name": "model/tf.strided_slice_6/StridedSlice", "op": "StridedSlice", "input": ["model/tf.math.add_71/Add", "model/tf.strided_slice_6/StridedSlice/begin", "model/tf.strided_slice_6/StridedSlice/end", "model/tf.strided_slice_6/StridedSlice/strides"], "attr": {"Index": {"type": "DT_INT64"}, "shrink_axis_mask": {"i": "0"}, "new_axis_mask": {"i": "0"}, "T": {"type": "DT_FLOAT"}, "begin_mask": {"i": "-1"}, "end_mask": {"i": "3"}, "ellipsis_mask": {"i": "0"}}}, {"name": "model/tf.strided_slice_7/StridedSlice", "op": "StridedSlice", "input": ["model/tf.math.add_71/Add", "model/tf.strided_slice_7/StridedSlice/begin", "model/tf.strided_slice_7/StridedSlice/end", "model/tf.strided_slice_7/StridedSlice/strides"], "attr": {"Index": {"type": "DT_INT64"}, "new_axis_mask": {"i": "0"}, "ellipsis_mask": {"i": "0"}, "T": {"type": "DT_FLOAT"}, "begin_mask": {"i": "3"}, "end_mask": {"i": "3"}, "shrink_axis_mask": {"i": "0"}}}, {"name": "model/zero_padding2d_2/Pad", "op": "Pad", "input": ["model/tf.nn.relu6_2/Relu6", "model/zero_padding2d_2/Pad/paddings"], "attr": {"T": {"type": "DT_FLOAT"}, "Tpaddings": {"type": "DT_INT32"}}}, {"name": "model/tf.math.multiply_8/Mul", "op": "Mul", "input": ["model/tf.strided_slice_6/StridedSlice", "model/tf.math.multiply_8/Mul/y"], "attr": {"T": {"type": "DT_FLOAT"}}}, {"name": "model/tf.math.reduce_mean_10/Mean", "op": "Mean", "input": ["model/tf.strided_slice_7/StridedSlice", "model/tf.math.reduce_mean_10/Const"], "attr": {"T": {"type": "DT_FLOAT"}, "keep_dims": {"b": true}, "Tidx": {"type": "DT_INT32"}}}, {"name": "model/tf.math.reduce_mean_11/Mean", "op": "Mean", "input": ["model/tf.strided_slice_7/StridedSlice", "model/tf.math.reduce_mean_11/Const"], "attr": {"keep_dims": {"b": true}, "T": {"type": "DT_FLOAT"}, "Tidx": {"type": "DT_INT32"}}}, {"name": "model/depthwise_conv2d_1/depthwise", "op": "DepthwiseConv2dNative", "input": ["model/zero_padding2d_2/Pad", "model/depthwise_conv2d_1/depthwise/ReadVariableOp"], "attr": {"strides": {"list": {"i": ["1", "2", "2", "1"]}}, "dilations": {"list": {"i": ["1", "1", "1", "1"]}}, "explicit_paddings": {"list": {}}, "data_format": {"s": "TkhXQw=="}, "T": {"type": "DT_FLOAT"}, "padding": {"s": "VkFMSUQ="}}}, {"name": "model/tf.math.add_72/Add", "op": "Add", "input": ["model/tf.math.multiply_8/Mul", "model/tf.math.add_72/Add/y"], "attr": {"T": {"type": "DT_FLOAT"}}}, {"name": "model/tf.math.subtract_7/Sub", "op": "Sub", "input": ["model/tf.strided_slice_7/StridedSlice", "model/tf.math.reduce_mean_10/Mean"], "attr": {"T": {"type": "DT_FLOAT"}}}, {"name": "model/tf.math.subtract_6/Sub", "op": "SquaredDifference", "input": ["model/tf.strided_slice_7/StridedSlice", "model/tf.math.reduce_mean_11/Mean"], "attr": {"T": {"type": "DT_FLOAT"}}}, {"name": "model/tf.math.add_4/Add", "op": "Add", "input": ["model/depthwise_conv2d_1/depthwise", "model/tf.math.add_4/Add/y"], "attr": {"T": {"type": "DT_FLOAT"}}}, {"name": "model/tf.math.reduce_mean_12/Mean", "op": "Mean", "input": ["model/tf.math.subtract_6/Sub", "model/tf.math.reduce_mean_12/Const"], "attr": {"keep_dims": {"b": true}, "T": {"type": "DT_FLOAT"}, "Tidx": {"type": "DT_INT32"}}}, {"name": "model/tf.nn.relu6_3/Relu6", "op": "Relu6", "input": ["model/tf.math.add_4/Add"], "attr": {"T": {"type": "DT_FLOAT"}}}, {"name": "model/tf.__operators__.add_3/AddV2", "op": "AddV2", "input": ["model/tf.math.reduce_mean_12/Mean", "model/tf.__operators__.add_3/y"], "attr": {"T": {"type": "DT_FLOAT"}}}, {"name": "model/conv2d_3/Conv2D", "op": "Conv2D", "input": ["model/tf.nn.relu6_3/Relu6", "model/conv2d_3/Conv2D/ReadVariableOp"], "device": "/device:CPU:0", "attr": {"data_format": {"s": "TkhXQw=="}, "padding": {"s": "VkFMSUQ="}, "T": {"type": "DT_FLOAT"}, "explicit_paddings": {"list": {}}, "strides": {"list": {"i": ["1", "1", "1", "1"]}}, "dilations": {"list": {"i": ["1", "1", "1", "1"]}}, "use_cudnn_on_gpu": {"b": true}}}, {"name": "model/tf.math.sqrt_3/Sqrt", "op": "Rsqrt", "input": ["model/tf.__operators__.add_3/AddV2"], "attr": {"T": {"type": "DT_FLOAT"}}}, {"name": "model/tf.math.add_5/Add", "op": "Add", "input": ["model/conv2d_3/Conv2D", "model/tf.math.add_5/Add/y"], "attr": {"T": {"type": "DT_FLOAT"}}}, {"name": "model/tf.math.truediv_3/truediv", "op": "Mul", "input": ["model/tf.math.subtract_7/Sub", "model/tf.math.sqrt_3/Sqrt"], "attr": {"T": {"type": "DT_FLOAT"}}}, {"name": "model/conv2d_4/Conv2D", "op": "Conv2D", "input": ["model/tf.math.add_5/Add", "model/conv2d_4/Conv2D/ReadVariableOp"], "device": "/device:CPU:0", "attr": {"dilations": {"list": {"i": ["1", "1", "1", "1"]}}, "use_cudnn_on_gpu": {"b": true}, "explicit_paddings": {"list": {}}, "data_format": {"s": "TkhXQw=="}, "strides": {"list": {"i": ["1", "1", "1", "1"]}}, "padding": {"s": "VkFMSUQ="}, "T": {"type": "DT_FLOAT"}}}, {"name": "model/tf.concat_3/concat", "op": "ConcatV2", "input": ["model/tf.math.add_72/Add", "model/tf.math.truediv_3/truediv", "model/tf.concat_3/concat/axis"], "attr": {"Tidx": {"type": "DT_INT32"}, "N": {"i": "2"}, "T": {"type": "DT_FLOAT"}}}, {"name": "model/tf.math.add_6/Add", "op": "Add", "input": ["model/conv2d_4/Conv2D", "model/tf.math.add_6/Add/y"], "attr": {"T": {"type": "DT_FLOAT"}}}, {"name": "model/tf.nn.relu_4/Relu", "op": "Relu", "input": ["model/tf.concat_3/concat"], "attr": {"T": {"type": "DT_FLOAT"}}}, {"name": "model/tf.nn.relu6_4/Relu6", "op": "Relu6", "input": ["model/tf.math.add_6/Add"], "attr": {"T": {"type": "DT_FLOAT"}}}, {"name": "model/tf.concat_4/concat", "op": "ConcatV2", "input": ["model/tf.image.resize/resize/ResizeBilinear", "model/tf.nn.relu_4/Relu", "model/tf.concat_4/concat/axis"], "attr": {"N": {"i": "2"}, "Tidx": {"type": "DT_INT32"}, "T": {"type": "DT_FLOAT"}}}, {"name": "model/zero_padding2d_3/Pad", "op": "Pad", "input": ["model/tf.nn.relu6_4/Relu6", "model/zero_padding2d_3/Pad/paddings"], "attr": {"Tpaddings": {"type": "DT_INT32"}, "T": {"type": "DT_FLOAT"}}}, {"name": "model/zero_padding2d_21/Pad", "op": "Pad", "input": ["model/tf.concat_4/concat", "model/zero_padding2d_21/Pad/paddings"], "attr": {"Tpaddings": {"type": "DT_INT32"}, "T": {"type": "DT_FLOAT"}}}, {"name": "model/depthwise_conv2d_2/depthwise", "op": "DepthwiseConv2dNative", "input": ["model/zero_padding2d_3/Pad", "model/depthwise_conv2d_2/depthwise/ReadVariableOp"], "attr": {"padding": {"s": "VkFMSUQ="}, "explicit_paddings": {"list": {}}, "T": {"type": "DT_FLOAT"}, "dilations": {"list": {"i": ["1", "1", "1", "1"]}}, "strides": {"list": {"i": ["1", "1", "1", "1"]}}, "data_format": {"s": "TkhXQw=="}}}, {"name": "model/conv2d_39/Conv2D", "op": "Conv2D", "input": ["model/zero_padding2d_21/Pad", "model/conv2d_39/Conv2D/ReadVariableOp"], "device": "/device:CPU:0", "attr": {"dilations": {"list": {"i": ["1", "1", "1", "1"]}}, "T": {"type": "DT_FLOAT"}, "explicit_paddings": {"list": {}}, "padding": {"s": "VkFMSUQ="}, "use_cudnn_on_gpu": {"b": true}, "data_format": {"s": "TkhXQw=="}, "strides": {"list": {"i": ["1", "2", "2", "1"]}}}}, {"name": "model/tf.math.add_7/Add", "op": "Add", "input": ["model/depthwise_conv2d_2/depthwise", "model/tf.math.add_7/Add/y"], "attr": {"T": {"type": "DT_FLOAT"}}}, {"name": "model/tf.math.add_74/Add", "op": "Add", "input": ["model/conv2d_39/Conv2D", "model/tf.math.add_74/Add/y"], "attr": {"T": {"type": "DT_FLOAT"}}}, {"name": "model/tf.nn.relu6_5/Relu6", "op": "Relu6", "input": ["model/tf.math.add_7/Add"], "attr": {"T": {"type": "DT_FLOAT"}}}, {"name": "model/tf.strided_slice_8/StridedSlice", "op": "StridedSlice", "input": ["model/tf.math.add_74/Add", "model/tf.strided_slice_8/StridedSlice/begin", "model/tf.strided_slice_8/StridedSlice/end", "model/tf.strided_slice_8/StridedSlice/strides"], "attr": {"begin_mask": {"i": "-1"}, "Index": {"type": "DT_INT64"}, "end_mask": {"i": "3"}, "T": {"type": "DT_FLOAT"}, "ellipsis_mask": {"i": "0"}, "shrink_axis_mask": {"i": "0"}, "new_axis_mask": {"i": "0"}}}, {"name": "model/tf.strided_slice_9/StridedSlice", "op": "StridedSlice", "input": ["model/tf.math.add_74/Add", "model/tf.strided_slice_9/StridedSlice/begin", "model/tf.strided_slice_9/StridedSlice/end", "model/tf.strided_slice_9/StridedSlice/strides"], "attr": {"end_mask": {"i": "3"}, "new_axis_mask": {"i": "0"}, "ellipsis_mask": {"i": "0"}, "Index": {"type": "DT_INT64"}, "begin_mask": {"i": "3"}, "T": {"type": "DT_FLOAT"}, "shrink_axis_mask": {"i": "0"}}}, {"name": "model/conv2d_5/Conv2D", "op": "Conv2D", "input": ["model/tf.nn.relu6_5/Relu6", "model/conv2d_5/Conv2D/ReadVariableOp"], "device": "/device:CPU:0", "attr": {"strides": {"list": {"i": ["1", "1", "1", "1"]}}, "padding": {"s": "VkFMSUQ="}, "explicit_paddings": {"list": {}}, "use_cudnn_on_gpu": {"b": true}, "dilations": {"list": {"i": ["1", "1", "1", "1"]}}, "T": {"type": "DT_FLOAT"}, "data_format": {"s": "TkhXQw=="}}}, {"name": "model/tf.math.multiply_10/Mul", "op": "Mul", "input": ["model/tf.strided_slice_8/StridedSlice", "model/tf.math.multiply_10/Mul/y"], "attr": {"T": {"type": "DT_FLOAT"}}}, {"name": "model/tf.math.reduce_mean_13/Mean", "op": "Mean", "input": ["model/tf.strided_slice_9/StridedSlice", "model/tf.math.reduce_mean_13/Const"], "attr": {"keep_dims": {"b": true}, "T": {"type": "DT_FLOAT"}, "Tidx": {"type": "DT_INT32"}}}, {"name": "model/tf.math.reduce_mean_14/Mean", "op": "Mean", "input": ["model/tf.strided_slice_9/StridedSlice", "model/tf.math.reduce_mean_14/Const"], "attr": {"Tidx": {"type": "DT_INT32"}, "keep_dims": {"b": true}, "T": {"type": "DT_FLOAT"}}}, {"name": "model/tf.math.add_8/Add", "op": "Add", "input": ["model/conv2d_5/Conv2D", "model/tf.math.add_8/Add/y"], "attr": {"T": {"type": "DT_FLOAT"}}}, {"name": "model/tf.math.add_75/Add", "op": "Add", "input": ["model/tf.math.multiply_10/Mul", "model/tf.math.add_75/Add/y"], "attr": {"T": {"type": "DT_FLOAT"}}}, {"name": "model/tf.math.subtract_9/Sub", "op": "Sub", "input": ["model/tf.strided_slice_9/StridedSlice", "model/tf.math.reduce_mean_13/Mean"], "attr": {"T": {"type": "DT_FLOAT"}}}, {"name": "model/tf.math.subtract_8/Sub", "op": "SquaredDifference", "input": ["model/tf.strided_slice_9/StridedSlice", "model/tf.math.reduce_mean_14/Mean"], "attr": {"T": {"type": "DT_FLOAT"}}}, {"name": "model/tf.math.add_9/Add", "op": "Add", "input": ["model/tf.math.add_5/Add", "model/tf.math.add_8/Add"], "attr": {"T": {"type": "DT_FLOAT"}}}, {"name": "model/tf.math.reduce_mean_15/Mean", "op": "Mean", "input": ["model/tf.math.subtract_8/Sub", "model/tf.math.reduce_mean_15/Const"], "attr": {"Tidx": {"type": "DT_INT32"}, "T": {"type": "DT_FLOAT"}, "keep_dims": {"b": true}}}, {"name": "model/conv2d_40/Conv2D", "op": "Conv2D", "input": ["model/tf.math.add_9/Add", "model/conv2d_40/Conv2D/ReadVariableOp"], "device": "/device:CPU:0", "attr": {"use_cudnn_on_gpu": {"b": true}, "data_format": {"s": "TkhXQw=="}, "T": {"type": "DT_FLOAT"}, "explicit_paddings": {"list": {}}, "dilations": {"list": {"i": ["1", "1", "1", "1"]}}, "strides": {"list": {"i": ["1", "1", "1", "1"]}}, "padding": {"s": "VkFMSUQ="}}}, {"name": "model/conv2d_6/Conv2D", "op": "Conv2D", "input": ["model/tf.math.add_9/Add", "model/conv2d_6/Conv2D/ReadVariableOp"], "device": "/device:CPU:0", "attr": {"dilations": {"list": {"i": ["1", "1", "1", "1"]}}, "strides": {"list": {"i": ["1", "1", "1", "1"]}}, "T": {"type": "DT_FLOAT"}, "explicit_paddings": {"list": {}}, "padding": {"s": "VkFMSUQ="}, "use_cudnn_on_gpu": {"b": true}, "data_format": {"s": "TkhXQw=="}}}, {"name": "model/tf.__operators__.add_4/AddV2", "op": "AddV2", "input": ["model/tf.math.reduce_mean_15/Mean", "model/tf.__operators__.add_4/y"], "attr": {"T": {"type": "DT_FLOAT"}}}, {"name": "model/tf.math.add_77/Add", "op": "Add", "input": ["model/conv2d_40/Conv2D", "model/tf.math.add_77/Add/y"], "attr": {"T": {"type": "DT_FLOAT"}}}, {"name": "model/tf.math.add_10/Add", "op": "Add", "input": ["model/conv2d_6/Conv2D", "model/tf.math.add_10/Add/y"], "attr": {"T": {"type": "DT_FLOAT"}}}, {"name": "model/tf.math.sqrt_4/Sqrt", "op": "Rsqrt", "input": ["model/tf.__operators__.add_4/AddV2"], "attr": {"T": {"type": "DT_FLOAT"}}}, {"name": "model/tf.strided_slice_10/StridedSlice", "op": "StridedSlice", "input": ["model/tf.math.add_77/Add", "model/tf.strided_slice_10/StridedSlice/begin", "model/tf.strided_slice_10/StridedSlice/end", "model/tf.strided_slice_10/StridedSlice/strides"], "attr": {"shrink_axis_mask": {"i": "0"}, "begin_mask": {"i": "-1"}, "Index": {"type": "DT_INT64"}, "new_axis_mask": {"i": "0"}, "end_mask": {"i": "3"}, "ellipsis_mask": {"i": "0"}, "T": {"type": "DT_FLOAT"}}}, {"name": "model/tf.strided_slice_11/StridedSlice", "op": "StridedSlice", "input": ["model/tf.math.add_77/Add", "model/tf.strided_slice_11/StridedSlice/begin", "model/tf.strided_slice_11/StridedSlice/end", "model/tf.strided_slice_11/StridedSlice/strides"], "attr": {"shrink_axis_mask": {"i": "0"}, "begin_mask": {"i": "3"}, "Index": {"type": "DT_INT64"}, "T": {"type": "DT_FLOAT"}, "ellipsis_mask": {"i": "0"}, "end_mask": {"i": "3"}, "new_axis_mask": {"i": "0"}}}, {"name": "model/tf.nn.relu6_6/Relu6", "op": "Relu6", "input": ["model/tf.math.add_10/Add"], "attr": {"T": {"type": "DT_FLOAT"}}}, {"name": "model/tf.math.truediv_4/truediv", "op": "Mul", "input": ["model/tf.math.subtract_9/Sub", "model/tf.math.sqrt_4/Sqrt"], "attr": {"T": {"type": "DT_FLOAT"}}}, {"name": "model/tf.math.multiply_12/Mul", "op": "Mul", "input": ["model/tf.strided_slice_10/StridedSlice", "model/tf.math.multiply_12/Mul/y"], "attr": {"T": {"type": "DT_FLOAT"}}}, {"name": "model/tf.math.reduce_mean_16/Mean", "op": "Mean", "input": ["model/tf.strided_slice_11/StridedSlice", "model/tf.math.reduce_mean_16/Const"], "attr": {"keep_dims": {"b": true}, "Tidx": {"type": "DT_INT32"}, "T": {"type": "DT_FLOAT"}}}, {"name": "model/tf.math.reduce_mean_17/Mean", "op": "Mean", "input": ["model/tf.strided_slice_11/StridedSlice", "model/tf.math.reduce_mean_17/Const"], "attr": {"keep_dims": {"b": true}, "Tidx": {"type": "DT_INT32"}, "T": {"type": "DT_FLOAT"}}}, {"name": "model/zero_padding2d_4/Pad", "op": "Pad", "input": ["model/tf.nn.relu6_6/Relu6", "model/zero_padding2d_4/Pad/paddings"], "attr": {"T": {"type": "DT_FLOAT"}, "Tpaddings": {"type": "DT_INT32"}}}, {"name": "model/tf.math.add_78/Add", "op": "Add", "input": ["model/tf.math.multiply_12/Mul", "model/tf.math.add_78/Add/y"], "attr": {"T": {"type": "DT_FLOAT"}}}, {"name": "model/tf.math.subtract_11/Sub", "op": "Sub", "input": ["model/tf.strided_slice_11/StridedSlice", "model/tf.math.reduce_mean_16/Mean"], "attr": {"T": {"type": "DT_FLOAT"}}}, {"name": "model/tf.math.subtract_10/Sub", "op": "SquaredDifference", "input": ["model/tf.strided_slice_11/StridedSlice", "model/tf.math.reduce_mean_17/Mean"], "attr": {"T": {"type": "DT_FLOAT"}}}, {"name": "model/depthwise_conv2d_3/depthwise", "op": "DepthwiseConv2dNative", "input": ["model/zero_padding2d_4/Pad", "model/depthwise_conv2d_3/depthwise/ReadVariableOp"], "attr": {"explicit_paddings": {"list": {}}, "padding": {"s": "VkFMSUQ="}, "T": {"type": "DT_FLOAT"}, "strides": {"list": {"i": ["1", "2", "2", "1"]}}, "data_format": {"s": "TkhXQw=="}, "dilations": {"list": {"i": ["1", "1", "1", "1"]}}}}, {"name": "model/tf.math.reduce_mean_18/Mean", "op": "Mean", "input": ["model/tf.math.subtract_10/Sub", "model/tf.math.reduce_mean_18/Const"], "attr": {"T": {"type": "DT_FLOAT"}, "keep_dims": {"b": true}, "Tidx": {"type": "DT_INT32"}}}, {"name": "model/tf.math.add_11/Add", "op": "Add", "input": ["model/depthwise_conv2d_3/depthwise", "model/tf.math.add_11/Add/y"], "attr": {"T": {"type": "DT_FLOAT"}}}, {"name": "model/tf.__operators__.add_5/AddV2", "op": "AddV2", "input": ["model/tf.math.reduce_mean_18/Mean", "model/tf.__operators__.add_5/y"], "attr": {"T": {"type": "DT_FLOAT"}}}, {"name": "model/tf.nn.relu6_7/Relu6", "op": "Relu6", "input": ["model/tf.math.add_11/Add"], "attr": {"T": {"type": "DT_FLOAT"}}}, {"name": "model/tf.math.sqrt_5/Sqrt", "op": "Rsqrt", "input": ["model/tf.__operators__.add_5/AddV2"], "attr": {"T": {"type": "DT_FLOAT"}}}, {"name": "model/conv2d_7/Conv2D", "op": "Conv2D", "input": ["model/tf.nn.relu6_7/Relu6", "model/conv2d_7/Conv2D/ReadVariableOp"], "device": "/device:CPU:0", "attr": {"T": {"type": "DT_FLOAT"}, "data_format": {"s": "TkhXQw=="}, "strides": {"list": {"i": ["1", "1", "1", "1"]}}, "padding": {"s": "VkFMSUQ="}, "use_cudnn_on_gpu": {"b": true}, "dilations": {"list": {"i": ["1", "1", "1", "1"]}}, "explicit_paddings": {"list": {}}}}, {"name": "model/tf.math.truediv_5/truediv", "op": "Mul", "input": ["model/tf.math.subtract_11/Sub", "model/tf.math.sqrt_5/Sqrt"], "attr": {"T": {"type": "DT_FLOAT"}}}, {"name": "model/tf.math.add_12/Add", "op": "Add", "input": ["model/conv2d_7/Conv2D", "model/tf.math.add_12/Add/y"], "attr": {"T": {"type": "DT_FLOAT"}}}, {"name": "model/tf.concat_7/concat", "op": "ConcatV2", "input": ["model/tf.math.add_75/Add", "model/tf.math.truediv_4/truediv", "model/tf.math.add_78/Add", "model/tf.math.truediv_5/truediv", "model/tf.concat_7/concat/axis"], "attr": {"Tidx": {"type": "DT_INT32"}, "T": {"type": "DT_FLOAT"}, "N": {"i": "4"}}}, {"name": "model/conv2d_8/Conv2D", "op": "Conv2D", "input": ["model/tf.math.add_12/Add", "model/conv2d_8/Conv2D/ReadVariableOp"], "device": "/device:CPU:0", "attr": {"data_format": {"s": "TkhXQw=="}, "dilations": {"list": {"i": ["1", "1", "1", "1"]}}, "use_cudnn_on_gpu": {"b": true}, "T": {"type": "DT_FLOAT"}, "explicit_paddings": {"list": {}}, "strides": {"list": {"i": ["1", "1", "1", "1"]}}, "padding": {"s": "VkFMSUQ="}}}, {"name": "model/tf.nn.relu_5/Relu", "op": "Relu", "input": ["model/tf.concat_7/concat"], "attr": {"T": {"type": "DT_FLOAT"}}}, {"name": "model/tf.math.add_13/Add", "op": "Add", "input": ["model/conv2d_8/Conv2D", "model/tf.math.add_13/Add/y"], "attr": {"T": {"type": "DT_FLOAT"}}}, {"name": "model/zero_padding2d_22/Pad", "op": "Pad", "input": ["model/tf.nn.relu_5/Relu", "model/zero_padding2d_22/Pad/paddings"], "attr": {"Tpaddings": {"type": "DT_INT32"}, "T": {"type": "DT_FLOAT"}}}, {"name": "model/tf.nn.relu6_8/Relu6", "op": "Relu6", "input": ["model/tf.math.add_13/Add"], "attr": {"T": {"type": "DT_FLOAT"}}}, {"name": "model/conv2d_41/Conv2D", "op": "Conv2D", "input": ["model/zero_padding2d_22/Pad", "model/conv2d_41/Conv2D/ReadVariableOp"], "device": "/device:CPU:0", "attr": {"padding": {"s": "VkFMSUQ="}, "T": {"type": "DT_FLOAT"}, "explicit_paddings": {"list": {}}, "use_cudnn_on_gpu": {"b": true}, "data_format": {"s": "TkhXQw=="}, "dilations": {"list": {"i": ["1", "1", "1", "1"]}}, "strides": {"list": {"i": ["1", "1", "1", "1"]}}}}, {"name": "model/zero_padding2d_5/Pad", "op": "Pad", "input": ["model/tf.nn.relu6_8/Relu6", "model/zero_padding2d_5/Pad/paddings"], "attr": {"T": {"type": "DT_FLOAT"}, "Tpaddings": {"type": "DT_INT32"}}}, {"name": "model/tf.math.add_80/Add", "op": "Add", "input": ["model/conv2d_41/Conv2D", "model/tf.math.add_80/Add/y"], "attr": {"T": {"type": "DT_FLOAT"}}}, {"name": "model/depthwise_conv2d_4/depthwise", "op": "DepthwiseConv2dNative", "input": ["model/zero_padding2d_5/Pad", "model/depthwise_conv2d_4/depthwise/ReadVariableOp"], "attr": {"strides": {"list": {"i": ["1", "1", "1", "1"]}}, "T": {"type": "DT_FLOAT"}, "explicit_paddings": {"list": {}}, "dilations": {"list": {"i": ["1", "1", "1", "1"]}}, "data_format": {"s": "TkhXQw=="}, "padding": {"s": "VkFMSUQ="}}}, {"name": "model/tf.strided_slice_12/StridedSlice", "op": "StridedSlice", "input": ["model/tf.math.add_80/Add", "model/tf.strided_slice_12/StridedSlice/begin", "model/tf.strided_slice_12/StridedSlice/end", "model/tf.strided_slice_12/StridedSlice/strides"], "attr": {"T": {"type": "DT_FLOAT"}, "Index": {"type": "DT_INT64"}, "end_mask": {"i": "3"}, "ellipsis_mask": {"i": "0"}, "new_axis_mask": {"i": "0"}, "shrink_axis_mask": {"i": "0"}, "begin_mask": {"i": "-1"}}}, {"name": "model/tf.strided_slice_13/StridedSlice", "op": "StridedSlice", "input": ["model/tf.math.add_80/Add", "model/tf.strided_slice_13/StridedSlice/begin", "model/tf.strided_slice_13/StridedSlice/end", "model/tf.strided_slice_13/StridedSlice/strides"], "attr": {"shrink_axis_mask": {"i": "0"}, "Index": {"type": "DT_INT64"}, "T": {"type": "DT_FLOAT"}, "ellipsis_mask": {"i": "0"}, "begin_mask": {"i": "3"}, "new_axis_mask": {"i": "0"}, "end_mask": {"i": "3"}}}, {"name": "model/tf.math.add_14/Add", "op": "Add", "input": ["model/depthwise_conv2d_4/depthwise", "model/tf.math.add_14/Add/y"], "attr": {"T": {"type": "DT_FLOAT"}}}, {"name": "model/tf.math.multiply_14/Mul", "op": "Mul", "input": ["model/tf.strided_slice_12/StridedSlice", "model/tf.math.multiply_14/Mul/y"], "attr": {"T": {"type": "DT_FLOAT"}}}, {"name": "model/tf.math.reduce_mean_19/Mean", "op": "Mean", "input": ["model/tf.strided_slice_13/StridedSlice", "model/tf.math.reduce_mean_19/Const"], "attr": {"keep_dims": {"b": true}, "T": {"type": "DT_FLOAT"}, "Tidx": {"type": "DT_INT32"}}}, {"name": "model/tf.math.reduce_mean_20/Mean", "op": "Mean", "input": ["model/tf.strided_slice_13/StridedSlice", "model/tf.math.reduce_mean_20/Const"], "attr": {"T": {"type": "DT_FLOAT"}, "Tidx": {"type": "DT_INT32"}, "keep_dims": {"b": true}}}, {"name": "model/tf.nn.relu6_9/Relu6", "op": "Relu6", "input": ["model/tf.math.add_14/Add"], "attr": {"T": {"type": "DT_FLOAT"}}}, {"name": "model/tf.math.add_81/Add", "op": "Add", "input": ["model/tf.math.multiply_14/Mul", "model/tf.math.add_81/Add/y"], "attr": {"T": {"type": "DT_FLOAT"}}}, {"name": "model/tf.math.subtract_13/Sub", "op": "Sub", "input": ["model/tf.strided_slice_13/StridedSlice", "model/tf.math.reduce_mean_19/Mean"], "attr": {"T": {"type": "DT_FLOAT"}}}, {"name": "model/tf.math.subtract_12/Sub", "op": "SquaredDifference", "input": ["model/tf.strided_slice_13/StridedSlice", "model/tf.math.reduce_mean_20/Mean"], "attr": {"T": {"type": "DT_FLOAT"}}}, {"name": "model/conv2d_9/Conv2D", "op": "Conv2D", "input": ["model/tf.nn.relu6_9/Relu6", "model/conv2d_9/Conv2D/ReadVariableOp"], "device": "/device:CPU:0", "attr": {"data_format": {"s": "TkhXQw=="}, "use_cudnn_on_gpu": {"b": true}, "strides": {"list": {"i": ["1", "1", "1", "1"]}}, "dilations": {"list": {"i": ["1", "1", "1", "1"]}}, "T": {"type": "DT_FLOAT"}, "padding": {"s": "VkFMSUQ="}, "explicit_paddings": {"list": {}}}}, {"name": "model/tf.math.reduce_mean_21/Mean", "op": "Mean", "input": ["model/tf.math.subtract_12/Sub", "model/tf.math.reduce_mean_21/Const"], "attr": {"Tidx": {"type": "DT_INT32"}, "keep_dims": {"b": true}, "T": {"type": "DT_FLOAT"}}}, {"name": "model/tf.math.add_15/Add", "op": "Add", "input": ["model/conv2d_9/Conv2D", "model/tf.math.add_15/Add/y"], "attr": {"T": {"type": "DT_FLOAT"}}}, {"name": "model/tf.__operators__.add_6/AddV2", "op": "AddV2", "input": ["model/tf.math.reduce_mean_21/Mean", "model/tf.__operators__.add_6/y"], "attr": {"T": {"type": "DT_FLOAT"}}}, {"name": "model/tf.math.add_16/Add", "op": "Add", "input": ["model/tf.math.add_12/Add", "model/tf.math.add_15/Add"], "attr": {"T": {"type": "DT_FLOAT"}}}, {"name": "model/tf.math.sqrt_6/Sqrt", "op": "Rsqrt", "input": ["model/tf.__operators__.add_6/AddV2"], "attr": {"T": {"type": "DT_FLOAT"}}}, {"name": "model/conv2d_10/Conv2D", "op": "Conv2D", "input": ["model/tf.math.add_16/Add", "model/conv2d_10/Conv2D/ReadVariableOp"], "device": "/device:CPU:0", "attr": {"strides": {"list": {"i": ["1", "1", "1", "1"]}}, "explicit_paddings": {"list": {}}, "dilations": {"list": {"i": ["1", "1", "1", "1"]}}, "data_format": {"s": "TkhXQw=="}, "use_cudnn_on_gpu": {"b": true}, "T": {"type": "DT_FLOAT"}, "padding": {"s": "VkFMSUQ="}}}, {"name": "model/tf.math.truediv_6/truediv", "op": "Mul", "input": ["model/tf.math.subtract_13/Sub", "model/tf.math.sqrt_6/Sqrt"], "attr": {"T": {"type": "DT_FLOAT"}}}, {"name": "model/tf.math.add_17/Add", "op": "Add", "input": ["model/conv2d_10/Conv2D", "model/tf.math.add_17/Add/y"], "attr": {"T": {"type": "DT_FLOAT"}}}, {"name": "model/tf.concat_8/concat", "op": "ConcatV2", "input": ["model/tf.math.add_81/Add", "model/tf.math.truediv_6/truediv", "model/tf.concat_8/concat/axis"], "attr": {"T": {"type": "DT_FLOAT"}, "Tidx": {"type": "DT_INT32"}, "N": {"i": "2"}}}, {"name": "model/tf.nn.relu6_10/Relu6", "op": "Relu6", "input": ["model/tf.math.add_17/Add"], "attr": {"T": {"type": "DT_FLOAT"}}}, {"name": "model/tf.nn.relu_7/Relu", "op": "Relu", "input": ["model/tf.concat_8/concat"], "attr": {"T": {"type": "DT_FLOAT"}}}, {"name": "model/zero_padding2d_6/Pad", "op": "Pad", "input": ["model/tf.nn.relu6_10/Relu6", "model/zero_padding2d_6/Pad/paddings"], "attr": {"Tpaddings": {"type": "DT_INT32"}, "T": {"type": "DT_FLOAT"}}}, {"name": "model/depthwise_conv2d_5/depthwise", "op": "DepthwiseConv2dNative", "input": ["model/zero_padding2d_6/Pad", "model/depthwise_conv2d_5/depthwise/ReadVariableOp"], "attr": {"T": {"type": "DT_FLOAT"}, "dilations": {"list": {"i": ["1", "1", "1", "1"]}}, "padding": {"s": "VkFMSUQ="}, "data_format": {"s": "TkhXQw=="}, "explicit_paddings": {"list": {}}, "strides": {"list": {"i": ["1", "1", "1", "1"]}}}}, {"name": "model/tf.math.add_18/Add", "op": "Add", "input": ["model/depthwise_conv2d_5/depthwise", "model/tf.math.add_18/Add/y"], "attr": {"T": {"type": "DT_FLOAT"}}}, {"name": "model/tf.nn.relu6_11/Relu6", "op": "Relu6", "input": ["model/tf.math.add_18/Add"], "attr": {"T": {"type": "DT_FLOAT"}}}, {"name": "model/conv2d_11/Conv2D", "op": "Conv2D", "input": ["model/tf.nn.relu6_11/Relu6", "model/conv2d_11/Conv2D/ReadVariableOp"], "device": "/device:CPU:0", "attr": {"use_cudnn_on_gpu": {"b": true}, "T": {"type": "DT_FLOAT"}, "strides": {"list": {"i": ["1", "1", "1", "1"]}}, "padding": {"s": "VkFMSUQ="}, "explicit_paddings": {"list": {}}, "dilations": {"list": {"i": ["1", "1", "1", "1"]}}, "data_format": {"s": "TkhXQw=="}}}, {"name": "model/tf.math.add_19/Add", "op": "Add", "input": ["model/conv2d_11/Conv2D", "model/tf.math.add_19/Add/y"], "attr": {"T": {"type": "DT_FLOAT"}}}, {"name": "model/tf.math.add_20/Add", "op": "Add", "input": ["model/tf.math.add_16/Add", "model/tf.math.add_19/Add"], "attr": {"T": {"type": "DT_FLOAT"}}}, {"name": "model/conv2d_12/Conv2D", "op": "Conv2D", "input": ["model/tf.math.add_20/Add", "model/conv2d_12/Conv2D/ReadVariableOp"], "device": "/device:CPU:0", "attr": {"data_format": {"s": "TkhXQw=="}, "dilations": {"list": {"i": ["1", "1", "1", "1"]}}, "padding": {"s": "VkFMSUQ="}, "strides": {"list": {"i": ["1", "1", "1", "1"]}}, "use_cudnn_on_gpu": {"b": true}, "T": {"type": "DT_FLOAT"}, "explicit_paddings": {"list": {}}}}, {"name": "model/tf.math.add_21/Add", "op": "Add", "input": ["model/conv2d_12/Conv2D", "model/tf.math.add_21/Add/y"], "attr": {"T": {"type": "DT_FLOAT"}}}, {"name": "model/tf.nn.relu6_12/Relu6", "op": "Relu6", "input": ["model/tf.math.add_21/Add"], "attr": {"T": {"type": "DT_FLOAT"}}}, {"name": "model/zero_padding2d_7/Pad", "op": "Pad", "input": ["model/tf.nn.relu6_12/Relu6", "model/zero_padding2d_7/Pad/paddings"], "attr": {"T": {"type": "DT_FLOAT"}, "Tpaddings": {"type": "DT_INT32"}}}, {"name": "model/depthwise_conv2d_6/depthwise", "op": "DepthwiseConv2dNative", "input": ["model/zero_padding2d_7/Pad", "model/depthwise_conv2d_6/depthwise/ReadVariableOp"], "attr": {"data_format": {"s": "TkhXQw=="}, "explicit_paddings": {"list": {}}, "strides": {"list": {"i": ["1", "2", "2", "1"]}}, "dilations": {"list": {"i": ["1", "1", "1", "1"]}}, "T": {"type": "DT_FLOAT"}, "padding": {"s": "VkFMSUQ="}}}, {"name": "model/tf.math.add_22/Add", "op": "Add", "input": ["model/depthwise_conv2d_6/depthwise", "model/tf.math.add_22/Add/y"], "attr": {"T": {"type": "DT_FLOAT"}}}, {"name": "model/tf.nn.relu6_13/Relu6", "op": "Relu6", "input": ["model/tf.math.add_22/Add"], "attr": {"T": {"type": "DT_FLOAT"}}}, {"name": "model/conv2d_13/Conv2D", "op": "Conv2D", "input": ["model/tf.nn.relu6_13/Relu6", "model/conv2d_13/Conv2D/ReadVariableOp"], "device": "/device:CPU:0", "attr": {"explicit_paddings": {"list": {}}, "use_cudnn_on_gpu": {"b": true}, "T": {"type": "DT_FLOAT"}, "strides": {"list": {"i": ["1", "1", "1", "1"]}}, "data_format": {"s": "TkhXQw=="}, "dilations": {"list": {"i": ["1", "1", "1", "1"]}}, "padding": {"s": "VkFMSUQ="}}}, {"name": "model/tf.math.add_23/Add", "op": "Add", "input": ["model/conv2d_13/Conv2D", "model/tf.math.add_23/Add/y"], "attr": {"T": {"type": "DT_FLOAT"}}}, {"name": "model/conv2d_14/Conv2D", "op": "Conv2D", "input": ["model/tf.math.add_23/Add", "model/conv2d_14/Conv2D/ReadVariableOp"], "device": "/device:CPU:0", "attr": {"explicit_paddings": {"list": {}}, "T": {"type": "DT_FLOAT"}, "strides": {"list": {"i": ["1", "1", "1", "1"]}}, "padding": {"s": "VkFMSUQ="}, "data_format": {"s": "TkhXQw=="}, "use_cudnn_on_gpu": {"b": true}, "dilations": {"list": {"i": ["1", "1", "1", "1"]}}}}, {"name": "model/tf.math.add_24/Add", "op": "Add", "input": ["model/conv2d_14/Conv2D", "model/tf.math.add_24/Add/y"], "attr": {"T": {"type": "DT_FLOAT"}}}, {"name": "model/tf.nn.relu6_14/Relu6", "op": "Relu6", "input": ["model/tf.math.add_24/Add"], "attr": {"T": {"type": "DT_FLOAT"}}}, {"name": "model/zero_padding2d_8/Pad", "op": "Pad", "input": ["model/tf.nn.relu6_14/Relu6", "model/zero_padding2d_8/Pad/paddings"], "attr": {"T": {"type": "DT_FLOAT"}, "Tpaddings": {"type": "DT_INT32"}}}, {"name": "model/depthwise_conv2d_7/depthwise", "op": "DepthwiseConv2dNative", "input": ["model/zero_padding2d_8/Pad", "model/depthwise_conv2d_7/depthwise/ReadVariableOp"], "attr": {"T": {"type": "DT_FLOAT"}, "padding": {"s": "VkFMSUQ="}, "dilations": {"list": {"i": ["1", "1", "1", "1"]}}, "data_format": {"s": "TkhXQw=="}, "explicit_paddings": {"list": {}}, "strides": {"list": {"i": ["1", "1", "1", "1"]}}}}, {"name": "model/tf.math.add_25/Add", "op": "Add", "input": ["model/depthwise_conv2d_7/depthwise", "model/tf.math.add_25/Add/y"], "attr": {"T": {"type": "DT_FLOAT"}}}, {"name": "model/tf.nn.relu6_15/Relu6", "op": "Relu6", "input": ["model/tf.math.add_25/Add"], "attr": {"T": {"type": "DT_FLOAT"}}}, {"name": "model/conv2d_15/Conv2D", "op": "Conv2D", "input": ["model/tf.nn.relu6_15/Relu6", "model/conv2d_15/Conv2D/ReadVariableOp"], "device": "/device:CPU:0", "attr": {"data_format": {"s": "TkhXQw=="}, "strides": {"list": {"i": ["1", "1", "1", "1"]}}, "dilations": {"list": {"i": ["1", "1", "1", "1"]}}, "use_cudnn_on_gpu": {"b": true}, "explicit_paddings": {"list": {}}, "T": {"type": "DT_FLOAT"}, "padding": {"s": "VkFMSUQ="}}}, {"name": "model/tf.math.add_26/Add", "op": "Add", "input": ["model/conv2d_15/Conv2D", "model/tf.math.add_26/Add/y"], "attr": {"T": {"type": "DT_FLOAT"}}}, {"name": "model/tf.math.add_27/Add", "op": "Add", "input": ["model/tf.math.add_23/Add", "model/tf.math.add_26/Add"], "attr": {"T": {"type": "DT_FLOAT"}}}, {"name": "model/conv2d_16/Conv2D", "op": "Conv2D", "input": ["model/tf.math.add_27/Add", "model/conv2d_16/Conv2D/ReadVariableOp"], "device": "/device:CPU:0", "attr": {"T": {"type": "DT_FLOAT"}, "use_cudnn_on_gpu": {"b": true}, "dilations": {"list": {"i": ["1", "1", "1", "1"]}}, "explicit_paddings": {"list": {}}, "strides": {"list": {"i": ["1", "1", "1", "1"]}}, "padding": {"s": "VkFMSUQ="}, "data_format": {"s": "TkhXQw=="}}}, {"name": "model/tf.math.add_28/Add", "op": "Add", "input": ["model/conv2d_16/Conv2D", "model/tf.math.add_28/Add/y"], "attr": {"T": {"type": "DT_FLOAT"}}}, {"name": "model/tf.nn.relu6_16/Relu6", "op": "Relu6", "input": ["model/tf.math.add_28/Add"], "attr": {"T": {"type": "DT_FLOAT"}}}, {"name": "model/zero_padding2d_9/Pad", "op": "Pad", "input": ["model/tf.nn.relu6_16/Relu6", "model/zero_padding2d_9/Pad/paddings"], "attr": {"T": {"type": "DT_FLOAT"}, "Tpaddings": {"type": "DT_INT32"}}}, {"name": "model/depthwise_conv2d_8/depthwise", "op": "DepthwiseConv2dNative", "input": ["model/zero_padding2d_9/Pad", "model/depthwise_conv2d_8/depthwise/ReadVariableOp"], "attr": {"explicit_paddings": {"list": {}}, "T": {"type": "DT_FLOAT"}, "dilations": {"list": {"i": ["1", "1", "1", "1"]}}, "data_format": {"s": "TkhXQw=="}, "strides": {"list": {"i": ["1", "1", "1", "1"]}}, "padding": {"s": "VkFMSUQ="}}}, {"name": "model/tf.math.add_29/Add", "op": "Add", "input": ["model/depthwise_conv2d_8/depthwise", "model/tf.math.add_29/Add/y"], "attr": {"T": {"type": "DT_FLOAT"}}}, {"name": "model/tf.nn.relu6_17/Relu6", "op": "Relu6", "input": ["model/tf.math.add_29/Add"], "attr": {"T": {"type": "DT_FLOAT"}}}, {"name": "model/conv2d_17/Conv2D", "op": "Conv2D", "input": ["model/tf.nn.relu6_17/Relu6", "model/conv2d_17/Conv2D/ReadVariableOp"], "device": "/device:CPU:0", "attr": {"use_cudnn_on_gpu": {"b": true}, "strides": {"list": {"i": ["1", "1", "1", "1"]}}, "data_format": {"s": "TkhXQw=="}, "T": {"type": "DT_FLOAT"}, "explicit_paddings": {"list": {}}, "padding": {"s": "VkFMSUQ="}, "dilations": {"list": {"i": ["1", "1", "1", "1"]}}}}, {"name": "model/tf.math.add_30/Add", "op": "Add", "input": ["model/conv2d_17/Conv2D", "model/tf.math.add_30/Add/y"], "attr": {"T": {"type": "DT_FLOAT"}}}, {"name": "model/tf.math.add_31/Add", "op": "Add", "input": ["model/tf.math.add_27/Add", "model/tf.math.add_30/Add"], "attr": {"T": {"type": "DT_FLOAT"}}}, {"name": "model/conv2d_18/Conv2D", "op": "Conv2D", "input": ["model/tf.math.add_31/Add", "model/conv2d_18/Conv2D/ReadVariableOp"], "device": "/device:CPU:0", "attr": {"use_cudnn_on_gpu": {"b": true}, "data_format": {"s": "TkhXQw=="}, "strides": {"list": {"i": ["1", "1", "1", "1"]}}, "padding": {"s": "VkFMSUQ="}, "dilations": {"list": {"i": ["1", "1", "1", "1"]}}, "explicit_paddings": {"list": {}}, "T": {"type": "DT_FLOAT"}}}, {"name": "model/tf.math.add_32/Add", "op": "Add", "input": ["model/conv2d_18/Conv2D", "model/tf.math.add_32/Add/y"], "attr": {"T": {"type": "DT_FLOAT"}}}, {"name": "model/tf.nn.relu6_18/Relu6", "op": "Relu6", "input": ["model/tf.math.add_32/Add"], "attr": {"T": {"type": "DT_FLOAT"}}}, {"name": "model/zero_padding2d_10/Pad", "op": "Pad", "input": ["model/tf.nn.relu6_18/Relu6", "model/zero_padding2d_10/Pad/paddings"], "attr": {"T": {"type": "DT_FLOAT"}, "Tpaddings": {"type": "DT_INT32"}}}, {"name": "model/depthwise_conv2d_9/depthwise", "op": "DepthwiseConv2dNative", "input": ["model/zero_padding2d_10/Pad", "model/depthwise_conv2d_9/depthwise/ReadVariableOp"], "attr": {"T": {"type": "DT_FLOAT"}, "data_format": {"s": "TkhXQw=="}, "padding": {"s": "VkFMSUQ="}, "explicit_paddings": {"list": {}}, "dilations": {"list": {"i": ["1", "1", "1", "1"]}}, "strides": {"list": {"i": ["1", "1", "1", "1"]}}}}, {"name": "model/tf.math.add_33/Add", "op": "Add", "input": ["model/depthwise_conv2d_9/depthwise", "model/tf.math.add_33/Add/y"], "attr": {"T": {"type": "DT_FLOAT"}}}, {"name": "model/tf.nn.relu6_19/Relu6", "op": "Relu6", "input": ["model/tf.math.add_33/Add"], "attr": {"T": {"type": "DT_FLOAT"}}}, {"name": "model/conv2d_19/Conv2D", "op": "Conv2D", "input": ["model/tf.nn.relu6_19/Relu6", "model/conv2d_19/Conv2D/ReadVariableOp"], "device": "/device:CPU:0", "attr": {"T": {"type": "DT_FLOAT"}, "dilations": {"list": {"i": ["1", "1", "1", "1"]}}, "data_format": {"s": "TkhXQw=="}, "explicit_paddings": {"list": {}}, "use_cudnn_on_gpu": {"b": true}, "padding": {"s": "VkFMSUQ="}, "strides": {"list": {"i": ["1", "1", "1", "1"]}}}}, {"name": "model/tf.math.add_34/Add", "op": "Add", "input": ["model/conv2d_19/Conv2D", "model/tf.math.add_34/Add/y"], "attr": {"T": {"type": "DT_FLOAT"}}}, {"name": "model/tf.math.add_35/Add", "op": "Add", "input": ["model/tf.math.add_31/Add", "model/tf.math.add_34/Add"], "attr": {"T": {"type": "DT_FLOAT"}}}, {"name": "model/conv2d_20/Conv2D", "op": "Conv2D", "input": ["model/tf.math.add_35/Add", "model/conv2d_20/Conv2D/ReadVariableOp"], "device": "/device:CPU:0", "attr": {"use_cudnn_on_gpu": {"b": true}, "strides": {"list": {"i": ["1", "1", "1", "1"]}}, "T": {"type": "DT_FLOAT"}, "padding": {"s": "VkFMSUQ="}, "explicit_paddings": {"list": {}}, "data_format": {"s": "TkhXQw=="}, "dilations": {"list": {"i": ["1", "1", "1", "1"]}}}}, {"name": "model/tf.math.add_36/Add", "op": "Add", "input": ["model/conv2d_20/Conv2D", "model/tf.math.add_36/Add/y"], "attr": {"T": {"type": "DT_FLOAT"}}}, {"name": "model/tf.nn.relu6_20/Relu6", "op": "Relu6", "input": ["model/tf.math.add_36/Add"], "attr": {"T": {"type": "DT_FLOAT"}}}, {"name": "model/zero_padding2d_11/Pad", "op": "Pad", "input": ["model/tf.nn.relu6_20/Relu6", "model/zero_padding2d_11/Pad/paddings"], "attr": {"T": {"type": "DT_FLOAT"}, "Tpaddings": {"type": "DT_INT32"}}}, {"name": "model/depthwise_conv2d_10/depthwise", "op": "DepthwiseConv2dNative", "input": ["model/zero_padding2d_11/Pad", "model/depthwise_conv2d_10/depthwise/ReadVariableOp"], "attr": {"data_format": {"s": "TkhXQw=="}, "strides": {"list": {"i": ["1", "1", "1", "1"]}}, "dilations": {"list": {"i": ["1", "1", "1", "1"]}}, "explicit_paddings": {"list": {}}, "T": {"type": "DT_FLOAT"}, "padding": {"s": "VkFMSUQ="}}}, {"name": "model/tf.math.add_37/Add", "op": "Add", "input": ["model/depthwise_conv2d_10/depthwise", "model/tf.math.add_37/Add/y"], "attr": {"T": {"type": "DT_FLOAT"}}}, {"name": "model/tf.nn.relu6_21/Relu6", "op": "Relu6", "input": ["model/tf.math.add_37/Add"], "attr": {"T": {"type": "DT_FLOAT"}}}, {"name": "model/conv2d_21/Conv2D", "op": "Conv2D", "input": ["model/tf.nn.relu6_21/Relu6", "model/conv2d_21/Conv2D/ReadVariableOp"], "device": "/device:CPU:0", "attr": {"use_cudnn_on_gpu": {"b": true}, "padding": {"s": "VkFMSUQ="}, "dilations": {"list": {"i": ["1", "1", "1", "1"]}}, "T": {"type": "DT_FLOAT"}, "data_format": {"s": "TkhXQw=="}, "strides": {"list": {"i": ["1", "1", "1", "1"]}}, "explicit_paddings": {"list": {}}}}, {"name": "model/tf.math.add_38/Add", "op": "Add", "input": ["model/conv2d_21/Conv2D", "model/tf.math.add_38/Add/y"], "attr": {"T": {"type": "DT_FLOAT"}}}, {"name": "model/conv2d_22/Conv2D", "op": "Conv2D", "input": ["model/tf.math.add_38/Add", "model/conv2d_22/Conv2D/ReadVariableOp"], "device": "/device:CPU:0", "attr": {"data_format": {"s": "TkhXQw=="}, "padding": {"s": "VkFMSUQ="}, "dilations": {"list": {"i": ["1", "1", "1", "1"]}}, "T": {"type": "DT_FLOAT"}, "use_cudnn_on_gpu": {"b": true}, "strides": {"list": {"i": ["1", "1", "1", "1"]}}, "explicit_paddings": {"list": {}}}}, {"name": "model/tf.math.add_39/Add", "op": "Add", "input": ["model/conv2d_22/Conv2D", "model/tf.math.add_39/Add/y"], "attr": {"T": {"type": "DT_FLOAT"}}}, {"name": "model/tf.nn.relu6_22/Relu6", "op": "Relu6", "input": ["model/tf.math.add_39/Add"], "attr": {"T": {"type": "DT_FLOAT"}}}, {"name": "model/zero_padding2d_12/Pad", "op": "Pad", "input": ["model/tf.nn.relu6_22/Relu6", "model/zero_padding2d_12/Pad/paddings"], "attr": {"Tpaddings": {"type": "DT_INT32"}, "T": {"type": "DT_FLOAT"}}}, {"name": "model/depthwise_conv2d_11/depthwise", "op": "DepthwiseConv2dNative", "input": ["model/zero_padding2d_12/Pad", "model/depthwise_conv2d_11/depthwise/ReadVariableOp"], "attr": {"strides": {"list": {"i": ["1", "1", "1", "1"]}}, "data_format": {"s": "TkhXQw=="}, "dilations": {"list": {"i": ["1", "1", "1", "1"]}}, "explicit_paddings": {"list": {}}, "T": {"type": "DT_FLOAT"}, "padding": {"s": "VkFMSUQ="}}}, {"name": "model/tf.math.add_40/Add", "op": "Add", "input": ["model/depthwise_conv2d_11/depthwise", "model/tf.math.add_40/Add/y"], "attr": {"T": {"type": "DT_FLOAT"}}}, {"name": "model/tf.nn.relu6_23/Relu6", "op": "Relu6", "input": ["model/tf.math.add_40/Add"], "attr": {"T": {"type": "DT_FLOAT"}}}, {"name": "model/conv2d_23/Conv2D", "op": "Conv2D", "input": ["model/tf.nn.relu6_23/Relu6", "model/conv2d_23/Conv2D/ReadVariableOp"], "device": "/device:CPU:0", "attr": {"T": {"type": "DT_FLOAT"}, "use_cudnn_on_gpu": {"b": true}, "strides": {"list": {"i": ["1", "1", "1", "1"]}}, "padding": {"s": "VkFMSUQ="}, "dilations": {"list": {"i": ["1", "1", "1", "1"]}}, "explicit_paddings": {"list": {}}, "data_format": {"s": "TkhXQw=="}}}, {"name": "model/tf.math.add_41/Add", "op": "Add", "input": ["model/conv2d_23/Conv2D", "model/tf.math.add_41/Add/y"], "attr": {"T": {"type": "DT_FLOAT"}}}, {"name": "model/tf.math.add_42/Add", "op": "Add", "input": ["model/tf.math.add_38/Add", "model/tf.math.add_41/Add"], "attr": {"T": {"type": "DT_FLOAT"}}}, {"name": "model/conv2d_24/Conv2D", "op": "Conv2D", "input": ["model/tf.math.add_42/Add", "model/conv2d_24/Conv2D/ReadVariableOp"], "device": "/device:CPU:0", "attr": {"use_cudnn_on_gpu": {"b": true}, "strides": {"list": {"i": ["1", "1", "1", "1"]}}, "padding": {"s": "VkFMSUQ="}, "explicit_paddings": {"list": {}}, "T": {"type": "DT_FLOAT"}, "dilations": {"list": {"i": ["1", "1", "1", "1"]}}, "data_format": {"s": "TkhXQw=="}}}, {"name": "model/tf.math.add_43/Add", "op": "Add", "input": ["model/conv2d_24/Conv2D", "model/tf.math.add_43/Add/y"], "attr": {"T": {"type": "DT_FLOAT"}}}, {"name": "model/tf.nn.relu6_24/Relu6", "op": "Relu6", "input": ["model/tf.math.add_43/Add"], "attr": {"T": {"type": "DT_FLOAT"}}}, {"name": "model/zero_padding2d_13/Pad", "op": "Pad", "input": ["model/tf.nn.relu6_24/Relu6", "model/zero_padding2d_13/Pad/paddings"], "attr": {"Tpaddings": {"type": "DT_INT32"}, "T": {"type": "DT_FLOAT"}}}, {"name": "model/depthwise_conv2d_12/depthwise", "op": "DepthwiseConv2dNative", "input": ["model/zero_padding2d_13/Pad", "model/depthwise_conv2d_12/depthwise/ReadVariableOp"], "attr": {"explicit_paddings": {"list": {}}, "strides": {"list": {"i": ["1", "1", "1", "1"]}}, "padding": {"s": "VkFMSUQ="}, "T": {"type": "DT_FLOAT"}, "dilations": {"list": {"i": ["1", "1", "1", "1"]}}, "data_format": {"s": "TkhXQw=="}}}, {"name": "model/tf.math.add_44/Add", "op": "Add", "input": ["model/depthwise_conv2d_12/depthwise", "model/tf.math.add_44/Add/y"], "attr": {"T": {"type": "DT_FLOAT"}}}, {"name": "model/tf.nn.relu6_25/Relu6", "op": "Relu6", "input": ["model/tf.math.add_44/Add"], "attr": {"T": {"type": "DT_FLOAT"}}}, {"name": "model/conv2d_25/Conv2D", "op": "Conv2D", "input": ["model/tf.nn.relu6_25/Relu6", "model/conv2d_25/Conv2D/ReadVariableOp"], "device": "/device:CPU:0", "attr": {"use_cudnn_on_gpu": {"b": true}, "dilations": {"list": {"i": ["1", "1", "1", "1"]}}, "padding": {"s": "VkFMSUQ="}, "data_format": {"s": "TkhXQw=="}, "T": {"type": "DT_FLOAT"}, "strides": {"list": {"i": ["1", "1", "1", "1"]}}, "explicit_paddings": {"list": {}}}}, {"name": "model/tf.math.add_45/Add", "op": "Add", "input": ["model/conv2d_25/Conv2D", "model/tf.math.add_45/Add/y"], "attr": {"T": {"type": "DT_FLOAT"}}}, {"name": "model/tf.math.add_46/Add", "op": "Add", "input": ["model/tf.math.add_42/Add", "model/tf.math.add_45/Add"], "attr": {"T": {"type": "DT_FLOAT"}}}, {"name": "model/conv2d_26/Conv2D", "op": "Conv2D", "input": ["model/tf.math.add_46/Add", "model/conv2d_26/Conv2D/ReadVariableOp"], "device": "/device:CPU:0", "attr": {"data_format": {"s": "TkhXQw=="}, "padding": {"s": "VkFMSUQ="}, "explicit_paddings": {"list": {}}, "strides": {"list": {"i": ["1", "1", "1", "1"]}}, "use_cudnn_on_gpu": {"b": true}, "dilations": {"list": {"i": ["1", "1", "1", "1"]}}, "T": {"type": "DT_FLOAT"}}}, {"name": "model/tf.math.add_47/Add", "op": "Add", "input": ["model/conv2d_26/Conv2D", "model/tf.math.add_47/Add/y"], "attr": {"T": {"type": "DT_FLOAT"}}}, {"name": "model/tf.nn.relu6_26/Relu6", "op": "Relu6", "input": ["model/tf.math.add_47/Add"], "attr": {"T": {"type": "DT_FLOAT"}}}, {"name": "model/zero_padding2d_14/Pad", "op": "Pad", "input": ["model/tf.nn.relu6_26/Relu6", "model/zero_padding2d_14/Pad/paddings"], "attr": {"Tpaddings": {"type": "DT_INT32"}, "T": {"type": "DT_FLOAT"}}}, {"name": "model/depthwise_conv2d_13/depthwise", "op": "DepthwiseConv2dNative", "input": ["model/zero_padding2d_14/Pad", "model/depthwise_conv2d_13/depthwise/ReadVariableOp"], "attr": {"dilations": {"list": {"i": ["1", "1", "1", "1"]}}, "explicit_paddings": {"list": {}}, "padding": {"s": "VkFMSUQ="}, "data_format": {"s": "TkhXQw=="}, "strides": {"list": {"i": ["1", "2", "2", "1"]}}, "T": {"type": "DT_FLOAT"}}}, {"name": "model/tf.math.add_48/Add", "op": "Add", "input": ["model/depthwise_conv2d_13/depthwise", "model/tf.math.add_48/Add/y"], "attr": {"T": {"type": "DT_FLOAT"}}}, {"name": "model/tf.nn.relu6_27/Relu6", "op": "Relu6", "input": ["model/tf.math.add_48/Add"], "attr": {"T": {"type": "DT_FLOAT"}}}, {"name": "model/conv2d_27/Conv2D", "op": "Conv2D", "input": ["model/tf.nn.relu6_27/Relu6", "model/conv2d_27/Conv2D/ReadVariableOp"], "device": "/device:CPU:0", "attr": {"padding": {"s": "VkFMSUQ="}, "data_format": {"s": "TkhXQw=="}, "use_cudnn_on_gpu": {"b": true}, "dilations": {"list": {"i": ["1", "1", "1", "1"]}}, "explicit_paddings": {"list": {}}, "strides": {"list": {"i": ["1", "1", "1", "1"]}}, "T": {"type": "DT_FLOAT"}}}, {"name": "model/tf.math.add_49/Add", "op": "Add", "input": ["model/conv2d_27/Conv2D", "model/tf.math.add_49/Add/y"], "attr": {"T": {"type": "DT_FLOAT"}}}, {"name": "model/conv2d_28/Conv2D", "op": "Conv2D", "input": ["model/tf.math.add_49/Add", "model/conv2d_28/Conv2D/ReadVariableOp"], "device": "/device:CPU:0", "attr": {"T": {"type": "DT_FLOAT"}, "strides": {"list": {"i": ["1", "1", "1", "1"]}}, "data_format": {"s": "TkhXQw=="}, "use_cudnn_on_gpu": {"b": true}, "explicit_paddings": {"list": {}}, "dilations": {"list": {"i": ["1", "1", "1", "1"]}}, "padding": {"s": "VkFMSUQ="}}}, {"name": "model/tf.math.add_50/Add", "op": "Add", "input": ["model/conv2d_28/Conv2D", "model/tf.math.add_50/Add/y"], "attr": {"T": {"type": "DT_FLOAT"}}}, {"name": "model/tf.nn.relu6_28/Relu6", "op": "Relu6", "input": ["model/tf.math.add_50/Add"], "attr": {"T": {"type": "DT_FLOAT"}}}, {"name": "model/zero_padding2d_15/Pad", "op": "Pad", "input": ["model/tf.nn.relu6_28/Relu6", "model/zero_padding2d_15/Pad/paddings"], "attr": {"Tpaddings": {"type": "DT_INT32"}, "T": {"type": "DT_FLOAT"}}}, {"name": "model/depthwise_conv2d_14/depthwise", "op": "DepthwiseConv2dNative", "input": ["model/zero_padding2d_15/Pad", "model/depthwise_conv2d_14/depthwise/ReadVariableOp"], "attr": {"T": {"type": "DT_FLOAT"}, "padding": {"s": "VkFMSUQ="}, "data_format": {"s": "TkhXQw=="}, "dilations": {"list": {"i": ["1", "1", "1", "1"]}}, "explicit_paddings": {"list": {}}, "strides": {"list": {"i": ["1", "1", "1", "1"]}}}}, {"name": "model/tf.math.add_51/Add", "op": "Add", "input": ["model/depthwise_conv2d_14/depthwise", "model/tf.math.add_51/Add/y"], "attr": {"T": {"type": "DT_FLOAT"}}}, {"name": "model/tf.nn.relu6_29/Relu6", "op": "Relu6", "input": ["model/tf.math.add_51/Add"], "attr": {"T": {"type": "DT_FLOAT"}}}, {"name": "model/conv2d_29/Conv2D", "op": "Conv2D", "input": ["model/tf.nn.relu6_29/Relu6", "model/conv2d_29/Conv2D/ReadVariableOp"], "device": "/device:CPU:0", "attr": {"data_format": {"s": "TkhXQw=="}, "padding": {"s": "VkFMSUQ="}, "dilations": {"list": {"i": ["1", "1", "1", "1"]}}, "T": {"type": "DT_FLOAT"}, "strides": {"list": {"i": ["1", "1", "1", "1"]}}, "use_cudnn_on_gpu": {"b": true}, "explicit_paddings": {"list": {}}}}, {"name": "model/tf.math.add_52/Add", "op": "Add", "input": ["model/conv2d_29/Conv2D", "model/tf.math.add_52/Add/y"], "attr": {"T": {"type": "DT_FLOAT"}}}, {"name": "model/tf.math.add_53/Add", "op": "Add", "input": ["model/tf.math.add_49/Add", "model/tf.math.add_52/Add"], "attr": {"T": {"type": "DT_FLOAT"}}}, {"name": "model/conv2d_30/Conv2D", "op": "Conv2D", "input": ["model/tf.math.add_53/Add", "model/conv2d_30/Conv2D/ReadVariableOp"], "device": "/device:CPU:0", "attr": {"padding": {"s": "VkFMSUQ="}, "T": {"type": "DT_FLOAT"}, "explicit_paddings": {"list": {}}, "use_cudnn_on_gpu": {"b": true}, "dilations": {"list": {"i": ["1", "1", "1", "1"]}}, "strides": {"list": {"i": ["1", "1", "1", "1"]}}, "data_format": {"s": "TkhXQw=="}}}, {"name": "model/tf.math.add_54/Add", "op": "Add", "input": ["model/conv2d_30/Conv2D", "model/tf.math.add_54/Add/y"], "attr": {"T": {"type": "DT_FLOAT"}}}, {"name": "model/tf.nn.relu6_30/Relu6", "op": "Relu6", "input": ["model/tf.math.add_54/Add"], "attr": {"T": {"type": "DT_FLOAT"}}}, {"name": "model/zero_padding2d_16/Pad", "op": "Pad", "input": ["model/tf.nn.relu6_30/Relu6", "model/zero_padding2d_16/Pad/paddings"], "attr": {"T": {"type": "DT_FLOAT"}, "Tpaddings": {"type": "DT_INT32"}}}, {"name": "model/depthwise_conv2d_15/depthwise", "op": "DepthwiseConv2dNative", "input": ["model/zero_padding2d_16/Pad", "model/depthwise_conv2d_15/depthwise/ReadVariableOp"], "attr": {"padding": {"s": "VkFMSUQ="}, "explicit_paddings": {"list": {}}, "data_format": {"s": "TkhXQw=="}, "T": {"type": "DT_FLOAT"}, "dilations": {"list": {"i": ["1", "1", "1", "1"]}}, "strides": {"list": {"i": ["1", "1", "1", "1"]}}}}, {"name": "model/tf.math.add_55/Add", "op": "Add", "input": ["model/depthwise_conv2d_15/depthwise", "model/tf.math.add_55/Add/y"], "attr": {"T": {"type": "DT_FLOAT"}}}, {"name": "model/tf.nn.relu6_31/Relu6", "op": "Relu6", "input": ["model/tf.math.add_55/Add"], "attr": {"T": {"type": "DT_FLOAT"}}}, {"name": "model/conv2d_31/Conv2D", "op": "Conv2D", "input": ["model/tf.nn.relu6_31/Relu6", "model/conv2d_31/Conv2D/ReadVariableOp"], "device": "/device:CPU:0", "attr": {"data_format": {"s": "TkhXQw=="}, "T": {"type": "DT_FLOAT"}, "explicit_paddings": {"list": {}}, "padding": {"s": "VkFMSUQ="}, "use_cudnn_on_gpu": {"b": true}, "strides": {"list": {"i": ["1", "1", "1", "1"]}}, "dilations": {"list": {"i": ["1", "1", "1", "1"]}}}}, {"name": "model/tf.math.add_56/Add", "op": "Add", "input": ["model/conv2d_31/Conv2D", "model/tf.math.add_56/Add/y"], "attr": {"T": {"type": "DT_FLOAT"}}}, {"name": "model/tf.math.add_57/Add", "op": "Add", "input": ["model/tf.math.add_53/Add", "model/tf.math.add_56/Add"], "attr": {"T": {"type": "DT_FLOAT"}}}, {"name": "model/conv2d_32/Conv2D", "op": "Conv2D", "input": ["model/tf.math.add_57/Add", "model/conv2d_32/Conv2D/ReadVariableOp"], "device": "/device:CPU:0", "attr": {"T": {"type": "DT_FLOAT"}, "padding": {"s": "VkFMSUQ="}, "strides": {"list": {"i": ["1", "1", "1", "1"]}}, "dilations": {"list": {"i": ["1", "1", "1", "1"]}}, "use_cudnn_on_gpu": {"b": true}, "data_format": {"s": "TkhXQw=="}, "explicit_paddings": {"list": {}}}}, {"name": "model/tf.math.add_58/Add", "op": "Add", "input": ["model/conv2d_32/Conv2D", "model/tf.math.add_58/Add/y"], "attr": {"T": {"type": "DT_FLOAT"}}}, {"name": "model/tf.nn.relu6_32/Relu6", "op": "Relu6", "input": ["model/tf.math.add_58/Add"], "attr": {"T": {"type": "DT_FLOAT"}}}, {"name": "model/zero_padding2d_17/Pad", "op": "Pad", "input": ["model/tf.nn.relu6_32/Relu6", "model/zero_padding2d_17/Pad/paddings"], "attr": {"T": {"type": "DT_FLOAT"}, "Tpaddings": {"type": "DT_INT32"}}}, {"name": "model/depthwise_conv2d_16/depthwise", "op": "DepthwiseConv2dNative", "input": ["model/zero_padding2d_17/Pad", "model/depthwise_conv2d_16/depthwise/ReadVariableOp"], "attr": {"data_format": {"s": "TkhXQw=="}, "T": {"type": "DT_FLOAT"}, "strides": {"list": {"i": ["1", "1", "1", "1"]}}, "dilations": {"list": {"i": ["1", "1", "1", "1"]}}, "explicit_paddings": {"list": {}}, "padding": {"s": "VkFMSUQ="}}}, {"name": "model/tf.math.add_59/Add", "op": "Add", "input": ["model/depthwise_conv2d_16/depthwise", "model/tf.math.add_59/Add/y"], "attr": {"T": {"type": "DT_FLOAT"}}}, {"name": "model/tf.nn.relu6_33/Relu6", "op": "Relu6", "input": ["model/tf.math.add_59/Add"], "attr": {"T": {"type": "DT_FLOAT"}}}, {"name": "model/conv2d_33/Conv2D", "op": "Conv2D", "input": ["model/tf.nn.relu6_33/Relu6", "model/conv2d_33/Conv2D/ReadVariableOp"], "device": "/device:CPU:0", "attr": {"data_format": {"s": "TkhXQw=="}, "padding": {"s": "VkFMSUQ="}, "dilations": {"list": {"i": ["1", "1", "1", "1"]}}, "T": {"type": "DT_FLOAT"}, "use_cudnn_on_gpu": {"b": true}, "strides": {"list": {"i": ["1", "1", "1", "1"]}}, "explicit_paddings": {"list": {}}}}, {"name": "model/tf.math.add_60/Add", "op": "Add", "input": ["model/conv2d_33/Conv2D", "model/tf.math.add_60/Add/y"], "attr": {"T": {"type": "DT_FLOAT"}}}, {"name": "model/conv2d_34/Conv2D", "op": "Conv2D", "input": ["model/tf.math.add_60/Add", "model/conv2d_34/Conv2D/ReadVariableOp"], "device": "/device:CPU:0", "attr": {"strides": {"list": {"i": ["1", "1", "1", "1"]}}, "data_format": {"s": "TkhXQw=="}, "padding": {"s": "VkFMSUQ="}, "dilations": {"list": {"i": ["1", "1", "1", "1"]}}, "use_cudnn_on_gpu": {"b": true}, "explicit_paddings": {"list": {}}, "T": {"type": "DT_FLOAT"}}}, {"name": "model/tf.math.add_61/Add", "op": "Add", "input": ["model/conv2d_34/Conv2D", "model/tf.math.add_61/Add/y"], "attr": {"T": {"type": "DT_FLOAT"}}}, {"name": "model/tf.nn.relu6_34/Relu6", "op": "Relu6", "input": ["model/tf.math.add_61/Add"], "attr": {"T": {"type": "DT_FLOAT"}}}, {"name": "model/tf.math.reduce_mean/Mean", "op": "Mean", "input": ["model/tf.nn.relu6_34/Relu6", "model/tf.math.reduce_mean/Mean/reduction_indices"], "attr": {"T": {"type": "DT_FLOAT"}, "Tidx": {"type": "DT_INT32"}, "keep_dims": {"b": true}}}, {"name": "model/tf.reshape/Reshape", "op": "Reshape", "input": ["model/tf.math.reduce_mean/Mean", "model/tf.reshape/Reshape/shape"], "attr": {"T": {"type": "DT_FLOAT"}, "Tshape": {"type": "DT_INT64"}}}, {"name": "model/tf.linalg.matmul/MatMul", "op": "MatMul", "input": ["model/tf.reshape/Reshape", "model/tf.linalg.matmul/MatMul/b"], "device": "/device:CPU:0", "attr": {"transpose_b": {"b": true}, "transpose_a": {"b": false}, "T": {"type": "DT_FLOAT"}}}, {"name": "model/tf.nn.relu/Relu", "op": "Relu", "input": ["model/tf.linalg.matmul/MatMul"], "attr": {"T": {"type": "DT_FLOAT"}}}, {"name": "model/tf.linalg.matmul_1/MatMul", "op": "MatMul", "input": ["model/tf.nn.relu/Relu", "model/tf.linalg.matmul_1/MatMul/b"], "device": "/device:CPU:0", "attr": {"transpose_b": {"b": true}, "T": {"type": "DT_FLOAT"}, "transpose_a": {"b": false}}}, {"name": "model/tf.math.sigmoid/Sigmoid", "op": "Sigmoid", "input": ["model/tf.linalg.matmul_1/MatMul"], "attr": {"T": {"type": "DT_FLOAT"}}}, {"name": "model/tf.reshape_1/Reshape", "op": "Reshape", "input": ["model/tf.math.sigmoid/Sigmoid", "model/tf.reshape_1/Reshape/shape"], "attr": {"T": {"type": "DT_FLOAT"}, "Tshape": {"type": "DT_INT32"}}}, {"name": "model/tf.math.multiply/Mul", "op": "BroadcastTo", "input": ["model/tf.reshape_1/Reshape", "ConstantFolding/model/tf.math.multiply/Mul-broadcastto_shape-0"], "attr": {"T": {"type": "DT_FLOAT"}, "Tidx": {"type": "DT_INT32"}}}, {"name": "model/tf.math.multiply_1/Mul", "op": "Mul", "input": ["model/tf.nn.relu6_34/Relu6", "model/tf.math.multiply/Mul"], "attr": {"T": {"type": "DT_FLOAT"}}}, {"name": "model/lambda/resize/ResizeBilinear", "op": "ResizeBilinear", "input": ["model/tf.math.multiply_1/Mul", "model/lambda/resize/size"], "attr": {"T": {"type": "DT_FLOAT"}, "half_pixel_centers": {"b": true}, "align_corners": {"b": false}}}, {"name": "model/zero_padding2d_18/Pad", "op": "Pad", "input": ["model/lambda/resize/ResizeBilinear", "model/zero_padding2d_18/Pad/paddings"], "attr": {"Tpaddings": {"type": "DT_INT32"}, "T": {"type": "DT_FLOAT"}}}, {"name": "model/conv2d_35/Conv2D", "op": "Conv2D", "input": ["model/zero_padding2d_18/Pad", "model/conv2d_35/Conv2D/ReadVariableOp"], "device": "/device:CPU:0", "attr": {"strides": {"list": {"i": ["1", "1", "1", "1"]}}, "data_format": {"s": "TkhXQw=="}, "T": {"type": "DT_FLOAT"}, "use_cudnn_on_gpu": {"b": true}, "dilations": {"list": {"i": ["1", "1", "1", "1"]}}, "padding": {"s": "VkFMSUQ="}, "explicit_paddings": {"list": {}}}}, {"name": "model/tf.math.add_62/Add", "op": "Add", "input": ["model/conv2d_35/Conv2D", "model/tf.math.add_62/Add/y"], "attr": {"T": {"type": "DT_FLOAT"}}}, {"name": "model/tf.strided_slice/StridedSlice", "op": "StridedSlice", "input": ["model/tf.math.add_62/Add", "model/tf.strided_slice/StridedSlice/begin", "model/tf.strided_slice/StridedSlice/end", "model/tf.strided_slice/StridedSlice/strides"], "attr": {"begin_mask": {"i": "-1"}, "Index": {"type": "DT_INT64"}, "shrink_axis_mask": {"i": "0"}, "ellipsis_mask": {"i": "0"}, "end_mask": {"i": "3"}, "T": {"type": "DT_FLOAT"}, "new_axis_mask": {"i": "0"}}}, {"name": "model/tf.strided_slice_1/StridedSlice", "op": "StridedSlice", "input": ["model/tf.math.add_62/Add", "model/tf.strided_slice_1/StridedSlice/begin", "model/tf.strided_slice_1/StridedSlice/end", "model/tf.strided_slice_1/StridedSlice/strides"], "attr": {"ellipsis_mask": {"i": "0"}, "end_mask": {"i": "3"}, "begin_mask": {"i": "3"}, "Index": {"type": "DT_INT64"}, "new_axis_mask": {"i": "0"}, "shrink_axis_mask": {"i": "0"}, "T": {"type": "DT_FLOAT"}}}, {"name": "model/tf.math.multiply_2/Mul", "op": "Mul", "input": ["model/tf.strided_slice/StridedSlice", "model/tf.math.multiply_2/Mul/y"], "attr": {"T": {"type": "DT_FLOAT"}}}, {"name": "model/tf.math.reduce_mean_1/Mean", "op": "Mean", "input": ["model/tf.strided_slice_1/StridedSlice", "model/tf.math.reduce_mean_1/Const"], "attr": {"T": {"type": "DT_FLOAT"}, "keep_dims": {"b": true}, "Tidx": {"type": "DT_INT32"}}}, {"name": "model/tf.math.reduce_mean_2/Mean", "op": "Mean", "input": ["model/tf.strided_slice_1/StridedSlice", "model/tf.math.reduce_mean_2/Const"], "attr": {"T": {"type": "DT_FLOAT"}, "keep_dims": {"b": true}, "Tidx": {"type": "DT_INT32"}}}, {"name": "model/tf.math.add_63/Add", "op": "Add", "input": ["model/tf.math.multiply_2/Mul", "model/tf.math.add_63/Add/y"], "attr": {"T": {"type": "DT_FLOAT"}}}, {"name": "model/tf.math.subtract_1/Sub", "op": "Sub", "input": ["model/tf.strided_slice_1/StridedSlice", "model/tf.math.reduce_mean_1/Mean"], "attr": {"T": {"type": "DT_FLOAT"}}}, {"name": "model/tf.math.subtract/Sub", "op": "SquaredDifference", "input": ["model/tf.strided_slice_1/StridedSlice", "model/tf.math.reduce_mean_2/Mean"], "attr": {"T": {"type": "DT_FLOAT"}}}, {"name": "model/tf.math.reduce_mean_3/Mean", "op": "Mean", "input": ["model/tf.math.subtract/Sub", "model/tf.math.reduce_mean_3/Const"], "attr": {"Tidx": {"type": "DT_INT32"}, "keep_dims": {"b": true}, "T": {"type": "DT_FLOAT"}}}, {"name": "model/tf.__operators__.add/AddV2", "op": "AddV2", "input": ["model/tf.math.reduce_mean_3/Mean", "model/tf.__operators__.add/y"], "attr": {"T": {"type": "DT_FLOAT"}}}, {"name": "model/tf.math.sqrt/Sqrt", "op": "Rsqrt", "input": ["model/tf.__operators__.add/AddV2"], "attr": {"T": {"type": "DT_FLOAT"}}}, {"name": "model/tf.math.truediv/truediv", "op": "Mul", "input": ["model/tf.math.subtract_1/Sub", "model/tf.math.sqrt/Sqrt"], "attr": {"T": {"type": "DT_FLOAT"}}}, {"name": "model/tf.concat/concat", "op": "ConcatV2", "input": ["model/tf.math.add_63/Add", "model/tf.math.truediv/truediv", "model/tf.concat/concat/axis"], "attr": {"Tidx": {"type": "DT_INT32"}, "N": {"i": "2"}, "T": {"type": "DT_FLOAT"}}}, {"name": "model/tf.nn.relu_1/Relu", "op": "Relu", "input": ["model/tf.concat/concat"], "attr": {"T": {"type": "DT_FLOAT"}}}, {"name": "model/lambda_1/resize/ResizeBilinear", "op": "ResizeBilinear", "input": ["model/tf.nn.relu_1/Relu", "model/lambda_1/resize/size"], "attr": {"half_pixel_centers": {"b": true}, "T": {"type": "DT_FLOAT"}, "align_corners": {"b": false}}}, {"name": "model/zero_padding2d_19/Pad", "op": "Pad", "input": ["model/lambda_1/resize/ResizeBilinear", "model/zero_padding2d_19/Pad/paddings"], "attr": {"T": {"type": "DT_FLOAT"}, "Tpaddings": {"type": "DT_INT32"}}}, {"name": "model/conv2d_36/Conv2D", "op": "Conv2D", "input": ["model/zero_padding2d_19/Pad", "model/conv2d_36/Conv2D/ReadVariableOp"], "device": "/device:CPU:0", "attr": {"explicit_paddings": {"list": {}}, "strides": {"list": {"i": ["1", "1", "1", "1"]}}, "T": {"type": "DT_FLOAT"}, "data_format": {"s": "TkhXQw=="}, "use_cudnn_on_gpu": {"b": true}, "padding": {"s": "VkFMSUQ="}, "dilations": {"list": {"i": ["1", "1", "1", "1"]}}}}, {"name": "model/tf.math.add_65/Add", "op": "Add", "input": ["model/conv2d_36/Conv2D", "model/tf.math.add_65/Add/y"], "attr": {"T": {"type": "DT_FLOAT"}}}, {"name": "model/tf.strided_slice_2/StridedSlice", "op": "StridedSlice", "input": ["model/tf.math.add_65/Add", "model/tf.strided_slice_2/StridedSlice/begin", "model/tf.strided_slice_2/StridedSlice/end", "model/tf.strided_slice_2/StridedSlice/strides"], "attr": {"end_mask": {"i": "3"}, "new_axis_mask": {"i": "0"}, "Index": {"type": "DT_INT64"}, "T": {"type": "DT_FLOAT"}, "begin_mask": {"i": "-1"}, "shrink_axis_mask": {"i": "0"}, "ellipsis_mask": {"i": "0"}}}, {"name": "model/tf.strided_slice_3/StridedSlice", "op": "StridedSlice", "input": ["model/tf.math.add_65/Add", "model/tf.strided_slice_3/StridedSlice/begin", "model/tf.strided_slice_3/StridedSlice/end", "model/tf.strided_slice_3/StridedSlice/strides"], "attr": {"Index": {"type": "DT_INT64"}, "shrink_axis_mask": {"i": "0"}, "new_axis_mask": {"i": "0"}, "ellipsis_mask": {"i": "0"}, "end_mask": {"i": "3"}, "begin_mask": {"i": "3"}, "T": {"type": "DT_FLOAT"}}}, {"name": "model/tf.math.multiply_4/Mul", "op": "Mul", "input": ["model/tf.strided_slice_2/StridedSlice", "model/tf.math.multiply_4/Mul/y"], "attr": {"T": {"type": "DT_FLOAT"}}}, {"name": "model/tf.math.reduce_mean_4/Mean", "op": "Mean", "input": ["model/tf.strided_slice_3/StridedSlice", "model/tf.math.reduce_mean_4/Const"], "attr": {"Tidx": {"type": "DT_INT32"}, "T": {"type": "DT_FLOAT"}, "keep_dims": {"b": true}}}, {"name": "model/tf.math.reduce_mean_5/Mean", "op": "Mean", "input": ["model/tf.strided_slice_3/StridedSlice", "model/tf.math.reduce_mean_5/Const"], "attr": {"T": {"type": "DT_FLOAT"}, "keep_dims": {"b": true}, "Tidx": {"type": "DT_INT32"}}}, {"name": "model/tf.math.add_66/Add", "op": "Add", "input": ["model/tf.math.multiply_4/Mul", "model/tf.math.add_66/Add/y"], "attr": {"T": {"type": "DT_FLOAT"}}}, {"name": "model/tf.math.subtract_3/Sub", "op": "Sub", "input": ["model/tf.strided_slice_3/StridedSlice", "model/tf.math.reduce_mean_4/Mean"], "attr": {"T": {"type": "DT_FLOAT"}}}, {"name": "model/tf.math.subtract_2/Sub", "op": "SquaredDifference", "input": ["model/tf.strided_slice_3/StridedSlice", "model/tf.math.reduce_mean_5/Mean"], "attr": {"T": {"type": "DT_FLOAT"}}}, {"name": "model/tf.math.reduce_mean_6/Mean", "op": "Mean", "input": ["model/tf.math.subtract_2/Sub", "model/tf.math.reduce_mean_6/Const"], "attr": {"Tidx": {"type": "DT_INT32"}, "T": {"type": "DT_FLOAT"}, "keep_dims": {"b": true}}}, {"name": "model/tf.__operators__.add_1/AddV2", "op": "AddV2", "input": ["model/tf.math.reduce_mean_6/Mean", "model/tf.__operators__.add_1/y"], "attr": {"T": {"type": "DT_FLOAT"}}}, {"name": "model/tf.math.sqrt_1/Sqrt", "op": "Rsqrt", "input": ["model/tf.__operators__.add_1/AddV2"], "attr": {"T": {"type": "DT_FLOAT"}}}, {"name": "model/tf.math.truediv_1/truediv", "op": "Mul", "input": ["model/tf.math.subtract_3/Sub", "model/tf.math.sqrt_1/Sqrt"], "attr": {"T": {"type": "DT_FLOAT"}}}, {"name": "model/tf.concat_1/concat", "op": "ConcatV2", "input": ["model/tf.math.add_66/Add", "model/tf.math.truediv_1/truediv", "model/tf.concat_1/concat/axis"], "attr": {"T": {"type": "DT_FLOAT"}, "Tidx": {"type": "DT_INT32"}, "N": {"i": "2"}}}, {"name": "model/tf.nn.relu_2/Relu", "op": "Relu", "input": ["model/tf.concat_1/concat"], "attr": {"T": {"type": "DT_FLOAT"}}}, {"name": "model/lambda_2/resize/ResizeBilinear", "op": "ResizeBilinear", "input": ["model/tf.nn.relu_2/Relu", "model/lambda_2/resize/size"], "attr": {"half_pixel_centers": {"b": true}, "T": {"type": "DT_FLOAT"}, "align_corners": {"b": false}}}, {"name": "model/lambda_4/resize/ResizeBilinear", "op": "ResizeBilinear", "input": ["model/tf.nn.relu_2/Relu", "model/lambda_4/resize/size"], "attr": {"align_corners": {"b": false}, "half_pixel_centers": {"b": true}, "T": {"type": "DT_FLOAT"}}}, {"name": "model/zero_padding2d_20/Pad", "op": "Pad", "input": ["model/lambda_2/resize/ResizeBilinear", "model/zero_padding2d_20/Pad/paddings"], "attr": {"Tpaddings": {"type": "DT_INT32"}, "T": {"type": "DT_FLOAT"}}}, {"name": "model/tf.concat_9/concat", "op": "ConcatV2", "input": ["model/tf.nn.relu_7/Relu", "model/lambda_4/resize/ResizeBilinear", "model/tf.image.resize_1/resize/ResizeBilinear", "model/tf.concat_9/concat/axis"], "attr": {"Tidx": {"type": "DT_INT32"}, "N": {"i": "3"}, "T": {"type": "DT_FLOAT"}}}, {"name": "model/conv2d_37/Conv2D", "op": "Conv2D", "input": ["model/zero_padding2d_20/Pad", "model/conv2d_37/Conv2D/ReadVariableOp"], "device": "/device:CPU:0", "attr": {"strides": {"list": {"i": ["1", "1", "1", "1"]}}, "use_cudnn_on_gpu": {"b": true}, "padding": {"s": "VkFMSUQ="}, "explicit_paddings": {"list": {}}, "dilations": {"list": {"i": ["1", "1", "1", "1"]}}, "T": {"type": "DT_FLOAT"}, "data_format": {"s": "TkhXQw=="}}}, {"name": "model/zero_padding2d_23/Pad", "op": "Pad", "input": ["model/tf.concat_9/concat", "model/zero_padding2d_23/Pad/paddings"], "attr": {"Tpaddings": {"type": "DT_INT32"}, "T": {"type": "DT_FLOAT"}}}, {"name": "model/tf.math.add_68/Add", "op": "Add", "input": ["model/conv2d_37/Conv2D", "model/tf.math.add_68/Add/y"], "attr": {"T": {"type": "DT_FLOAT"}}}, {"name": "model/conv2d_42/Conv2D", "op": "Conv2D", "input": ["model/zero_padding2d_23/Pad", "model/conv2d_42/Conv2D/ReadVariableOp"], "device": "/device:CPU:0", "attr": {"T": {"type": "DT_FLOAT"}, "use_cudnn_on_gpu": {"b": true}, "dilations": {"list": {"i": ["1", "1", "1", "1"]}}, "explicit_paddings": {"list": {}}, "data_format": {"s": "TkhXQw=="}, "strides": {"list": {"i": ["1", "1", "1", "1"]}}, "padding": {"s": "VkFMSUQ="}}}, {"name": "model/tf.strided_slice_4/StridedSlice", "op": "StridedSlice", "input": ["model/tf.math.add_68/Add", "model/tf.strided_slice_4/StridedSlice/begin", "model/tf.strided_slice_4/StridedSlice/end", "model/tf.strided_slice_4/StridedSlice/strides"], "attr": {"begin_mask": {"i": "-1"}, "ellipsis_mask": {"i": "0"}, "end_mask": {"i": "3"}, "shrink_axis_mask": {"i": "0"}, "new_axis_mask": {"i": "0"}, "T": {"type": "DT_FLOAT"}, "Index": {"type": "DT_INT64"}}}, {"name": "model/tf.strided_slice_5/StridedSlice", "op": "StridedSlice", "input": ["model/tf.math.add_68/Add", "model/tf.strided_slice_5/StridedSlice/begin", "model/tf.strided_slice_5/StridedSlice/end", "model/tf.strided_slice_5/StridedSlice/strides"], "attr": {"shrink_axis_mask": {"i": "0"}, "T": {"type": "DT_FLOAT"}, "new_axis_mask": {"i": "0"}, "Index": {"type": "DT_INT64"}, "begin_mask": {"i": "3"}, "end_mask": {"i": "3"}, "ellipsis_mask": {"i": "0"}}}, {"name": "model/tf.math.add_83/Add", "op": "Add", "input": ["model/conv2d_42/Conv2D", "model/tf.math.add_83/Add/y"], "attr": {"T": {"type": "DT_FLOAT"}}}, {"name": "model/tf.math.multiply_6/Mul", "op": "Mul", "input": ["model/tf.strided_slice_4/StridedSlice", "model/tf.math.multiply_6/Mul/y"], "attr": {"T": {"type": "DT_FLOAT"}}}, {"name": "model/tf.math.reduce_mean_7/Mean", "op": "Mean", "input": ["model/tf.strided_slice_5/StridedSlice", "model/tf.math.reduce_mean_7/Co…
_slice_18/StridedSlice/strides", "shape": [4], "dtype": "int32"}, {"name": "model/tf.math.multiply_20/Mul/y", "shape": [1, 1, 1, 16], "dtype": "float32", "quantization": {"dtype": "uint8", "min": 0.3998708426952362, "scale": 0.0021203535444596234, "original_dtype": "float32"}}, {"name": "model/tf.math.add_90/Add/y", "shape": [16], "dtype": "float32", "quantization": {"dtype": "uint8", "min": -0.010966610207277187, "scale": 0.005483305103638593, "original_dtype": "float32"}}, {"name": "model/tf.math.reduce_mean_28/Const", "shape": [4], "dtype": "int32"}, {"name": "model/tf.strided_slice_16/StridedSlice/begin", "shape": [4], "dtype": "int32"}, {"name": "model/tf.strided_slice_16/StridedSlice/end", "shape": [4], "dtype": "int32"}, {"name": "model/tf.strided_slice_16/StridedSlice/strides", "shape": [4], "dtype": "int32"}, {"name": "model/tf.math.multiply_18/Mul/y", "shape": [1, 1, 1, 32], "dtype": "float32", "quantization": {"dtype": "uint8", "min": 0.3909120261669159, "scale": 0.003555804257299386, "original_dtype": "float32"}}, {"name": "model/tf.math.add_87/Add/y", "shape": [32], "dtype": "float32", "quantization": {"dtype": "uint8", "min": -1.5252454940010518, "scale": 0.010100963536430807, "original_dtype": "float32"}}, {"name": "model/tf.math.reduce_mean_25/Const", "shape": [4], "dtype": "int32"}, {"name": "model/tf.strided_slice_14/StridedSlice/begin", "shape": [4], "dtype": "int32"}, {"name": "model/tf.strided_slice_14/StridedSlice/end", "shape": [4], "dtype": "int32"}, {"name": "model/tf.strided_slice_14/StridedSlice/strides", "shape": [4], "dtype": "int32"}, {"name": "model/tf.math.multiply_16/Mul/y", "shape": [1, 1, 1, 32], "dtype": "float32", "quantization": {"dtype": "uint8", "min": 0.4109373390674591, "scale": 0.0021451897480908562, "original_dtype": "float32"}}, {"name": "model/tf.math.add_84/Add/y", "shape": [32], "dtype": "float32", "quantization": {"dtype": "uint8", "min": -0.9599161526736091, "scale": 0.007618382164076263, "original_dtype": "float32"}}, {"name": "model/tf.math.reduce_mean_22/Const", "shape": [4], "dtype": "int32"}, {"name": "model/tf.strided_slice_12/StridedSlice/begin", "shape": [4], "dtype": "int32"}, {"name": "model/tf.strided_slice_12/StridedSlice/end", "shape": [4], "dtype": "int32"}, {"name": "model/tf.strided_slice_12/StridedSlice/strides", "shape": [4], "dtype": "int32"}, {"name": "model/tf.math.multiply_14/Mul/y", "shape": [1, 1, 1, 32], "dtype": "float32", "quantization": {"dtype": "uint8", "min": 0.4916798770427704, "scale": 0.0013905369767955706, "original_dtype": "float32"}}, {"name": "model/tf.math.add_81/Add/y", "shape": [32], "dtype": "float32", "quantization": {"dtype": "uint8", "min": -0.46989245928970036, "scale": 0.008865895458296233, "original_dtype": "float32"}}, {"name": "model/tf.math.reduce_mean_19/Const", "shape": [4], "dtype": "int32"}, {"name": "model/tf.strided_slice_8/StridedSlice/begin", "shape": [4], "dtype": "int32"}, {"name": "model/tf.strided_slice_8/StridedSlice/end", "shape": [4], "dtype": "int32"}, {"name": "model/tf.strided_slice_8/StridedSlice/strides", "shape": [4], "dtype": "int32"}, {"name": "model/tf.math.multiply_10/Mul/y", "shape": [1, 1, 1, 16], "dtype": "float32", "quantization": {"dtype": "uint8", "min": 0.5375052094459534, "scale": 0.001307509459701239, "original_dtype": "float32"}}, {"name": "model/tf.math.add_75/Add/y", "shape": [16], "dtype": "float32", "quantization": {"dtype": "uint8", "min": -1.9630454166262759, "scale": 0.014649592661390117, "original_dtype": "float32"}}, {"name": "model/tf.math.reduce_mean_13/Const", "shape": [4], "dtype": "int32"}, {"name": "model/tf.image.resize/resize/size", "shape": [2], "dtype": "int32"}, {"name": "model/tf.concat_4/concat/axis", "shape": [], "dtype": "int32"}, {"name": "model/zero_padding2d_21/Pad/paddings", "shape": [4, 2], "dtype": "int32"}, {"name": "model/conv2d_39/Conv2D/ReadVariableOp", "shape": [3, 3, 35, 32], "dtype": "float32", "quantization": {"dtype": "uint8", "min": -0.23908357427400703, "scale": 0.002043449352769291, "original_dtype": "float32"}}, {"name": "model/tf.math.add_74/Add/y", "shape": [32], "dtype": "float32", "quantization": {"dtype": "uint8", "min": -0.009465605214092076, "scale": 6.146496892267582e-05, "original_dtype": "float32"}}, {"name": "model/tf.strided_slice_9/StridedSlice/begin", "shape": [4], "dtype": "int32"}, {"name": "model/tf.strided_slice_9/StridedSlice/end", "shape": [4], "dtype": "int32"}, {"name": "model/tf.strided_slice_9/StridedSlice/strides", "shape": [4], "dtype": "int32"}, {"name": "model/tf.math.reduce_mean_14/Const", "shape": [4], "dtype": "int32"}, {"name": "model/tf.math.reduce_mean_15/Const", "shape": [4], "dtype": "int32"}, {"name": "model/tf.__operators__.add_4/y", "shape": [], "dtype": "float32", "quantization": {"dtype": "uint8", "min": 9.999999747378752e-06, "scale": 1.0, "original_dtype": "float32"}}, {"name": "model/tf.strided_slice_10/StridedSlice/begin", "shape": [4], "dtype": "int32"}, {"name": "model/tf.strided_slice_10/StridedSlice/end", "shape": [4], "dtype": "int32"}, {"name": "model/tf.strided_slice_10/StridedSlice/strides", "shape": [4], "dtype": "int32"}, {"name": "model/tf.math.multiply_12/Mul/y", "shape": [1, 1, 1, 16], "dtype": "float32", "quantization": {"dtype": "uint8", "min": 0.4693852365016937, "scale": 0.0015819183751648548, "original_dtype": "float32"}}, {"name": "model/tf.math.add_78/Add/y", "shape": [16], "dtype": "float32", "quantization": {"dtype": "uint8", "min": 0.10961597412824631, "scale": 0.004399094657570708, "original_dtype": "float32"}}, {"name": "model/tf.math.reduce_mean_16/Const", "shape": [4], "dtype": "int32"}, {"name": "model/conv2d_40/Conv2D/ReadVariableOp", "shape": [1, 1, 24, 32], "dtype": "float32", "quantization": {"dtype": "uint8", "min": -0.767219274184283, "scale": 0.005993900579564711, "original_dtype": "float32"}}, {"name": "model/tf.math.add_77/Add/y", "shape": [32], "dtype": "float32", "quantization": {"dtype": "uint8", "min": -0.004971616233096403, "scale": 8.877886130529291e-05, "original_dtype": "float32"}}, {"name": "model/tf.strided_slice_11/StridedSlice/begin", "shape": [4], "dtype": "int32"}, {"name": "model/tf.strided_slice_11/StridedSlice/end", "shape": [4], "dtype": "int32"}, {"name": "model/tf.strided_slice_11/StridedSlice/strides", "shape": [4], "dtype": "int32"}, {"name": "model/tf.math.reduce_mean_17/Const", "shape": [4], "dtype": "int32"}, {"name": "model/tf.math.reduce_mean_18/Const", "shape": [4], "dtype": "int32"}, {"name": "model/tf.__operators__.add_5/y", "shape": [], "dtype": "float32", "quantization": {"dtype": "uint8", "min": 9.999999747378752e-06, "scale": 1.0, "original_dtype": "float32"}}, {"name": "model/tf.concat_7/concat/axis", "shape": [], "dtype": "int32"}, {"name": "model/zero_padding2d_22/Pad/paddings", "shape": [4, 2], "dtype": "int32"}, {"name": "model/conv2d_41/Conv2D/ReadVariableOp", "shape": [3, 3, 64, 64], "dtype": "float32", "quantization": {"dtype": "uint8", "min": -0.4012315782846189, "scale": 0.002994265509586708, "original_dtype": "float32"}}, {"name": "model/tf.math.add_80/Add/y", "shape": [64], "dtype": "float32", "quantization": {"dtype": "uint8", "min": -0.007508883581441992, "scale": 5.0059223876279944e-05, "original_dtype": "float32"}}, {"name": "model/tf.strided_slice_13/StridedSlice/begin", "shape": [4], "dtype": "int32"}, {"name": "model/tf.strided_slice_13/StridedSlice/end", "shape": [4], "dtype": "int32"}, {"name": "model/tf.strided_slice_13/StridedSlice/strides", "shape": [4], "dtype": "int32"}, {"name": "model/tf.math.reduce_mean_20/Const", "shape": [4], "dtype": "int32"}, {"name": "model/tf.math.reduce_mean_21/Const", "shape": [4], "dtype": "int32"}, {"name": "model/tf.__operators__.add_6/y", "shape": [], "dtype": "float32", "quantization": {"dtype": "uint8", "min": 9.999999747378752e-06, "scale": 1.0, "original_dtype": "float32"}}, {"name": "model/tf.concat_8/concat/axis", "shape": [], "dtype": "int32"}, {"name": "model/tf.strided_slice_2/StridedSlice/begin", "shape": [4], "dtype": "int32"}, {"name": "model/tf.strided_slice_2/StridedSlice/end", "shape": [4], "dtype": "int32"}, {"name": "model/tf.strided_slice_2/StridedSlice/strides", "shape": [4], "dtype": "int32"}, {"name": "model/tf.math.multiply_4/Mul/y", "shape": [1, 1, 1, 16], "dtype": "float32", "quantization": {"dtype": "uint8", "min": 0.15009865164756775, "scale": 0.002251213788986206, "original_dtype": "float32"}}, {"name": "model/tf.math.add_66/Add/y", "shape": [16], "dtype": "float32", "quantization": {"dtype": "uint8", "min": -0.21241290282969383, "scale": 0.006068940080848395, "original_dtype": "float32"}}, {"name": "model/tf.math.reduce_mean_4/Const", "shape": [4], "dtype": "int32"}, {"name": "model/tf.strided_slice/StridedSlice/begin", "shape": [4], "dtype": "int32"}, {"name": "model/tf.strided_slice/StridedSlice/end", "shape": [4], "dtype": "int32"}, {"name": "model/tf.strided_slice/StridedSlice/strides", "shape": [4], "dtype": "int32"}, {"name": "model/tf.math.multiply_2/Mul/y", "shape": [1, 1, 1, 48], "dtype": "float32", "quantization": {"dtype": "uint8", "min": 0.1444701999425888, "scale": 0.0021063662627164056, "original_dtype": "float32"}}, {"name": "model/tf.math.add_63/Add/y", "shape": [48], "dtype": "float32", "quantization": {"dtype": "uint8", "min": -0.8572294169781255, "scale": 0.00931771105411006, "original_dtype": "float32"}}, {"name": "model/tf.math.reduce_mean_1/Const", "shape": [4], "dtype": "int32"}, {"name": "model/conv2d_2/Conv2D/ReadVariableOp", "shape": [1, 1, 16, 96], "dtype": "float32", "quantization": {"dtype": "uint8", "min": -5.423739152796129, "scale": 0.03228416162378648, "original_dtype": "float32"}}, {"name": "model/tf.math.add_3/Add/y", "shape": [96], "dtype": "float32", "quantization": {"dtype": "uint8", "min": 0.33855798840522766, "scale": 0.32491932371083426, "original_dtype": "float32"}}, {"name": "model/zero_padding2d_2/Pad/paddings", "shape": [4, 2], "dtype": "int32"}, {"name": "model/depthwise_conv2d_1/depthwise/ReadVariableOp", "shape": [3, 3, 96, 1], "dtype": "float32", "quantization": {"dtype": "uint8", "min": -11.258346355662626, "scale": 0.07216888689527325, "original_dtype": "float32"}}, {"name": "model/tf.math.add_4/Add/y", "shape": [96], "dtype": "float32", "quantization": {"dtype": "uint8", "min": -2.3477955299265245, "scale": 0.015548314767725327, "original_dtype": "float32"}}, {"name": "model/conv2d_3/Conv2D/ReadVariableOp", "shape": [1, 1, 96, 24], "dtype": "float32", "quantization": {"dtype": "uint8", "min": -0.9621955139964234, "scale": 0.007023324919681923, "original_dtype": "float32"}}, {"name": "model/tf.math.add_5/Add/y", "shape": [24], "dtype": "float32", "quantization": {"dtype": "uint8", "min": -1.3305213984321147, "scale": 0.009641459408928367, "original_dtype": "float32"}}, {"name": "model/conv2d_4/Conv2D/ReadVariableOp", "shape": [1, 1, 24, 144], "dtype": "float32", "quantization": {"dtype": "uint8", "min": -0.4561602234840393, "scale": 0.0034821391105651855, "original_dtype": "float32"}}, {"name": "model/tf.math.add_6/Add/y", "shape": [144], "dtype": "float32", "quantization": {"dtype": "uint8", "min": -0.4124244583588021, "scale": 0.0049689693778168925, "original_dtype": "float32"}}, {"name": "model/zero_padding2d_3/Pad/paddings", "shape": [4, 2], "dtype": "int32"}, {"name": "model/depthwise_conv2d_2/depthwise/ReadVariableOp", "shape": [3, 3, 144, 1], "dtype": "float32", "quantization": {"dtype": "uint8", "min": -9.933721280565448, "scale": 0.07641324061973422, "original_dtype": "float32"}}, {"name": "model/tf.math.add_7/Add/y", "shape": [144], "dtype": "float32", "quantization": {"dtype": "uint8", "min": -1.1611848017748665, "scale": 0.014886984638139313, "original_dtype": "float32"}}, {"name": "model/conv2d_5/Conv2D/ReadVariableOp", "shape": [1, 1, 144, 24], "dtype": "float32", "quantization": {"dtype": "uint8", "min": -1.189628480462467, "scale": 0.009441495876686246, "original_dtype": "float32"}}, {"name": "model/tf.math.add_8/Add/y", "shape": [24], "dtype": "float32", "quantization": {"dtype": "uint8", "min": -2.3706630328122307, "scale": 0.01436765474431655, "original_dtype": "float32"}}, {"name": "model/conv2d_6/Conv2D/ReadVariableOp", "shape": [1, 1, 24, 144], "dtype": "float32", "quantization": {"dtype": "uint8", "min": -0.357292514221341, "scale": 0.002552089387295293, "original_dtype": "float32"}}, {"name": "model/tf.math.add_10/Add/y", "shape": [144], "dtype": "float32", "quantization": {"dtype": "uint8", "min": -0.4353308981540156, "scale": 0.0034278023476694143, "original_dtype": "float32"}}, {"name": "model/zero_padding2d_4/Pad/paddings", "shape": [4, 2], "dtype": "int32"}, {"name": "model/depthwise_conv2d_3/depthwise/ReadVariableOp", "shape": [3, 3, 144, 1], "dtype": "float32", "quantization": {"dtype": "uint8", "min": -3.5357204820595536, "scale": 0.025436838000428442, "original_dtype": "float32"}}, {"name": "model/tf.math.add_11/Add/y", "shape": [144], "dtype": "float32", "quantization": {"dtype": "uint8", "min": -1.10160630310283, "scale": 0.01360007781608432, "original_dtype": "float32"}}, {"name": "model/conv2d_7/Conv2D/ReadVariableOp", "shape": [1, 1, 144, 32], "dtype": "float32", "quantization": {"dtype": "uint8", "min": -0.6052282165078555, "scale": 0.004803398543713139, "original_dtype": "float32"}}, {"name": "model/tf.math.add_12/Add/y", "shape": [32], "dtype": "float32", "quantization": {"dtype": "uint8", "min": -2.459992375093348, "scale": 0.017826031703574986, "original_dtype": "float32"}}, {"name": "model/conv2d_8/Conv2D/ReadVariableOp", "shape": [1, 1, 32, 192], "dtype": "float32", "quantization": {"dtype": "uint8", "min": -0.19654821408729928, "scale": 0.001434658496987586, "original_dtype": "float32"}}, {"name": "model/tf.math.add_13/Add/y", "shape": [192], "dtype": "float32", "quantization": {"dtype": "uint8", "min": -0.46463113812839285, "scale": 0.003747025307487039, "original_dtype": "float32"}}, {"name": "model/zero_padding2d_5/Pad/paddings", "shape": [4, 2], "dtype": "int32"}, {"name": "model/depthwise_conv2d_4/depthwise/ReadVariableOp", "shape": [3, 3, 192, 1], "dtype": "float32", "quantization": {"dtype": "uint8", "min": -7.503170686609605, "scale": 0.06252642238841337, "original_dtype": "float32"}}, {"name": "model/tf.math.add_14/Add/y", "shape": [192], "dtype": "float32", "quantization": {"dtype": "uint8", "min": -5.982078806559245, "scale": 0.02835108439127604, "original_dtype": "float32"}}, {"name": "model/conv2d_9/Conv2D/ReadVariableOp", "shape": [1, 1, 192, 32], "dtype": "float32", "quantization": {"dtype": "uint8", "min": -0.7377221888186885, "scale": 0.005901777510549508, "original_dtype": "float32"}}, {"name": "model/tf.math.add_15/Add/y", "shape": [32], "dtype": "float32", "quantization": {"dtype": "uint8", "min": -0.9752174756106208, "scale": 0.007559825392330394, "original_dtype": "float32"}}, {"name": "model/conv2d_10/Conv2D/ReadVariableOp", "shape": [1, 1, 32, 192], "dtype": "float32", "quantization": {"dtype": "uint8", "min": -0.1375204564893947, "scale": 0.0010660500503053853, "original_dtype": "float32"}}, {"name": "model/tf.math.add_17/Add/y", "shape": [192], "dtype": "float32", "quantization": {"dtype": "uint8", "min": -0.2602710211978239, "scale": 0.0029916209333083208, "original_dtype": "float32"}}, {"name": "model/zero_padding2d_6/Pad/paddings", "shape": [4, 2], "dtype": "int32"}, {"name": "model/depthwise_conv2d_5/depthwise/ReadVariableOp", "shape": [3, 3, 192, 1], "dtype": "float32", "quantization": {"dtype": "uint8", "min": -5.803648256788067, "scale": 0.039751015457452514, "original_dtype": "float32"}}, {"name": "model/tf.math.add_18/Add/y", "shape": [192], "dtype": "float32", "quantization": {"dtype": "uint8", "min": -1.1724911409265855, "scale": 0.010468670901130227, "original_dtype": "float32"}}, {"name": "model/conv2d_11/Conv2D/ReadVariableOp", "shape": [1, 1, 192, 32], "dtype": "float32", "quantization": {"dtype": "uint8", "min": -0.7622529188791911, "scale": 0.00657114585240682, "original_dtype": "float32"}}, {"name": "model/tf.math.add_19/Add/y", "shape": [32], "dtype": "float32", "quantization": {"dtype": "uint8", "min": -0.8240613656885484, "scale": 0.00686717804740457, "original_dtype": "float32"}}, {"name": "model/conv2d_12/Conv2D/ReadVariableOp", "shape": [1, 1, 32, 192], "dtype": "float32", "quantization": {"dtype": "uint8", "min": -0.1991934383616728, "scale": 0.0015561987372005688, "original_dtype": "float32"}}, {"name": "model/tf.math.add_21/Add/y", "shape": [192], "dtype": "float32", "quantization": {"dtype": "uint8", "min": -0.35341672757092646, "scale": 0.0031001467330783023, "original_dtype": "float32"}}, {"name": "model/zero_padding2d_7/Pad/paddings", "shape": [4, 2], "dtype": "int32"}, {"name": "model/depthwise_conv2d_6/depthwise/ReadVariableOp", "shape": [3, 3, 192, 1], "dtype": "float32", "quantization": {"dtype": "uint8", "min": -2.695628387787763, "scale": 0.020896344091378007, "original_dtype": "float32"}}, {"name": "model/tf.math.add_22/Add/y", "shape": [192], "dtype": "float32", "quantization": {"dtype": "uint8", "min": -0.3278180797894796, "scale": 0.00964170822910234, "original_dtype": "float32"}}, {"name": "model/conv2d_13/Conv2D/ReadVariableOp", "shape": [1, 1, 192, 64], "dtype": "float32", "quantization": {"dtype": "uint8", "min": -0.5543342291140089, "scale": 0.0043648364497166055, "original_dtype": "float32"}}, {"name": "model/tf.math.add_23/Add/y", "shape": [64], "dtype": "float32", "quantization": {"dtype": "uint8", "min": -1.849935442793603, "scale": 0.015163405268800025, "original_dtype": "float32"}}, {"name": "model/conv2d_14/Conv2D/ReadVariableOp", "shape": [1, 1, 64, 384], "dtype": "float32", "quantization": {"dtype": "uint8", "min": -0.170192814691394, "scale": 0.0012796452232435639, "original_dtype": "float32"}}, {"name": "model/tf.math.add_24/Add/y", "shape": [384], "dtype": "float32", "quantization": {"dtype": "uint8", "min": -0.2765625355290432, "scale": 0.0030391487420773976, "original_dtype": "float32"}}, {"name": "model/zero_padding2d_8/Pad/paddings", "shape": [4, 2], "dtype": "int32"}, {"name": "model/depthwise_conv2d_7/depthwise/ReadVariableOp", "shape": [3, 3, 384, 1], "dtype": "float32", "quantization": {"dtype": "uint8", "min": -5.853202853483312, "scale": 0.037520531112072514, "original_dtype": "float32"}}, {"name": "model/tf.math.add_25/Add/y", "shape": [384], "dtype": "float32", "quantization": {"dtype": "uint8", "min": -0.6407421497737661, "scale": 0.00832132662043852, "original_dtype": "float32"}}, {"name": "model/conv2d_15/Conv2D/ReadVariableOp", "shape": [1, 1, 384, 64], "dtype": "float32", "quantization": {"dtype": "uint8", "min": -0.8423176347040663, "scale": 0.005653138487946754, "original_dtype": "float32"}}, {"name": "model/tf.math.add_26/Add/y", "shape": [64], "dtype": "float32", "quantization": {"dtype": "uint8", "min": -1.1517026564654183, "scale": 0.009363436231426164, "original_dtype": "float32"}}, {"name": "model/conv2d_16/Conv2D/ReadVariableOp", "shape": [1, 1, 64, 384], "dtype": "float32", "quantization": {"dtype": "uint8", "min": -0.14787259522606347, "scale": 0.0012322716268838622, "original_dtype": "float32"}}, {"name": "model/tf.math.add_28/Add/y", "shape": [384], "dtype": "float32", "quantization": {"dtype": "uint8", "min": -0.2673919884597554, "scale": 0.0022854016107671403, "original_dtype": "float32"}}, {"name": "model/zero_padding2d_9/Pad/paddings", "shape": [4, 2], "dtype": "int32"}, {"name": "model/depthwise_conv2d_8/depthwise/ReadVariableOp", "shape": [3, 3, 384, 1], "dtype": "float32", "quantization": {"dtype": "uint8", "min": -3.1484368801116944, "scale": 0.026909716924031577, "original_dtype": "float32"}}, {"name": "model/tf.math.add_29/Add/y", "shape": [384], "dtype": "float32", "quantization": {"dtype": "uint8", "min": -0.9195658132141712, "scale": 0.00647581558601529, "original_dtype": "float32"}}, {"name": "model/conv2d_17/Conv2D/ReadVariableOp", "shape": [1, 1, 384, 64], "dtype": "float32", "quantization": {"dtype": "uint8", "min": -0.746202400151421, "scale": 0.006845893579370836, "original_dtype": "float32"}}, {"name": "model/tf.math.add_30/Add/y", "shape": [64], "dtype": "float32", "quantization": {"dtype": "uint8", "min": -0.8525387932272519, "scale": 0.00888061242945054, "original_dtype": "float32"}}, {"name": "model/conv2d_18/Conv2D/ReadVariableOp", "shape": [1, 1, 64, 384], "dtype": "float32", "quantization": {"dtype": "uint8", "min": -0.13974400361378989, "scale": 0.0010749538739522298, "original_dtype": "float32"}}, {"name": "model/tf.math.add_32/Add/y", "shape": [384], "dtype": "float32", "quantization": {"dtype": "uint8", "min": -0.29816571450700946, "scale": 0.002570394090577668, "original_dtype": "float32"}}, {"name": "model/zero_padding2d_10/Pad/paddings", "shape": [4, 2], "dtype": "int32"}, {"name": "model/depthwise_conv2d_9/depthwise/ReadVariableOp", "shape": [3, 3, 384, 1], "dtype": "float32", "quantization": {"dtype": "uint8", "min": -3.558024959003224, "scale": 0.02716049587025362, "original_dtype": "float32"}}, {"name": "model/tf.math.add_33/Add/y", "shape": [384], "dtype": "float32", "quantization": {"dtype": "uint8", "min": -0.7524019016939051, "scale": 0.007234633670133703, "original_dtype": "float32"}}, {"name": "model/conv2d_19/Conv2D/ReadVariableOp", "shape": [1, 1, 384, 64], "dtype": "float32", "quantization": {"dtype": "uint8", "min": -0.6665990196022332, "scale": 0.006599990293091418, "original_dtype": "float32"}}, {"name": "model/tf.math.add_34/Add/y", "shape": [64], "dtype": "float32", "quantization": {"dtype": "uint8", "min": -1.1746924610698923, "scale": 0.010582814964593625, "original_dtype": "float32"}}, {"name": "model/conv2d_20/Conv2D/ReadVariableOp", "shape": [1, 1, 64, 384], "dtype": "float32", "quantization": {"dtype": "uint8", "min": -0.13551751305075252, "scale": 0.001129312608756271, "original_dtype": "float32"}}, {"name": "model/tf.math.add_36/Add/y", "shape": [384], "dtype": "float32", "quantization": {"dtype": "uint8", "min": -0.3269749482472738, "scale": 0.0029724995295206708, "original_dtype": "float32"}}, {"name": "model/zero_padding2d_11/Pad/paddings", "shape": [4, 2], "dtype": "int32"}, {"name": "model/depthwise_conv2d_10/depthwise/ReadVariableOp", "shape": [3, 3, 384, 1], "dtype": "float32", "quantization": {"dtype": "uint8", "min": -4.309478329677208, "scale": 0.030781988069122912, "original_dtype": "float32"}}, {"name": "model/tf.math.add_37/Add/y", "shape": [384], "dtype": "float32", "quantization": {"dtype": "uint8", "min": -1.3464978232103235, "scale": 0.012823788792479272, "original_dtype": "float32"}}, {"name": "model/conv2d_21/Conv2D/ReadVariableOp", "shape": [1, 1, 384, 96], "dtype": "float32", "quantization": {"dtype": "uint8", "min": -0.3688492985332713, "scale": 0.0026346378466662237, "original_dtype": "float32"}}, {"name": "model/tf.math.add_38/Add/y", "shape": [96], "dtype": "float32", "quantization": {"dtype": "uint8", "min": -0.8948759808259852, "scale": 0.007046267565558938, "original_dtype": "float32"}}, {"name": "model/conv2d_22/Conv2D/ReadVariableOp", "shape": [1, 1, 96, 576], "dtype": "float32", "quantization": {"dtype": "uint8", "min": -0.21923848150991926, "scale": 0.0016484096354129267, "original_dtype": "float32"}}, {"name": "model/tf.math.add_39/Add/y", "shape": [576], "dtype": "float32", "quantization": {"dtype": "uint8", "min": -0.48372840811224543, "scale": 0.002914026554893045, "original_dtype": "float32"}}, {"name": "model/zero_padding2d_12/Pad/paddings", "shape": [4, 2], "dtype": "int32"}, {"name": "model/depthwise_conv2d_11/depthwise/ReadVariableOp", "shape": [3, 3, 576, 1], "dtype": "float32", "quantization": {"dtype": "uint8", "min": -3.7403664345834766, "scale": 0.05054549235923617, "original_dtype": "float32"}}, {"name": "model/tf.math.add_40/Add/y", "shape": [576], "dtype": "float32", "quantization": {"dtype": "uint8", "min": -0.7618333498636881, "scale": 0.006925757726033529, "original_dtype": "float32"}}, {"name": "model/conv2d_23/Conv2D/ReadVariableOp", "shape": [1, 1, 576, 96], "dtype": "float32", "quantization": {"dtype": "uint8", "min": -0.46775011548808976, "scale": 0.0037721783507104014, "original_dtype": "float32"}}, {"name": "model/tf.math.add_41/Add/y", "shape": [96], "dtype": "float32", "quantization": {"dtype": "uint8", "min": -1.0187709658753636, "scale": 0.008782508326511757, "original_dtype": "float32"}}, {"name": "model/conv2d_24/Conv2D/ReadVariableOp", "shape": [1, 1, 96, 576], "dtype": "float32", "quantization": {"dtype": "uint8", "min": -0.15815524932216196, "scale": 0.0012652419945772956, "original_dtype": "float32"}}, {"name": "model/tf.math.add_43/Add/y", "shape": [576], "dtype": "float32", "quantization": {"dtype": "uint8", "min": -0.891865668109819, "scale": 0.004597245711906284, "original_dtype": "float32"}}, {"name": "model/zero_padding2d_13/Pad/paddings", "shape": [4, 2], "dtype": "int32"}, {"name": "model/depthwise_conv2d_12/depthwise/ReadVariableOp", "shape": [3, 3, 576, 1], "dtype": "float32", "quantization": {"dtype": "uint8", "min": -6.4094880122764435, "scale": 0.054317695019291894, "original_dtype": "float32"}}, {"name": "model/tf.math.add_44/Add/y", "shape": [576], "dtype": "float32", "quantization": {"dtype": "uint8", "min": -1.4314458884444892, "scale": 0.008946536802778057, "original_dtype": "float32"}}, {"name": "model/conv2d_25/Conv2D/ReadVariableOp", "shape": [1, 1, 576, 96], "dtype": "float32", "quantization": {"dtype": "uint8", "min": -1.3781083167767991, "scale": 0.009504195288115856, "original_dtype": "float32"}}, {"name": "model/tf.math.add_45/Add/y", "shape": [96], "dtype": "float32", "quantization": {"dtype": "uint8", "min": -1.5212851159712848, "scale": 0.011023805188197715, "original_dtype": "float32"}}, {"name": "model/conv2d_26/Conv2D/ReadVariableOp", "shape": [1, 1, 96, 576], "dtype": "float32", "quantization": {"dtype": "uint8", "min": -0.1863135630009221, "scale": 0.0013120673450769164, "original_dtype": "float32"}}, {"name": "model/tf.math.add_47/Add/y", "shape": [576], "dtype": "float32", "quantization": {"dtype": "uint8", "min": -0.5823033802649554, "scale": 0.0040158853811376235, "original_dtype": "float32"}}, {"name": "model/zero_padding2d_14/Pad/paddings", "shape": [4, 2], "dtype": "int32"}, {"name": "model/depthwise_conv2d_13/depthwise/ReadVariableOp", "shape": [3, 3, 576, 1], "dtype": "float32", "quantization": {"dtype": "uint8", "min": -2.414604055180269, "scale": 0.030564608293421128, "original_dtype": "float32"}}, {"name": "model/tf.math.add_48/Add/y", "shape": [576], "dtype": "float32", "quantization": {"dtype": "uint8", "min": -0.7949642349691952, "scale": 0.0076438868747038, "original_dtype": "float32"}}, {"name": "model/conv2d_27/Conv2D/ReadVariableOp", "shape": [1, 1, 576, 160], "dtype": "float32", "quantization": {"dtype": "uint8", "min": -0.28242875734965006, "scale": 0.0027156611283620197, "original_dtype": "float32"}}, {"name": "model/tf.math.add_49/Add/y", "shape": [160], "dtype": "float32", "quantization": {"dtype": "uint8", "min": -0.7185308175928452, "scale": 0.005702625536451153, "original_dtype": "float32"}}, {"name": "model/conv2d_28/Conv2D/ReadVariableOp", "shape": [1, 1, 160, 960], "dtype": "float32", "quantization": {"dtype": "uint8", "min": -0.19096610195496502, "scale": 0.001540049209314234, "original_dtype": "float32"}}, {"name": "model/tf.math.add_50/Add/y", "shape": [960], "dtype": "float32", "quantization": {"dtype": "uint8", "min": -0.3006986704527163, "scale": 0.0022954096981123383, "original_dtype": "float32"}}, {"name": "model/zero_padding2d_15/Pad/paddings", "shape": [4, 2], "dtype": "int32"}, {"name": "model/depthwise_conv2d_14/depthwise/ReadVariableOp", "shape": [3, 3, 960, 1], "dtype": "float32", "quantization": {"dtype": "uint8", "min": -5.977871150596469, "scale": 0.05639501085468367, "original_dtype": "float32"}}, {"name": "model/tf.math.add_51/Add/y", "shape": [960], "dtype": "float32", "quantization": {"dtype": "uint8", "min": -0.6737612696254954, "scale": 0.00580828680711634, "original_dtype": "float32"}}, {"name": "model/conv2d_29/Conv2D/ReadVariableOp", "shape": [1, 1, 960, 160], "dtype": "float32", "quantization": {"dtype": "uint8", "min": -0.33937228777829337, "scale": 0.0029769498927920473, "original_dtype": "float32"}}, {"name": "model/tf.math.add_52/Add/y", "shape": [160], "dtype": "float32", "quantization": {"dtype": "uint8", "min": -0.6372626860936482, "scale": 0.004755691687266032, "original_dtype": "float32"}}, {"name": "model/conv2d_30/Conv2D/ReadVariableOp", "shape": [1, 1, 160, 960], "dtype": "float32", "quantization": {"dtype": "uint8", "min": -0.12710349840276383, "scale": 0.0011768842444700354, "original_dtype": "float32"}}, {"name": "model/tf.math.add_54/Add/y", "shape": [960], "dtype": "float32", "quantization": {"dtype": "uint8", "min": -0.23545610390457453, "scale": 0.0019459182140873928, "original_dtype": "float32"}}, {"name": "model/zero_padding2d_16/Pad/paddings", "shape": [4, 2], "dtype": "int32"}, {"name": "model/depthwise_conv2d_15/depthwise/ReadVariableOp", "shape": [3, 3, 960, 1], "dtype": "float32", "quantization": {"dtype": "uint8", "min": -4.976671824735754, "scale": 0.059246093151616115, "original_dtype": "float32"}}, {"name": "model/tf.math.add_55/Add/y", "shape": [960], "dtype": "float32", "quantization": {"dtype": "uint8", "min": -0.6820069780536726, "scale": 0.007255393383549709, "original_dtype": "float32"}}, {"name": "model/conv2d_31/Conv2D/ReadVariableOp", "shape": [1, 1, 960, 160], "dtype": "float32", "quantization": {"dtype": "uint8", "min": -0.40359654379825965, "scale": 0.0034203096932055904, "original_dtype": "float32"}}, {"name": "model/tf.math.add_56/Add/y", "shape": [160], "dtype": "float32", "quantization": {"dtype": "uint8", "min": -1.0525222020990708, "scale": 0.007626972478978774, "original_dtype": "float32"}}, {"name": "model/conv2d_32/Conv2D/ReadVariableOp", "shape": [1, 1, 160, 960], "dtype": "float32", "quantization": {"dtype": "uint8", "min": -0.09687806157504811, "scale": 0.0007688735045638739, "original_dtype": "float32"}}, {"name": "model/tf.math.add_58/Add/y", "shape": [960], "dtype": "float32", "quantization": {"dtype": "uint8", "min": -0.3192669568108577, "scale": 0.0027762344070509366, "original_dtype": "float32"}}, {"name": "model/zero_padding2d_17/Pad/paddings", "shape": [4, 2], "dtype": "int32"}, {"name": "model/depthwise_conv2d_16/depthwise/ReadVariableOp", "shape": [3, 3, 960, 1], "dtype": "float32", "quantization": {"dtype": "uint8", "min": -6.77170119566076, "scale": 0.07524112439623067, "original_dtype": "float32"}}, {"name": "model/tf.math.add_59/Add/y", "shape": [960], "dtype": "float32", "quantization": {"dtype": "uint8", "min": -0.5470223309946995, "scale": 0.0065906304939120424, "original_dtype": "float32"}}, {"name": "model/conv2d_33/Conv2D/ReadVariableOp", "shape": [1, 1, 960, 320], "dtype": "float32", "quantization": {"dtype": "uint8", "min": -0.3141610170111937, "scale": 0.0023981757023755243, "original_dtype": "float32"}}, {"name": "model/tf.math.add_60/Add/y", "shape": [320], "dtype": "float32", "quantization": {"dtype": "uint8", "min": -0.960961166082644, "scale": 0.0075075091100206565, "original_dtype": "float32"}}, {"name": "model/conv2d_34/Conv2D/ReadVariableOp", "shape": [1, 1, 320, 1280], "dtype": "float32", "quantization": {"dtype": "uint8", "min": -1.4026968806397682, "scale": 0.013888087927126418, "original_dtype": "float32"}}, {"name": "model/tf.math.add_61/Add/y", "shape": [1280], "dtype": "float32", "quantization": {"dtype": "uint8", "min": -0.29434257956112136, "scale": 0.002044045691396676, "original_dtype": "float32"}}, {"name": "model/tf.math.reduce_mean/Mean/reduction_indices", "shape": [2], "dtype": "int32"}, {"name": "model/tf.reshape/Reshape/shape", "shape": [2], "dtype": "int32"}, {"name": "model/tf.linalg.matmul/MatMul/b", "shape": [320, 1280], "dtype": "float32", "quantization": {"dtype": "uint8", "min": -0.07805973811476838, "scale": 0.0006398339189735114, "original_dtype": "float32"}}, {"name": "model/tf.linalg.matmul_1/MatMul/b", "shape": [1280, 320], "dtype": "float32", "quantization": {"dtype": "uint8", "min": -0.1338669033903702, "scale": 0.001006518070604287, "original_dtype": "float32"}}, {"name": "model/tf.reshape_1/Reshape/shape", "shape": [4], "dtype": "int32"}, {"name": "ConstantFolding/model/tf.math.multiply/Mul-broadcastto_shape-0", "shape": [4], "dtype": "int32"}, {"name": "model/lambda/resize/size", "shape": [2], "dtype": "int32"}, {"name": "model/zero_padding2d_18/Pad/paddings", "shape": [4, 2], "dtype": "int32"}, {"name": "model/conv2d_35/Conv2D/ReadVariableOp", "shape": [5, 5, 1280, 96], "dtype": "float32", "quantization": {"dtype": "uint8", "min": -0.09900565895379758, "scale": 0.0007984327334983676, "original_dtype": "float32"}}, {"name": "model/tf.math.add_62/Add/y", "shape": [96], "dtype": "float32", "quantization": {"dtype": "uint8", "min": -0.011605477289241904, "scale": 7.208370987106772e-05, "original_dtype": "float32"}}, {"name": "model/tf.strided_slice_1/StridedSlice/begin", "shape": [4], "dtype": "int32"}, {"name": "model/tf.strided_slice_1/StridedSlice/end", "shape": [4], "dtype": "int32"}, {"name": "model/tf.strided_slice_1/StridedSlice/strides", "shape": [4], "dtype": "int32"}, {"name": "model/tf.math.reduce_mean_2/Const", "shape": [4], "dtype": "int32"}, {"name": "model/tf.math.reduce_mean_3/Const", "shape": [4], "dtype": "int32"}, {"name": "model/tf.__operators__.add/y", "shape": [], "dtype": "float32", "quantization": {"dtype": "uint8", "min": 9.999999747378752e-06, "scale": 1.0, "original_dtype": "float32"}}, {"name": "model/tf.concat/concat/axis", "shape": [], "dtype": "int32"}, {"name": "model/lambda_1/resize/size", "shape": [2], "dtype": "int32"}, {"name": "model/zero_padding2d_19/Pad/paddings", "shape": [4, 2], "dtype": "int32"}, {"name": "model/conv2d_36/Conv2D/ReadVariableOp", "shape": [5, 5, 96, 32], "dtype": "float32", "quantization": {"dtype": "uint8", "min": -0.28751626996433033, "scale": 0.001955892992954628, "original_dtype": "float32"}}, {"name": "model/tf.math.add_65/Add/y", "shape": [32], "dtype": "float32", "quantization": {"dtype": "uint8", "min": -0.013107693644569202, "scale": 9.70940269968089e-05, "original_dtype": "float32"}}, {"name": "model/tf.strided_slice_3/StridedSlice/begin", "shape": [4], "dtype": "int32"}, {"name": "model/tf.strided_slice_3/StridedSlice/end", "shape": [4], "dtype": "int32"}, {"name": "model/tf.strided_slice_3/StridedSlice/strides", "shape": [4], "dtype": "int32"}, {"name": "model/tf.math.reduce_mean_5/Const", "shape": [4], "dtype": "int32"}, {"name": "model/tf.math.reduce_mean_6/Const", "shape": [4], "dtype": "int32"}, {"name": "model/tf.__operators__.add_1/y", "shape": [], "dtype": "float32", "quantization": {"dtype": "uint8", "min": 9.999999747378752e-06, "scale": 1.0, "original_dtype": "float32"}}, {"name": "model/tf.concat_1/concat/axis", "shape": [], "dtype": "int32"}, {"name": "model/lambda_4/resize/size", "shape": [2], "dtype": "int32"}, {"name": "model/tf.image.resize_1/resize/size", "shape": [2], "dtype": "int32"}, {"name": "model/tf.concat_9/concat/axis", "shape": [], "dtype": "int32"}, {"name": "model/zero_padding2d_23/Pad/paddings", "shape": [4, 2], "dtype": "int32"}, {"name": "model/conv2d_42/Conv2D/ReadVariableOp", "shape": [3, 3, 99, 64], "dtype": "float32", "quantization": {"dtype": "uint8", "min": -0.23594356220142515, "scale": 0.0022907141961303413, "original_dtype": "float32"}}, {"name": "model/tf.math.add_83/Add/y", "shape": [64], "dtype": "float32", "quantization": {"dtype": "uint8", "min": -0.01524125533361061, "scale": 8.65980416682421e-05, "original_dtype": "float32"}}, {"name": "model/tf.strided_slice_15/StridedSlice/begin", "shape": [4], "dtype": "int32"}, {"name": "model/tf.strided_slice_15/StridedSlice/end", "shape": [4], "dtype": "int32"}, {"name": "model/tf.strided_slice_15/StridedSlice/strides", "shape": [4], "dtype": "int32"}, {"name": "model/tf.math.reduce_mean_23/Const", "shape": [4], "dtype": "int32"}, {"name": "model/tf.math.reduce_mean_24/Const", "shape": [4], "dtype": "int32"}, {"name": "model/tf.__operators__.add_7/y", "shape": [], "dtype": "float32", "quantization": {"dtype": "uint8", "min": 9.999999747378752e-06, "scale": 1.0, "original_dtype": "float32"}}, {"name": "model/tf.concat_10/concat/axis", "shape": [], "dtype": "int32"}, {"name": "model/zero_padding2d_24/Pad/paddings", "shape": [4, 2], "dtype": "int32"}, {"name": "model/conv2d_43/Conv2D/ReadVariableOp", "shape": [3, 3, 64, 64], "dtype": "float32", "quantization": {"dtype": "uint8", "min": -0.39127691388130187, "scale": 0.0025573654502045874, "original_dtype": "float32"}}, {"name": "model/tf.math.add_86/Add/y", "shape": [64], "dtype": "float32", "quantization": {"dtype": "uint8", "min": -0.008499379496217943, "scale": 5.214343249213462e-05, "original_dtype": "float32"}}, {"name": "model/tf.strided_slice_17/StridedSlice/begin", "shape": [4], "dtype": "int32"}, {"name": "model/tf.strided_slice_17/StridedSlice/end", "shape": [4], "dtype": "int32"}, {"name": "model/tf.strided_slice_17/StridedSlice/strides", "shape": [4], "dtype": "int32"}, {"name": "model/tf.math.reduce_mean_26/Const", "shape": [4], "dtype": "int32"}, {"name": "model/tf.math.reduce_mean_27/Const", "shape": [4], "dtype": "int32"}, {"name": "model/tf.__operators__.add_8/y", "shape": [], "dtype": "float32", "quantization": {"dtype": "uint8", "min": 9.999999747378752e-06, "scale": 1.0, "original_dtype": "float32"}}, {"name": "model/tf.concat_11/concat/axis", "shape": [], "dtype": "int32"}, {"name": "model/zero_padding2d_25/Pad/paddings", "shape": [4, 2], "dtype": "int32"}, {"name": "model/conv2d_44/Conv2D/ReadVariableOp", "shape": [3, 3, 64, 32], "dtype": "float32", "quantization": {"dtype": "uint8", "min": -0.3460644243978987, "scale": 0.002386651202744129, "original_dtype": "float32"}}, {"name": "model/tf.math.add_89/Add/y", "shape": [32], "dtype": "float32", "quantization": {"dtype": "uint8", "min": -0.005457434372282495, "scale": 4.4011567518407224e-05, "original_dtype": "float32"}}, {"name": "model/tf.strided_slice_19/StridedSlice/begin", "shape": [4], "dtype": "int32"}, {"name": "model/tf.strided_slice_19/StridedSlice/end", "shape": [4], "dtype": "int32"}, {"name": "model/tf.strided_slice_19/StridedSlice/strides", "shape": [4], "dtype": "int32"}, {"name": "model/tf.math.reduce_mean_29/Const", "shape": [4], "dtype": "int32"}, {"name": "model/tf.math.reduce_mean_30/Const", "shape": [4], "dtype": "int32"}, {"name": "model/tf.__operators__.add_9/y", "shape": [], "dtype": "float32", "quantization": {"dtype": "uint8", "min": 9.999999747378752e-06, "scale": 1.0, "original_dtype": "float32"}}, {"name": "model/tf.concat_12/concat/axis", "shape": [], "dtype": "int32"}, {"name": "model/lambda_5/resize/size", "shape": [2], "dtype": "int32"}, {"name": "model/tf.strided_slice_6/StridedSlice/begin", "shape": [4], "dtype": "int32"}, {"name": "model/tf.strided_slice_6/StridedSlice/end", "shape": [4], "dtype": "int32"}, {"name": "model/tf.strided_slice_6/StridedSlice/strides", "shape": [4], "dtype": "int32"}, {"name": "model/tf.math.multiply_8/Mul/y", "shape": [1, 1, 1, 16], "dtype": "float32", "quantization": {"dtype": "uint8", "min": 0.5102353096008301, "scale": 0.0050852490406410366, "original_dtype": "float32"}}, {"name": "model/tf.math.add_72/Add/y", "shape": [16], "dtype": "float32", "quantization": {"dtype": "uint8", "min": -4.249215693567313, "scale": 0.026392644059424306, "original_dtype": "float32"}}, {"name": "model/tf.math.reduce_mean_10/Const", "shape": [4], "dtype": "int32"}, {"name": "model/zero_padding2d/Pad/paddings", "shape": [4, 2], "dtype": "int32"}, {"name": "model/conv2d/Conv2D/ReadVariableOp", "shape": [3, 3, 3, 32], "dtype": "float32", "quantization": {"dtype": "uint8", "min": -1.1663554818022484, "scale": 0.009183901431513767, "original_dtype": "float32"}}, {"name": "model/tf.math.add/Add/y", "shape": [32], "dtype": "float32", "quantization": {"dtype": "uint8", "min": -0.3478224534614413, "scale": 0.005191379902409572, "original_dtype": "float32"}}, {"name": "model/zero_padding2d_1/Pad/paddings", "shape": [4, 2], "dtype": "int32"}, {"name": "model/depthwise_conv2d/depthwise/ReadVariableOp", "shape": [3, 3, 32, 1], "dtype": "float32", "quantization": {"dtype": "uint8", "min": -83.35221638399011, "scale": 0.7938306322284773, "original_dtype": "float32"}}, {"name": "model/tf.math.add_1/Add/y", "shape": [32], "dtype": "float32", "quantization": {"dtype": "uint8", "min": -0.6984526444883907, "scale": 0.015521169877519794, "original_dtype": "float32"}}, {"name": "model/conv2d_1/Conv2D/ReadVariableOp", "shape": [1, 1, 32, 16], "dtype": "float32", "quantization": {"dtype": "uint8", "min": -0.9226397140353334, "scale": 0.007043051252178118, "original_dtype": "float32"}}, {"name": "model/tf.math.add_2/Add/y", "shape": [16], "dtype": "float32", "quantization": {"dtype": "uint8", "min": -3.9569513994104724, "scale": 0.04348298241110409, "original_dtype": "float32"}}, {"name": "model/conv2d_38/Conv2D/ReadVariableOp", "shape": [1, 1, 16, 32], "dtype": "float32", "quantization": {"dtype": "uint8", "min": -1.0490353182250378, "scale": 0.008007903192557541, "original_dtype": "float32"}}, {"name": "model/tf.math.add_71/Add/y", "shape": [32], "dtype": "float32", "quantization": {"dtype": "uint8", "min": -0.029436471145234858, "scale": 0.00018283522450456433, "original_dtype": "float32"}}, {"name": "model/tf.strided_slice_7/StridedSlice/begin", "shape": [4], "dtype": "int32"}, {"name": "model/tf.strided_slice_7/StridedSlice/end", "shape": [4], "dtype": "int32"}, {"name": "model/tf.strided_slice_7/StridedSlice/strides", "shape": [4], "dtype": "int32"}, {"name": "model/tf.math.reduce_mean_11/Const", "shape": [4], "dtype": "int32"}, {"name": "model/tf.math.reduce_mean_12/Const", "shape": [4], "dtype": "int32"}, {"name": "model/tf.__operators__.add_3/y", "shape": [], "dtype": "float32", "quantization": {"dtype": "uint8", "min": 9.999999747378752e-06, "scale": 1.0, "original_dtype": "float32"}}, {"name": "model/tf.concat_3/concat/axis", "shape": [], "dtype": "int32"}, {"name": "model/tf.concat_13/concat/axis", "shape": [], "dtype": "int32"}, {"name": "model/zero_padding2d_26/Pad/paddings", "shape": [4, 2], "dtype": "int32"}, {"name": "model/conv2d_45/Conv2D/ReadVariableOp", "shape": [3, 3, 64, 64], "dtype": "float32", "quantization": {"dtype": "uint8", "min": -0.4420380024348988, "scale": 0.003778102584913665, "original_dtype": "float32"}}, {"name": "model/tf.math.add_92/Add/y", "shape": [64], "dtype": "float32", "quantization": {"dtype": "uint8", "min": -0.006694532667889315, "scale": 5.189560207666135e-05, "original_dtype": "float32"}}, {"name": "model/tf.strided_slice_21/StridedSlice/begin", "shape": [4], "dtype": "int32"}, {"name": "model/tf.strided_slice_21/StridedSlice/end", "shape": [4], "dtype": "int32"}, {"name": "model/tf.strided_slice_21/StridedSlice/strides", "shape": [4], "dtype": "int32"}, {"name": "model/tf.math.reduce_mean_32/Const", "shape": [4], "dtype": "int32"}, {"name": "model/tf.math.reduce_mean_33/Const", "shape": [4], "dtype": "int32"}, {"name": "model/tf.__operators__.add_10/y", "shape": [], "dtype": "float32", "quantization": {"dtype": "uint8", "min": 9.999999747378752e-06, "scale": 1.0, "original_dtype": "float32"}}, {"name": "model/tf.concat_14/concat/axis", "shape": [], "dtype": "int32"}, {"name": "model/zero_padding2d_27/Pad/paddings", "shape": [4, 2], "dtype": "int32"}, {"name": "model/conv2d_46/Conv2D/ReadVariableOp", "shape": [3, 3, 64, 32], "dtype": "float32", "quantization": {"dtype": "uint8", "min": -0.4442176701975804, "scale": 0.0033150572402804506, "original_dtype": "float32"}}, {"name": "model/tf.math.add_95/Add/y", "shape": [32], "dtype": "float32", "quantization": {"dtype": "uint8", "min": -0.009373448059583704, "scale": 5.012539069296098e-05, "original_dtype": "float32"}}, {"name": "model/tf.strided_slice_23/StridedSlice/begin", "shape": [4], "dtype": "int32"}, {"name": "model/tf.strided_slice_23/StridedSlice/end", "shape": [4], "dtype": "int32"}, {"name": "model/tf.strided_slice_23/StridedSlice/strides", "shape": [4], "dtype": "int32"}, {"name": "model/tf.math.reduce_mean_35/Const", "shape": [4], "dtype": "int32"}, {"name": "model/tf.math.reduce_mean_36/Const", "shape": [4], "dtype": "int32"}, {"name": "model/tf.__operators__.add_11/y", "shape": [], "dtype": "float32", "quantization": {"dtype": "uint8", "min": 9.999999747378752e-06, "scale": 1.0, "original_dtype": "float32"}}, {"name": "model/tf.concat_15/concat/axis", "shape": [], "dtype": "int32"}, {"name": "model/zero_padding2d_28/Pad/paddings", "shape": [4, 2], "dtype": "int32"}, {"name": "model/conv2d_47/Conv2D/ReadVariableOp", "shape": [3, 3, 32, 32], "dtype": "float32", "quantization": {"dtype": "uint8", "min": -0.5094376592075124, "scale": 0.0033080367481007297, "original_dtype": "float32"}}, {"name": "model/tf.math.add_98/Add/y", "shape": [32], "dtype": "float32", "quantization": {"dtype": "uint8", "min": -0.016680550535081648, "scale": 9.870148245610443e-05, "original_dtype": "float32"}}, {"name": "model/tf.strided_slice_25/StridedSlice/begin", "shape": [4], "dtype": "int32"}, {"name": "model/tf.strided_slice_25/StridedSlice/end", "shape": [4], "dtype": "int32"}, {"name": "model/tf.strided_slice_25/StridedSlice/strides", "shape": [4], "dtype": "int32"}, {"name": "model/tf.math.reduce_mean_38/Const", "shape": [4], "dtype": "int32"}, {"name": "model/tf.math.reduce_mean_39/Const", "shape": [4], "dtype": "int32"}, {"name": "model/tf.__operators__.add_12/y", "shape": [], "dtype": "float32", "quantization": {"dtype": "uint8", "min": 9.999999747378752e-06, "scale": 1.0, "original_dtype": "float32"}}, {"name": "model/tf.concat_16/concat/axis", "shape": [], "dtype": "int32"}, {"name": "model/zero_padding2d_29/Pad/paddings", "shape": [4, 2], "dtype": "int32"}, {"name": "model/conv2d_48/Conv2D/ReadVariableOp", "shape": [3, 3, 32, 32], "dtype": "float32", "quantization": {"dtype": "uint8", "min": -0.44394909529124993, "scale": 0.0031045391279108385, "original_dtype": "float32"}}, {"name": "model/tf.math.add_101/Add/y", "shape": [32], "dtype": "float32", "quantization": {"dtype": "uint8", "min": -0.007802566947123292, "scale": 4.2176037552017794e-05, "original_dtype": "float32"}}, {"name": "model/tf.strided_slice_27/StridedSlice/begin", "shape": [4], "dtype": "int32"}, {"name": "model/tf.strided_slice_27/StridedSlice/end", "shape": [4], "dtype": "int32"}, {"name": "model/tf.strided_slice_27/StridedSlice/strides", "shape": [4], "dtype": "int32"}, {"name": "model/tf.math.reduce_mean_41/Const", "shape": [4], "dtype": "int32"}, {"name": "model/tf.math.reduce_mean_42/Const", "shape": [4], "dtype": "int32"}, {"name": "model/tf.__operators__.add_13/y", "shape": [], "dtype": "float32", "quantization": {"dtype": "uint8", "min": 9.999999747378752e-06, "scale": 1.0, "original_dtype": "float32"}}, {"name": "model/tf.concat_17/concat/axis", "shape": [], "dtype": "int32"}, {"name": "model/tf.concat_18/concat/axis", "shape": [], "dtype": "int32"}, {"name": "model/zero_padding2d_30/Pad/paddings", "shape": [4, 2], "dtype": "int32"}, {"name": "model/conv2d_49/Conv2D/ReadVariableOp", "shape": [3, 3, 64, 32], "dtype": "float32", "quantization": {"dtype": "uint8", "min": -0.2726801002726835, "scale": 0.0021641277799419327, "original_dtype": "float32"}}, {"name": "model/tf.math.add_104/Add/y", "shape": [32], "dtype": "float32", "quantization": {"dtype": "uint8", "min": -0.0011354368864832556, "scale": 2.5231930810739012e-05, "original_dtype": "float32"}}, {"name": "model/tf.strided_slice_29/StridedSlice/begin", "shape": [4], "dtype": "int32"}, {"name": "model/tf.strided_slice_29/StridedSlice/end", "shape": [4], "dtype": "int32"}, {"name": "model/tf.strided_slice_29/StridedSlice/strides", "shape": [4], "dtype": "int32"}, {"name": "model/tf.math.reduce_mean_44/Const", "shape": [4], "dtype": "int32"}, {"name": "model/tf.math.reduce_mean_45/Const", "shape": [4], "dtype": "int32"}, {"name": "model/tf.__operators__.add_14/y", "shape": [], "dtype": "float32", "quantization": {"dtype": "uint8", "min": 9.999999747378752e-06, "scale": 1.0, "original_dtype": "float32"}}, {"name": "model/tf.concat_19/concat/axis", "shape": [], "dtype": "int32"}, {"name": "model/lambda_6/resize/size", "shape": [2], "dtype": "int32"}, {"name": "model/tf.concat_20/concat/axis", "shape": [], "dtype": "int32"}, {"name": "model/zero_padding2d_31/Pad/paddings", "shape": [4, 2], "dtype": "int32"}, {"name": "model/conv2d_50/Conv2D/ReadVariableOp", "shape": [3, 3, 35, 16], "dtype": "float32", "quantization": {"dtype": "uint8", "min": -0.7779489987036762, "scale": 0.00612558266695808, "original_dtype": "float32"}}, {"name": "model/tf.math.add_107/Add/y", "shape": [16], "dtype": "float32", "quantization": {"dtype": "uint8", "min": -0.0068471034550491505, "scale": 0.0004890788182177965, "original_dtype": "float32"}}, {"name": "model/tf.strided_slice_31/StridedSlice/begin", "shape": [4], "dtype": "int32"}, {"name": "model/tf.strided_slice_31/StridedSlice/end", "shape": [4], "dtype": "int32"}, {"name": "model/tf.strided_slice_31/StridedSlice/strides", "shape": [4], "dtype": "int32"}, {"name": "model/tf.math.reduce_mean_47/Const", "shape": [4], "dtype": "int32"}, {"name": "model/tf.math.reduce_mean_48/Const", "shape": [4], "dtype": "int32"}, {"name": "model/tf.__operators__.add_15/y", "shape": [], "dtype": "float32", "quantization": {"dtype": "uint8", "min": 9.999999747378752e-06, "scale": 1.0, "original_dtype": "float32"}}, {"name": "model/tf.concat_21/concat/axis", "shape": [], "dtype": "int32"}, {"name": "model/conv2d_51/Conv2D/ReadVariableOp", "shape": [1, 1, 16, 1], "dtype": "float32", "quantization": {"dtype": "uint8", "min": -1.4459699831756891, "scale": 0.011950165150212307, "original_dtype": "float32"}}, {"name": "model/tf.math.add_110/Add/y", "shape": [1], "dtype": "float32", "quantization": {"dtype": "uint8", "min": -0.07539176940917969, "scale": 1.0, "original_dtype": "float32"}}]}]}