{"format": "graph-model", "generatedBy": "2.6.0", "convertedBy": "TensorFlow.js Converter v3.9.0", "signature": {"outputs": {"Identity": {"name": "Identity"}}}, "modelTopology": {"node": [{"name": "model/tf.strided_slice_30/StridedSlice/begin", "op": "Const", "attr": {"dtype": {"type": "DT_INT64"}, "value": {"tensor": {"dtype": "DT_INT64", "tensorShape": {"dim": [{"size": "4"}]}}}}}, {"name": "model/tf.strided_slice_30/StridedSlice/end", "op": "Const", "attr": {"dtype": {"type": "DT_INT64"}, "value": {"tensor": {"dtype": "DT_INT64", "tensorShape": {"dim": [{"size": "4"}]}}}}}, {"name": "model/tf.strided_slice_30/StridedSlice/strides", "op": "Const", "attr": {"value": {"tensor": {"dtype": "DT_INT64", "tensorShape": {"dim": [{"size": "4"}]}}}, "dtype": {"type": "DT_INT64"}}}, {"name": "model/tf.math.multiply_32/Mul/y", "op": "Const", "attr": {"value": {"tensor": {"dtype": "DT_FLOAT", "tensorShape": {"dim": [{"size": "1"}, {"size": "1"}, {"size": "1"}, {"size": "8"}]}}}, "dtype": {"type": "DT_FLOAT"}}}, {"name": "model/tf.math.add_108/Add/y", "op": "Const", "attr": {"dtype": {"type": "DT_FLOAT"}, "value": {"tensor": {"dtype": "DT_FLOAT", "tensorShape": {"dim": [{"size": "8"}]}}}}}, {"name": "model/tf.math.reduce_mean_46/Const", "op": "Const", "attr": {"value": {"tensor": {"dtype": "DT_INT32", "tensorShape": {"dim": [{"size": "4"}]}}}, "dtype": {"type": "DT_INT32"}}}, {"name": "model/tf.strided_slice_28/StridedSlice/begin", "op": "Const", "attr": {"dtype": {"type": "DT_INT64"}, "value": {"tensor": {"dtype": "DT_INT64", "tensorShape": {"dim": [{"size": "4"}]}}}}}, {"name": "model/tf.strided_slice_28/StridedSlice/end", "op": "Const", "attr": {"value": {"tensor": {"dtype": "DT_INT64", "tensorShape": {"dim": [{"size": "4"}]}}}, "dtype": {"type": "DT_INT64"}}}, {"name": "model/tf.strided_slice_28/StridedSlice/strides", "op": "Const", "attr": {"value": {"tensor": {"dtype": "DT_INT64", "tensorShape": {"dim": [{"size": "4"}]}}}, "dtype": {"type": "DT_INT64"}}}, {"name": "model/tf.math.multiply_30/Mul/y", "op": "Const", "attr": {"value": {"tensor": {"dtype": "DT_FLOAT", "tensorShape": {"dim": [{"size": "1"}, {"size": "1"}, {"size": "1"}, {"size": "16"}]}}}, "dtype": {"type": "DT_FLOAT"}}}, {"name": "model/tf.math.add_105/Add/y", "op": "Const", "attr": {"value": {"tensor": {"dtype": "DT_FLOAT", "tensorShape": {"dim": [{"size": "16"}]}}}, "dtype": {"type": "DT_FLOAT"}}}, {"name": "model/tf.math.reduce_mean_43/Const", "op": "Const", "attr": {"value": {"tensor": {"dtype": "DT_INT32", "tensorShape": {"dim": [{"size": "4"}]}}}, "dtype": {"type": "DT_INT32"}}}, {"name": "model/tf.strided_slice_4/StridedSlice/begin", "op": "Const", "attr": {"value": {"tensor": {"dtype": "DT_INT64", "tensorShape": {"dim": [{"size": "4"}]}}}, "dtype": {"type": "DT_INT64"}}}, {"name": "model/tf.strided_slice_4/StridedSlice/end", "op": "Const", "attr": {"dtype": {"type": "DT_INT64"}, "value": {"tensor": {"dtype": "DT_INT64", "tensorShape": {"dim": [{"size": "4"}]}}}}}, {"name": "model/tf.strided_slice_4/StridedSlice/strides", "op": "Const", "attr": {"dtype": {"type": "DT_INT64"}, "value": {"tensor": {"dtype": "DT_INT64", "tensorShape": {"dim": [{"size": "4"}]}}}}}, {"name": "model/tf.math.multiply_6/Mul/y", "op": "Const", "attr": {"value": {"tensor": {"dtype": "DT_FLOAT", "tensorShape": {"dim": [{"size": "1"}, {"size": "1"}, {"size": "1"}, {"size": "16"}]}}}, "dtype": {"type": "DT_FLOAT"}}}, {"name": "model/tf.math.add_69/Add/y", "op": "Const", "attr": {"dtype": {"type": "DT_FLOAT"}, "value": {"tensor": {"dtype": "DT_FLOAT", "tensorShape": {"dim": [{"size": "16"}]}}}}}, {"name": "model/tf.math.reduce_mean_7/Const", "op": "Const", "attr": {"dtype": {"type": "DT_INT32"}, "value": {"tensor": {"dtype": "DT_INT32", "tensorShape": {"dim": [{"size": "4"}]}}}}}, {"name": "model/lambda_2/resize/size", "op": "Const", "attr": {"value": {"tensor": {"dtype": "DT_INT32", "tensorShape": {"dim": [{"size": "2"}]}}}, "dtype": {"type": "DT_INT32"}}}, {"name": "model/zero_padding2d_20/Pad/paddings", "op": "Const", "attr": {"dtype": {"type": "DT_INT32"}, "value": {"tensor": {"dtype": "DT_INT32", "tensorShape": {"dim": [{"size": "4"}, {"size": "2"}]}}}}}, {"name": "model/conv2d_37/Conv2D/ReadVariableOp", "op": "Const", "attr": {"value": {"tensor": {"dtype": "DT_FLOAT", "tensorShape": {"dim": [{"size": "5"}, {"size": "5"}, {"size": "32"}, {"size": "32"}]}}}, "dtype": {"type": "DT_FLOAT"}}}, {"name": "model/tf.math.add_68/Add/y", "op": "Const", "attr": {"value": {"tensor": {"dtype": "DT_FLOAT", "tensorShape": {"dim": [{"size": "32"}]}}}, "dtype": {"type": "DT_FLOAT"}}}, {"name": "model/tf.strided_slice_5/StridedSlice/begin", "op": "Const", "attr": {"value": {"tensor": {"dtype": "DT_INT64", "tensorShape": {"dim": [{"size": "4"}]}}}, "dtype": {"type": "DT_INT64"}}}, {"name": "model/tf.strided_slice_5/StridedSlice/end", "op": "Const", "attr": {"value": {"tensor": {"dtype": "DT_INT64", "tensorShape": {"dim": [{"size": "4"}]}}}, "dtype": {"type": "DT_INT64"}}}, {"name": "model/tf.strided_slice_5/StridedSlice/strides", "op": "Const", "attr": {"dtype": {"type": "DT_INT64"}, "value": {"tensor": {"dtype": "DT_INT64", "tensorShape": {"dim": [{"size": "4"}]}}}}}, {"name": "model/tf.math.reduce_mean_8/Const", "op": "Const", "attr": {"dtype": {"type": "DT_INT32"}, "value": {"tensor": {"dtype": "DT_INT32", "tensorShape": {"dim": [{"size": "4"}]}}}}}, {"name": "model/tf.math.reduce_mean_9/Const", "op": "Const", "attr": {"value": {"tensor": {"dtype": "DT_INT32", "tensorShape": {"dim": [{"size": "4"}]}}}, "dtype": {"type": "DT_INT32"}}}, {"name": "model/tf.__operators__.add_2/y", "op": "Const", "attr": {"dtype": {"type": "DT_FLOAT"}, "value": {"tensor": {"dtype": "DT_FLOAT", "tensorShape": {}}}}}, {"name": "model/tf.concat_2/concat/axis", "op": "Const", "attr": {"dtype": {"type": "DT_INT32"}, "value": {"tensor": {"dtype": "DT_INT32", "tensorShape": {}}}}}, {"name": "model/lambda_3/resize/size", "op": "Const", "attr": {"value": {"tensor": {"dtype": "DT_INT32", "tensorShape": {"dim": [{"size": "2"}]}}}, "dtype": {"type": "DT_INT32"}}}, {"name": "model/tf.strided_slice_26/StridedSlice/begin", "op": "Const", "attr": {"dtype": {"type": "DT_INT64"}, "value": {"tensor": {"dtype": "DT_INT64", "tensorShape": {"dim": [{"size": "4"}]}}}}}, {"name": "model/tf.strided_slice_26/StridedSlice/end", "op": "Const", "attr": {"value": {"tensor": {"dtype": "DT_INT64", "tensorShape": {"dim": [{"size": "4"}]}}}, "dtype": {"type": "DT_INT64"}}}, {"name": "model/tf.strided_slice_26/StridedSlice/strides", "op": "Const", "attr": {"value": {"tensor": {"dtype": "DT_INT64", "tensorShape": {"dim": [{"size": "4"}]}}}, "dtype": {"type": "DT_INT64"}}}, {"name": "model/tf.math.multiply_28/Mul/y", "op": "Const", "attr": {"value": {"tensor": {"dtype": "DT_FLOAT", "tensorShape": {"dim": [{"size": "1"}, {"size": "1"}, {"size": "1"}, {"size": "16"}]}}}, "dtype": {"type": "DT_FLOAT"}}}, {"name": "model/tf.math.add_102/Add/y", "op": "Const", "attr": {"dtype": {"type": "DT_FLOAT"}, "value": {"tensor": {"dtype": "DT_FLOAT", "tensorShape": {"dim": [{"size": "16"}]}}}}}, {"name": "model/tf.math.reduce_mean_40/Const", "op": "Const", "attr": {"dtype": {"type": "DT_INT32"}, "value": {"tensor": {"dtype": "DT_INT32", "tensorShape": {"dim": [{"size": "4"}]}}}}}, {"name": "model/tf.strided_slice_24/StridedSlice/begin", "op": "Const", "attr": {"value": {"tensor": {"dtype": "DT_INT64", "tensorShape": {"dim": [{"size": "4"}]}}}, "dtype": {"type": "DT_INT64"}}}, {"name": "model/tf.strided_slice_24/StridedSlice/end", "op": "Const", "attr": {"dtype": {"type": "DT_INT64"}, "value": {"tensor": {"dtype": "DT_INT64", "tensorShape": {"dim": [{"size": "4"}]}}}}}, {"name": "model/tf.strided_slice_24/StridedSlice/strides", "op": "Const", "attr": {"dtype": {"type": "DT_INT64"}, "value": {"tensor": {"dtype": "DT_INT64", "tensorShape": {"dim": [{"size": "4"}]}}}}}, {"name": "model/tf.math.multiply_26/Mul/y", "op": "Const", "attr": {"value": {"tensor": {"dtype": "DT_FLOAT", "tensorShape": {"dim": [{"size": "1"}, {"size": "1"}, {"size": "1"}, {"size": "16"}]}}}, "dtype": {"type": "DT_FLOAT"}}}, {"name": "model/tf.math.add_99/Add/y", "op": "Const", "attr": {"dtype": {"type": "DT_FLOAT"}, "value": {"tensor": {"dtype": "DT_FLOAT", "tensorShape": {"dim": [{"size": "16"}]}}}}}, {"name": "model/tf.math.reduce_mean_37/Const", "op": "Const", "attr": {"dtype": {"type": "DT_INT32"}, "value": {"tensor": {"dtype": "DT_INT32", "tensorShape": {"dim": [{"size": "4"}]}}}}}, {"name": "model/tf.strided_slice_22/StridedSlice/begin", "op": "Const", "attr": {"dtype": {"type": "DT_INT64"}, "value": {"tensor": {"dtype": "DT_INT64", "tensorShape": {"dim": [{"size": "4"}]}}}}}, {"name": "model/tf.strided_slice_22/StridedSlice/end", "op": "Const", "attr": {"value": {"tensor": {"dtype": "DT_INT64", "tensorShape": {"dim": [{"size": "4"}]}}}, "dtype": {"type": "DT_INT64"}}}, {"name": "model/tf.strided_slice_22/StridedSlice/strides", "op": "Const", "attr": {"value": {"tensor": {"dtype": "DT_INT64", "tensorShape": {"dim": [{"size": "4"}]}}}, "dtype": {"type": "DT_INT64"}}}, {"name": "model/tf.math.multiply_24/Mul/y", "op": "Const", "attr": {"value": {"tensor": {"dtype": "DT_FLOAT", "tensorShape": {"dim": [{"size": "1"}, {"size": "1"}, {"size": "1"}, {"size": "16"}]}}}, "dtype": {"type": "DT_FLOAT"}}}, {"name": "model/tf.math.add_96/Add/y", "op": "Const", "attr": {"dtype": {"type": "DT_FLOAT"}, "value": {"tensor": {"dtype": "DT_FLOAT", "tensorShape": {"dim": [{"size": "16"}]}}}}}, {"name": "model/tf.math.reduce_mean_34/Const", "op": "Const", "attr": {"dtype": {"type": "DT_INT32"}, "value": {"tensor": {"dtype": "DT_INT32", "tensorShape": {"dim": [{"size": "4"}]}}}}}, {"name": "model/tf.strided_slice_20/StridedSlice/begin", "op": "Const", "attr": {"value": {"tensor": {"dtype": "DT_INT64", "tensorShape": {"dim": [{"size": "4"}]}}}, "dtype": {"type": "DT_INT64"}}}, {"name": "model/tf.strided_slice_20/StridedSlice/end", "op": "Const", "attr": {"value": {"tensor": {"dtype": "DT_INT64", "tensorShape": {"dim": [{"size": "4"}]}}}, "dtype": {"type": "DT_INT64"}}}, {"name": "model/tf.strided_slice_20/StridedSlice/strides", "op": "Const", "attr": {"dtype": {"type": "DT_INT64"}, "value": {"tensor": {"dtype": "DT_INT64", "tensorShape": {"dim": [{"size": "4"}]}}}}}, {"name": "model/tf.math.multiply_22/Mul/y", "op": "Const", "attr": {"value": {"tensor": {"dtype": "DT_FLOAT", "tensorShape": {"dim": [{"size": "1"}, {"size": "1"}, {"size": "1"}, {"size": "32"}]}}}, "dtype": {"type": "DT_FLOAT"}}}, {"name": "model/tf.math.add_93/Add/y", "op": "Const", "attr": {"dtype": {"type": "DT_FLOAT"}, "value": {"tensor": {"dtype": "DT_FLOAT", "tensorShape": {"dim": [{"size": "32"}]}}}}}, {"name": "model/tf.math.reduce_mean_31/Const", "op": "Const", "attr": {"dtype": {"type": "DT_INT32"}, "value": {"tensor": {"dtype": "DT_INT32", "tensorShape": {"dim": [{"size": "4"}]}}}}}, {"name": "model/tf.strided_slice_18/StridedSlice/begin", "op": "Const", "attr": {"dtype": {"type": "DT_INT64"}, "value": {"tensor": {"dtype": "DT_INT64", "tensorShape": {"dim": [{"size": "4"}]}}}}}, {"name": "model/tf.strided_slice_18/StridedSlice/end", "op": "Const", "attr": {"dtype": {"type": "DT_INT64"}, "value": {"tensor": {"dtype": "DT_INT64", "tensorShape": {"dim": [{"size": "4"}]}}}}}, {"name": "model/tf.strided_slice_18/StridedSlice/strides", "op": "Const", "attr": {"dtype": {"type": "DT_INT64"}, "value": {"tensor": {"dtype": "DT_INT64", "tensorShape": {"dim": [{"size": "4"}]}}}}}, {"name": "model/tf.math.multiply_20/Mul/y", "op": "Const", "attr": {"value": {"tensor": {"dtype": "DT_FLOAT", "tensorShape": {"dim": [{"size": "1"}, {"size": "1"}, {"size": "1"}, {"size": "16"}]}}}, "dtype": {"type": "DT_FLOAT"}}}, {"name": "model/tf.math.add_90/Add/y", "op": "Const", "attr": {"value": {"tensor": {"dtype": "DT_FLOAT", "tensorShape": {"dim": [{"size": "16"}]}}}, "dtype": {"type": "DT_FLOAT"}}}, {"name": "model/tf.math.reduce_mean_28/Const", "op": "Const", "attr": {"value": {"tensor": {"dtype": "DT_INT32", "tensorShape": {"dim": [{"size": "4"}]}}}, "dtype": {"type": "DT_INT32"}}}, {"name": "model/tf.strided_slice_16/StridedSlice/begin", "op": "Const", "attr": {"dtype": {"type": "DT_INT64"}, "value": {"tensor": {"dtype": "DT_INT64", "tensorShape": {"dim": [{"size": "4"}]}}}}}, {"name": "model/tf.strided_slice_16/StridedSlice/end", "op": "Const", "attr": {"dtype": {"type": "DT_INT64"}, "value": {"tensor": {"dtype": "DT_INT64", "tensorShape": {"dim": [{"size": "4"}]}}}}}, {"name": "model/tf.strided_slice_16/StridedSlice/strides", "op": "Const", "attr": {"value": {"tensor": {"dtype": "DT_INT64", "tensorShape": {"dim": [{"size": "4"}]}}}, "dtype": {"type": "DT_INT64"}}}, {"name": "model/tf.math.multiply_18/Mul/y", "op": "Const", "attr": {"value": {"tensor": {"dtype": "DT_FLOAT", "tensorShape": {"dim": [{"size": "1"}, {"size": "1"}, {"size": "1"}, {"size": "32"}]}}}, "dtype": {"type": "DT_FLOAT"}}}, {"name": "model/tf.math.add_87/Add/y", "op": "Const", "attr": {"value": {"tensor": {"dtype": "DT_FLOAT", "tensorShape": {"dim": [{"size": "32"}]}}}, "dtype": {"type": "DT_FLOAT"}}}, {"name": "model/tf.math.reduce_mean_25/Const", "op": "Const", "attr": {"dtype": {"type": "DT_INT32"}, "value": {"tensor": {"dtype": "DT_INT32", "tensorShape": {"dim": [{"size": "4"}]}}}}}, {"name": "model/tf.strided_slice_14/StridedSlice/begin", "op": "Const", "attr": {"dtype": {"type": "DT_INT64"}, "value": {"tensor": {"dtype": "DT_INT64", "tensorShape": {"dim": [{"size": "4"}]}}}}}, {"name": "model/tf.strided_slice_14/StridedSlice/end", "op": "Const", "attr": {"dtype": {"type": "DT_INT64"}, "value": {"tensor": {"dtype": "DT_INT64", "tensorShape": {"dim": [{"size": "4"}]}}}}}, {"name": "model/tf.strided_slice_14/StridedSlice/strides", "op": "Const", "attr": {"value": {"tensor": {"dtype": "DT_INT64", "tensorShape": {"dim": [{"size": "4"}]}}}, "dtype": {"type": "DT_INT64"}}}, {"name": "model/tf.math.multiply_16/Mul/y", "op": "Const", "attr": {"dtype": {"type": "DT_FLOAT"}, "value": {"tensor": {"dtype": "DT_FLOAT", "tensorShape": {"dim": [{"size": "1"}, {"size": "1"}, {"size": "1"}, {"size": "32"}]}}}}}, {"name": "model/tf.math.add_84/Add/y", "op": "Const", "attr": {"value": {"tensor": {"dtype": "DT_FLOAT", "tensorShape": {"dim": [{"size": "32"}]}}}, "dtype": {"type": "DT_FLOAT"}}}, {"name": "model/tf.math.reduce_mean_22/Const", "op": "Const", "attr": {"dtype": {"type": "DT_INT32"}, "value": {"tensor": {"dtype": "DT_INT32", "tensorShape": {"dim": [{"size": "4"}]}}}}}, {"name": "model/tf.strided_slice_12/StridedSlice/begin", "op": "Const", "attr": {"dtype": {"type": "DT_INT64"}, "value": {"tensor": {"dtype": "DT_INT64", "tensorShape": {"dim": [{"size": "4"}]}}}}}, {"name": "model/tf.strided_slice_12/StridedSlice/end", "op": "Const", "attr": {"value": {"tensor": {"dtype": "DT_INT64", "tensorShape": {"dim": [{"size": "4"}]}}}, "dtype": {"type": "DT_INT64"}}}, {"name": "model/tf.strided_slice_12/StridedSlice/strides", "op": "Const", "attr": {"dtype": {"type": "DT_INT64"}, "value": {"tensor": {"dtype": "DT_INT64", "tensorShape": {"dim": [{"size": "4"}]}}}}}, {"name": "model/tf.math.multiply_14/Mul/y", "op": "Const", "attr": {"dtype": {"type": "DT_FLOAT"}, "value": {"tensor": {"dtype": "DT_FLOAT", "tensorShape": {"dim": [{"size": "1"}, {"size": "1"}, {"size": "1"}, {"size": "32"}]}}}}}, {"name": "model/tf.math.add_81/Add/y", "op": "Const", "attr": {"value": {"tensor": {"dtype": "DT_FLOAT", "tensorShape": {"dim": [{"size": "32"}]}}}, "dtype": {"type": "DT_FLOAT"}}}, {"name": "model/tf.math.reduce_mean_19/Const", "op": "Const", "attr": {"dtype": {"type": "DT_INT32"}, "value": {"tensor": {"dtype": "DT_INT32", "tensorShape": {"dim": [{"size": "4"}]}}}}}, {"name": "model/tf.strided_slice_8/StridedSlice/begin", "op": "Const", "attr": {"dtype": {"type": "DT_INT64"}, "value": {"tensor": {"dtype": "DT_INT64", "tensorShape": {"dim": [{"size": "4"}]}}}}}, {"name": "model/tf.strided_slice_8/StridedSlice/end", "op": "Const", "attr": {"value": {"tensor": {"dtype": "DT_INT64", "tensorShape": {"dim": [{"size": "4"}]}}}, "dtype": {"type": "DT_INT64"}}}, {"name": "model/tf.strided_slice_8/StridedSlice/strides", "op": "Const", "attr": {"dtype": {"type": "DT_INT64"}, "value": {"tensor": {"dtype": "DT_INT64", "tensorShape": {"dim": [{"size": "4"}]}}}}}, {"name": "model/tf.math.multiply_10/Mul/y", "op": "Const", "attr": {"dtype": {"type": "DT_FLOAT"}, "value": {"tensor": {"dtype": "DT_FLOAT", "tensorShape": {"dim": [{"size": "1"}, {"size": "1"}, {"size": "1"}, {"size": "16"}]}}}}}, {"name": "model/tf.math.add_75/Add/y", "op": "Const", "attr": {"value": {"tensor": {"dtype": "DT_FLOAT", "tensorShape": {"dim": [{"size": "16"}]}}}, "dtype": {"type": "DT_FLOAT"}}}, {"name": "model/tf.math.reduce_mean_13/Const", "op": "Const", "attr": {"dtype": {"type": "DT_INT32"}, "value": {"tensor": {"dtype": "DT_INT32", "tensorShape": {"dim": [{"size": "4"}]}}}}}, {"name": "model/tf.image.resize/resize/size", "op": "Const", "attr": {"value": {"tensor": {"dtype": "DT_INT32", "tensorShape": {"dim": [{"size": "2"}]}}}, "dtype": {"type": "DT_INT32"}}}, {"name": "model/tf.concat_4/concat/axis", "op": "Const", "attr": {"dtype": {"type": "DT_INT32"}, "value": {"tensor": {"dtype": "DT_INT32", "tensorShape": {}}}}}, {"name": "model/zero_padding2d_21/Pad/paddings", "op": "Const", "attr": {"dtype": {"type": "DT_INT32"}, "value": {"tensor": {"dtype": "DT_INT32", "tensorShape": {"dim": [{"size": "4"}, {"size": "2"}]}}}}}, {"name": "model/conv2d_39/Conv2D/ReadVariableOp", "op": "Const", "attr": {"dtype": {"type": "DT_FLOAT"}, "value": {"tensor": {"dtype": "DT_FLOAT", "tensorShape": {"dim": [{"size": "3"}, {"size": "3"}, {"size": "35"}, {"size": "32"}]}}}}}, {"name": "model/tf.math.add_74/Add/y", "op": "Const", "attr": {"value": {"tensor": {"dtype": "DT_FLOAT", "tensorShape": {"dim": [{"size": "32"}]}}}, "dtype": {"type": "DT_FLOAT"}}}, {"name": "model/tf.strided_slice_9/StridedSlice/begin", "op": "Const", "attr": {"value": {"tensor": {"dtype": "DT_INT64", "tensorShape": {"dim": [{"size": "4"}]}}}, "dtype": {"type": "DT_INT64"}}}, {"name": "model/tf.strided_slice_9/StridedSlice/end", "op": "Const", "attr": {"dtype": {"type": "DT_INT64"}, "value": {"tensor": {"dtype": "DT_INT64", "tensorShape": {"dim": [{"size": "4"}]}}}}}, {"name": "model/tf.strided_slice_9/StridedSlice/strides", "op": "Const", "attr": {"dtype": {"type": "DT_INT64"}, "value": {"tensor": {"dtype": "DT_INT64", "tensorShape": {"dim": [{"size": "4"}]}}}}}, {"name": "model/tf.math.reduce_mean_14/Const", "op": "Const", "attr": {"dtype": {"type": "DT_INT32"}, "value": {"tensor": {"dtype": "DT_INT32", "tensorShape": {"dim": [{"size": "4"}]}}}}}, {"name": "model/tf.math.reduce_mean_15/Const", "op": "Const", "attr": {"value": {"tensor": {"dtype": "DT_INT32", "tensorShape": {"dim": [{"size": "4"}]}}}, "dtype": {"type": "DT_INT32"}}}, {"name": "model/tf.__operators__.add_4/y", "op": "Const", "attr": {"dtype": {"type": "DT_FLOAT"}, "value": {"tensor": {"dtype": "DT_FLOAT", "tensorShape": {}}}}}, {"name": "model/tf.strided_slice_10/StridedSlice/begin", "op": "Const", "attr": {"value": {"tensor": {"dtype": "DT_INT64", "tensorShape": {"dim": [{"size": "4"}]}}}, "dtype": {"type": "DT_INT64"}}}, {"name": "model/tf.strided_slice_10/StridedSlice/end", "op": "Const", "attr": {"dtype": {"type": "DT_INT64"}, "value": {"tensor": {"dtype": "DT_INT64", "tensorShape": {"dim": [{"size": "4"}]}}}}}, {"name": "model/tf.strided_slice_10/StridedSlice/strides", "op": "Const", "attr": {"dtype": {"type": "DT_INT64"}, "value": {"tensor": {"dtype": "DT_INT64", "tensorShape": {"dim": [{"size": "4"}]}}}}}, {"name": "model/tf.math.multiply_12/Mul/y", "op": "Const", "attr": {"dtype": {"type": "DT_FLOAT"}, "value": {"tensor": {"dtype": "DT_FLOAT", "tensorShape": {"dim": [{"size": "1"}, {"size": "1"}, {"size": "1"}, {"size": "16"}]}}}}}, {"name": "model/tf.math.add_78/Add/y", "op": "Const", "attr": {"value": {"tensor": {"dtype": "DT_FLOAT", "tensorShape": {"dim": [{"size": "16"}]}}}, "dtype": {"type": "DT_FLOAT"}}}, {"name": "model/tf.math.reduce_mean_16/Const", "op": "Const", "attr": {"value": {"tensor": {"dtype": "DT_INT32", "tensorShape": {"dim": [{"size": "4"}]}}}, "dtype": {"type": "DT_INT32"}}}, {"name": "model/conv2d_40/Conv2D/ReadVariableOp", "op": "Const", "attr": {"dtype": {"type": "DT_FLOAT"}, "value": {"tensor": {"dtype": "DT_FLOAT", "tensorShape": {"dim": [{"size": "1"}, {"size": "1"}, {"size": "24"}, {"size": "32"}]}}}}}, {"name": "model/tf.math.add_77/Add/y", "op": "Const", "attr": {"value": {"tensor": {"dtype": "DT_FLOAT", "tensorShape": {"dim": [{"size": "32"}]}}}, "dtype": {"type": "DT_FLOAT"}}}, {"name": "model/tf.strided_slice_11/StridedSlice/begin", "op": "Const", "attr": {"dtype": {"type": "DT_INT64"}, "value": {"tensor": {"dtype": "DT_INT64", "tensorShape": {"dim": [{"size": "4"}]}}}}}, {"name": "model/tf.strided_slice_11/StridedSlice/end", "op": "Const", "attr": {"value": {"tensor": {"dtype": "DT_INT64", "tensorShape": {"dim": [{"size": "4"}]}}}, "dtype": {"type": "DT_INT64"}}}, {"name": "model/tf.strided_slice_11/StridedSlice/strides", "op": "Const", "attr": {"value": {"tensor": {"dtype": "DT_INT64", "tensorShape": {"dim": [{"size": "4"}]}}}, "dtype": {"type": "DT_INT64"}}}, {"name": "model/tf.math.reduce_mean_17/Const", "op": "Const", "attr": {"dtype": {"type": "DT_INT32"}, "value": {"tensor": {"dtype": "DT_INT32", "tensorShape": {"dim": [{"size": "4"}]}}}}}, {"name": "model/tf.math.reduce_mean_18/Const", "op": "Const", "attr": {"dtype": {"type": "DT_INT32"}, "value": {"tensor": {"dtype": "DT_INT32", "tensorShape": {"dim": [{"size": "4"}]}}}}}, {"name": "model/tf.__operators__.add_5/y", "op": "Const", "attr": {"dtype": {"type": "DT_FLOAT"}, "value": {"tensor": {"dtype": "DT_FLOAT", "tensorShape": {}}}}}, {"name": "model/tf.concat_7/concat/axis", "op": "Const", "attr": {"dtype": {"type": "DT_INT32"}, "value": {"tensor": {"dtype": "DT_INT32", "tensorShape": {}}}}}, {"name": "model/zero_padding2d_22/Pad/paddings", "op": "Const", "attr": {"value": {"tensor": {"dtype": "DT_INT32", "tensorShape": {"dim": [{"size": "4"}, {"size": "2"}]}}}, "dtype": {"type": "DT_INT32"}}}, {"name": "model/conv2d_41/Conv2D/ReadVariableOp", "op": "Const", "attr": {"dtype": {"type": "DT_FLOAT"}, "value": {"tensor": {"dtype": "DT_FLOAT", "tensorShape": {"dim": [{"size": "3"}, {"size": "3"}, {"size": "64"}, {"size": "64"}]}}}}}, {"name": "model/tf.math.add_80/Add/y", "op": "Const", "attr": {"dtype": {"type": "DT_FLOAT"}, "value": {"tensor": {"dtype": "DT_FLOAT", "tensorShape": {"dim": [{"size": "64"}]}}}}}, {"name": "model/tf.strided_slice_13/StridedSlice/begin", "op": "Const", "attr": {"value": {"tensor": {"dtype": "DT_INT64", "tensorShape": {"dim": [{"size": "4"}]}}}, "dtype": {"type": "DT_INT64"}}}, {"name": "model/tf.strided_slice_13/StridedSlice/end", "op": "Const", "attr": {"dtype": {"type": "DT_INT64"}, "value": {"tensor": {"dtype": "DT_INT64", "tensorShape": {"dim": [{"size": "4"}]}}}}}, {"name": "model/tf.strided_slice_13/StridedSlice/strides", "op": "Const", "attr": {"value": {"tensor": {"dtype": "DT_INT64", "tensorShape": {"dim": [{"size": "4"}]}}}, "dtype": {"type": "DT_INT64"}}}, {"name": "model/tf.math.reduce_mean_20/Const", "op": "Const", "attr": {"value": {"tensor": {"dtype": "DT_INT32", "tensorShape": {"dim": [{"size": "4"}]}}}, "dtype": {"type": "DT_INT32"}}}, {"name": "model/tf.math.reduce_mean_21/Const", "op": "Const", "attr": {"dtype": {"type": "DT_INT32"}, "value": {"tensor": {"dtype": "DT_INT32", "tensorShape": {"dim": [{"size": "4"}]}}}}}, {"name": "model/tf.__operators__.add_6/y", "op": "Const", "attr": {"value": {"tensor": {"dtype": "DT_FLOAT", "tensorShape": {}}}, "dtype": {"type": "DT_FLOAT"}}}, {"name": "model/tf.concat_8/concat/axis", "op": "Const", "attr": {"value": {"tensor": {"dtype": "DT_INT32", "tensorShape": {}}}, "dtype": {"type": "DT_INT32"}}}, {"name": "model/tf.strided_slice_2/StridedSlice/begin", "op": "Const", "attr": {"dtype": {"type": "DT_INT64"}, "value": {"tensor": {"dtype": "DT_INT64", "tensorShape": {"dim": [{"size": "4"}]}}}}}, {"name": "model/tf.strided_slice_2/StridedSlice/end", "op": "Const", "attr": {"value": {"tensor": {"dtype": "DT_INT64", "tensorShape": {"dim": [{"size": "4"}]}}}, "dtype": {"type": "DT_INT64"}}}, {"name": "model/tf.strided_slice_2/StridedSlice/strides", "op": "Const", "attr": {"value": {"tensor": {"dtype": "DT_INT64", "tensorShape": {"dim": [{"size": "4"}]}}}, "dtype": {"type": "DT_INT64"}}}, {"name": "model/tf.math.multiply_4/Mul/y", "op": "Const", "attr": {"dtype": {"type": "DT_FLOAT"}, "value": {"tensor": {"dtype": "DT_FLOAT", "tensorShape": {"dim": [{"size": "1"}, {"size": "1"}, {"size": "1"}, {"size": "16"}]}}}}}, {"name": "model/tf.math.add_66/Add/y", "op": "Const", "attr": {"value": {"tensor": {"dtype": "DT_FLOAT", "tensorShape": {"dim": [{"size": "16"}]}}}, "dtype": {"type": "DT_FLOAT"}}}, {"name": "model/tf.math.reduce_mean_4/Const", "op": "Const", "attr": {"value": {"tensor": {"dtype": "DT_INT32", "tensorShape": {"dim": [{"size": "4"}]}}}, "dtype": {"type": "DT_INT32"}}}, {"name": "model/tf.strided_slice/StridedSlice/begin", "op": "Const", "attr": {"dtype": {"type": "DT_INT64"}, "value": {"tensor": {"dtype": "DT_INT64", "tensorShape": {"dim": [{"size": "4"}]}}}}}, {"name": "model/tf.strided_slice/StridedSlice/end", "op": "Const", "attr": {"value": {"tensor": {"dtype": "DT_INT64", "tensorShape": {"dim": [{"size": "4"}]}}}, "dtype": {"type": "DT_INT64"}}}, {"name": "model/tf.strided_slice/StridedSlice/strides", "op": "Const", "attr": {"dtype": {"type": "DT_INT64"}, "value": {"tensor": {"dtype": "DT_INT64", "tensorShape": {"dim": [{"size": "4"}]}}}}}, {"name": "model/tf.math.multiply_2/Mul/y", "op": "Const", "attr": {"dtype": {"type": "DT_FLOAT"}, "value": {"tensor": {"dtype": "DT_FLOAT", "tensorShape": {"dim": [{"size": "1"}, {"size": "1"}, {"size": "1"}, {"size": "48"}]}}}}}, {"name": "model/tf.math.add_63/Add/y", "op": "Const", "attr": {"dtype": {"type": "DT_FLOAT"}, "value": {"tensor": {"dtype": "DT_FLOAT", "tensorShape": {"dim": [{"size": "48"}]}}}}}, {"name": "model/tf.math.reduce_mean_1/Const", "op": "Const", "attr": {"value": {"tensor": {"dtype": "DT_INT32", "tensorShape": {"dim": [{"size": "4"}]}}}, "dtype": {"type": "DT_INT32"}}}, {"name": "model/conv2d_2/Conv2D/ReadVariableOp", "op": "Const", "attr": {"dtype": {"type": "DT_FLOAT"}, "value": {"tensor": {"dtype": "DT_FLOAT", "tensorShape": {"dim": [{"size": "1"}, {"size": "1"}, {"size": "16"}, {"size": "96"}]}}}}}, {"name": "model/tf.math.add_3/Add/y", "op": "Const", "attr": {"dtype": {"type": "DT_FLOAT"}, "value": {"tensor": {"dtype": "DT_FLOAT", "tensorShape": {"dim": [{"size": "96"}]}}}}}, {"name": "model/zero_padding2d_2/Pad/paddings", "op": "Const", "attr": {"dtype": {"type": "DT_INT32"}, "value": {"tensor": {"dtype": "DT_INT32", "tensorShape": {"dim": [{"size": "4"}, {"size": "2"}]}}}}}, {"name": "model/depthwise_conv2d_1/depthwise/ReadVariableOp", "op": "Const", "attr": {"dtype": {"type": "DT_FLOAT"}, "value": {"tensor": {"dtype": "DT_FLOAT", "tensorShape": {"dim": [{"size": "3"}, {"size": "3"}, {"size": "96"}, {"size": "1"}]}}}}}, {"name": "model/tf.math.add_4/Add/y", "op": "Const", "attr": {"value": {"tensor": {"dtype": "DT_FLOAT", "tensorShape": {"dim": [{"size": "96"}]}}}, "dtype": {"type": "DT_FLOAT"}}}, {"name": "model/conv2d_3/Conv2D/ReadVariableOp", "op": "Const", "attr": {"value": {"tensor": {"dtype": "DT_FLOAT", "tensorShape": {"dim": [{"size": "1"}, {"size": "1"}, {"size": "96"}, {"size": "24"}]}}}, "dtype": {"type": "DT_FLOAT"}}}, {"name": "model/tf.math.add_5/Add/y", "op": "Const", "attr": {"value": {"tensor": {"dtype": "DT_FLOAT", "tensorShape": {"dim": [{"size": "24"}]}}}, "dtype": {"type": "DT_FLOAT"}}}, {"name": "model/conv2d_4/Conv2D/ReadVariableOp", "op": "Const", "attr": {"dtype": {"type": "DT_FLOAT"}, "value": {"tensor": {"dtype": "DT_FLOAT", "tensorShape": {"dim": [{"size": "1"}, {"size": "1"}, {"size": "24"}, {"size": "144"}]}}}}}, {"name": "model/tf.math.add_6/Add/y", "op": "Const", "attr": {"dtype": {"type": "DT_FLOAT"}, "value": {"tensor": {"dtype": "DT_FLOAT", "tensorShape": {"dim": [{"size": "144"}]}}}}}, {"name": "model/zero_padding2d_3/Pad/paddings", "op": "Const", "attr": {"dtype": {"type": "DT_INT32"}, "value": {"tensor": {"dtype": "DT_INT32", "tensorShape": {"dim": [{"size": "4"}, {"size": "2"}]}}}}}, {"name": "model/depthwise_conv2d_2/depthwise/ReadVariableOp", "op": "Const", "attr": {"dtype": {"type": "DT_FLOAT"}, "value": {"tensor": {"dtype": "DT_FLOAT", "tensorShape": {"dim": [{"size": "3"}, {"size": "3"}, {"size": "144"}, {"size": "1"}]}}}}}, {"name": "model/tf.math.add_7/Add/y", "op": "Const", "attr": {"dtype": {"type": "DT_FLOAT"}, "value": {"tensor": {"dtype": "DT_FLOAT", "tensorShape": {"dim": [{"size": "144"}]}}}}}, {"name": "model/conv2d_5/Conv2D/ReadVariableOp", "op": "Const", "attr": {"dtype": {"type": "DT_FLOAT"}, "value": {"tensor": {"dtype": "DT_FLOAT", "tensorShape": {"dim": [{"size": "1"}, {"size": "1"}, {"size": "144"}, {"size": "24"}]}}}}}, {"name": "model/tf.math.add_8/Add/y", "op": "Const", "attr": {"value": {"tensor": {"dtype": "DT_FLOAT", "tensorShape": {"dim": [{"size": "24"}]}}}, "dtype": {"type": "DT_FLOAT"}}}, {"name": "model/conv2d_6/Conv2D/ReadVariableOp", "op": "Const", "attr": {"value": {"tensor": {"dtype": "DT_FLOAT", "tensorShape": {"dim": [{"size": "1"}, {"size": "1"}, {"size": "24"}, {"size": "144"}]}}}, "dtype": {"type": "DT_FLOAT"}}}, {"name": "model/tf.math.add_10/Add/y", "op": "Const", "attr": {"value": {"tensor": {"dtype": "DT_FLOAT", "tensorShape": {"dim": [{"size": "144"}]}}}, "dtype": {"type": "DT_FLOAT"}}}, {"name": "model/zero_padding2d_4/Pad/paddings", "op": "Const", "attr": {"value": {"tensor": {"dtype": "DT_INT32", "tensorShape": {"dim": [{"size": "4"}, {"size": "2"}]}}}, "dtype": {"type": "DT_INT32"}}}, {"name": "model/depthwise_conv2d_3/depthwise/ReadVariableOp", "op": "Const", "attr": {"value": {"tensor": {"dtype": "DT_FLOAT", "tensorShape": {"dim": [{"size": "3"}, {"size": "3"}, {"size": "144"}, {"size": "1"}]}}}, "dtype": {"type": "DT_FLOAT"}}}, {"name": "model/tf.math.add_11/Add/y", "op": "Const", "attr": {"value": {"tensor": {"dtype": "DT_FLOAT", "tensorShape": {"dim": [{"size": "144"}]}}}, "dtype": {"type": "DT_FLOAT"}}}, {"name": "model/conv2d_7/Conv2D/ReadVariableOp", "op": "Const", "attr": {"value": {"tensor": {"dtype": "DT_FLOAT", "tensorShape": {"dim": [{"size": "1"}, {"size": "1"}, {"size": "144"}, {"size": "32"}]}}}, "dtype": {"type": "DT_FLOAT"}}}, {"name": "model/tf.math.add_12/Add/y", "op": "Const", "attr": {"dtype": {"type": "DT_FLOAT"}, "value": {"tensor": {"dtype": "DT_FLOAT", "tensorShape": {"dim": [{"size": "32"}]}}}}}, {"name": "model/conv2d_8/Conv2D/ReadVariableOp", "op": "Const", "attr": {"value": {"tensor": {"dtype": "DT_FLOAT", "tensorShape": {"dim": [{"size": "1"}, {"size": "1"}, {"size": "32"}, {"size": "192"}]}}}, "dtype": {"type": "DT_FLOAT"}}}, {"name": "model/tf.math.add_13/Add/y", "op": "Const", "attr": {"dtype": {"type": "DT_FLOAT"}, "value": {"tensor": {"dtype": "DT_FLOAT", "tensorShape": {"dim": [{"size": "192"}]}}}}}, {"name": "model/zero_padding2d_5/Pad/paddings", "op": "Const", "attr": {"dtype": {"type": "DT_INT32"}, "value": {"tensor": {"dtype": "DT_INT32", "tensorShape": {"dim": [{"size": "4"}, {"size": "2"}]}}}}}, {"name": "model/depthwise_conv2d_4/depthwise/ReadVariableOp", "op": "Const", "attr": {"value": {"tensor": {"dtype": "DT_FLOAT", "tensorShape": {"dim": [{"size": "3"}, {"size": "3"}, {"size": "192"}, {"size": "1"}]}}}, "dtype": {"type": "DT_FLOAT"}}}, {"name": "model/tf.math.add_14/Add/y", "op": "Const", "attr": {"value": {"tensor": {"dtype": "DT_FLOAT", "tensorShape": {"dim": [{"size": "192"}]}}}, "dtype": {"type": "DT_FLOAT"}}}, {"name": "model/conv2d_9/Conv2D/ReadVariableOp", "op": "Const", "attr": {"value": {"tensor": {"dtype": "DT_FLOAT", "tensorShape": {"dim": [{"size": "1"}, {"size": "1"}, {"size": "192"}, {"size": "32"}]}}}, "dtype": {"type": "DT_FLOAT"}}}, {"name": "model/tf.math.add_15/Add/y", "op": "Const", "attr": {"value": {"tensor": {"dtype": "DT_FLOAT", "tensorShape": {"dim": [{"size": "32"}]}}}, "dtype": {"type": "DT_FLOAT"}}}, {"name": "model/conv2d_10/Conv2D/ReadVariableOp", "op": "Const", "attr": {"dtype": {"type": "DT_FLOAT"}, "value": {"tensor": {"dtype": "DT_FLOAT", "tensorShape": {"dim": [{"size": "1"}, {"size": "1"}, {"size": "32"}, {"size": "192"}]}}}}}, {"name": "model/tf.math.add_17/Add/y", "op": "Const", "attr": {"dtype": {"type": "DT_FLOAT"}, "value": {"tensor": {"dtype": "DT_FLOAT", "tensorShape": {"dim": [{"size": "192"}]}}}}}, {"name": "model/zero_padding2d_6/Pad/paddings", "op": "Const", "attr": {"dtype": {"type": "DT_INT32"}, "value": {"tensor": {"dtype": "DT_INT32", "tensorShape": {"dim": [{"size": "4"}, {"size": "2"}]}}}}}, {"name": "model/depthwise_conv2d_5/depthwise/ReadVariableOp", "op": "Const", "attr": {"value": {"tensor": {"dtype": "DT_FLOAT", "tensorShape": {"dim": [{"size": "3"}, {"size": "3"}, {"size": "192"}, {"size": "1"}]}}}, "dtype": {"type": "DT_FLOAT"}}}, {"name": "model/tf.math.add_18/Add/y", "op": "Const", "attr": {"value": {"tensor": {"dtype": "DT_FLOAT", "tensorShape": {"dim": [{"size": "192"}]}}}, "dtype": {"type": "DT_FLOAT"}}}, {"name": "model/conv2d_11/Conv2D/ReadVariableOp", "op": "Const", "attr": {"value": {"tensor": {"dtype": "DT_FLOAT", "tensorShape": {"dim": [{"size": "1"}, {"size": "1"}, {"size": "192"}, {"size": "32"}]}}}, "dtype": {"type": "DT_FLOAT"}}}, {"name": "model/tf.math.add_19/Add/y", "op": "Const", "attr": {"dtype": {"type": "DT_FLOAT"}, "value": {"tensor": {"dtype": "DT_FLOAT", "tensorShape": {"dim": [{"size": "32"}]}}}}}, {"name": "model/conv2d_12/Conv2D/ReadVariableOp", "op": "Const", "attr": {"dtype": {"type": "DT_FLOAT"}, "value": {"tensor": {"dtype": "DT_FLOAT", "tensorShape": {"dim": [{"size": "1"}, {"size": "1"}, {"size": "32"}, {"size": "192"}]}}}}}, {"name": "model/tf.math.add_21/Add/y", "op": "Const", "attr": {"value": {"tensor": {"dtype": "DT_FLOAT", "tensorShape": {"dim": [{"size": "192"}]}}}, "dtype": {"type": "DT_FLOAT"}}}, {"name": "model/zero_padding2d_7/Pad/paddings", "op": "Const", "attr": {"dtype": {"type": "DT_INT32"}, "value": {"tensor": {"dtype": "DT_INT32", "tensorShape": {"dim": [{"size": "4"}, {"size": "2"}]}}}}}, {"name": "model/depthwise_conv2d_6/depthwise/ReadVariableOp", "op": "Const", "attr": {"value": {"tensor": {"dtype": "DT_FLOAT", "tensorShape": {"dim": [{"size": "3"}, {"size": "3"}, {"size": "192"}, {"size": "1"}]}}}, "dtype": {"type": "DT_FLOAT"}}}, {"name": "model/tf.math.add_22/Add/y", "op": "Const", "attr": {"dtype": {"type": "DT_FLOAT"}, "value": {"tensor": {"dtype": "DT_FLOAT", "tensorShape": {"dim": [{"size": "192"}]}}}}}, {"name": "model/conv2d_13/Conv2D/ReadVariableOp", "op": "Const", "attr": {"value": {"tensor": {"dtype": "DT_FLOAT", "tensorShape": {"dim": [{"size": "1"}, {"size": "1"}, {"size": "192"}, {"size": "64"}]}}}, "dtype": {"type": "DT_FLOAT"}}}, {"name": "model/tf.math.add_23/Add/y", "op": "Const", "attr": {"value": {"tensor": {"dtype": "DT_FLOAT", "tensorShape": {"dim": [{"size": "64"}]}}}, "dtype": {"type": "DT_FLOAT"}}}, {"name": "model/conv2d_14/Conv2D/ReadVariableOp", "op": "Const", "attr": {"value": {"tensor": {"dtype": "DT_FLOAT", "tensorShape": {"dim": [{"size": "1"}, {"size": "1"}, {"size": "64"}, {"size": "384"}]}}}, "dtype": {"type": "DT_FLOAT"}}}, {"name": "model/tf.math.add_24/Add/y", "op": "Const", "attr": {"dtype": {"type": "DT_FLOAT"}, "value": {"tensor": {"dtype": "DT_FLOAT", "tensorShape": {"dim": [{"size": "384"}]}}}}}, {"name": "model/zero_padding2d_8/Pad/paddings", "op": "Const", "attr": {"dtype": {"type": "DT_INT32"}, "value": {"tensor": {"dtype": "DT_INT32", "tensorShape": {"dim": [{"size": "4"}, {"size": "2"}]}}}}}, {"name": "model/depthwise_conv2d_7/depthwise/ReadVariableOp", "op": "Const", "attr": {"dtype": {"type": "DT_FLOAT"}, "value": {"tensor": {"dtype": "DT_FLOAT", "tensorShape": {"dim": [{"size": "3"}, {"size": "3"}, {"size": "384"}, {"size": "1"}]}}}}}, {"name": "model/tf.math.add_25/Add/y", "op": "Const", "attr": {"dtype": {"type": "DT_FLOAT"}, "value": {"tensor": {"dtype": "DT_FLOAT", "tensorShape": {"dim": [{"size": "384"}]}}}}}, {"name": "model/conv2d_15/Conv2D/ReadVariableOp", "op": "Const", "attr": {"dtype": {"type": "DT_FLOAT"}, "value": {"tensor": {"dtype": "DT_FLOAT", "tensorShape": {"dim": [{"size": "1"}, {"size": "1"}, {"size": "384"}, {"size": "64"}]}}}}}, {"name": "model/tf.math.add_26/Add/y", "op": "Const", "attr": {"value": {"tensor": {"dtype": "DT_FLOAT", "tensorShape": {"dim": [{"size": "64"}]}}}, "dtype": {"type": "DT_FLOAT"}}}, {"name": "model/conv2d_16/Conv2D/ReadVariableOp", "op": "Const", "attr": {"value": {"tensor": {"dtype": "DT_FLOAT", "tensorShape": {"dim": [{"size": "1"}, {"size": "1"}, {"size": "64"}, {"size": "384"}]}}}, "dtype": {"type": "DT_FLOAT"}}}, {"name": "model/tf.math.add_28/Add/y", "op": "Const", "attr": {"value": {"tensor": {"dtype": "DT_FLOAT", "tensorShape": {"dim": [{"size": "384"}]}}}, "dtype": {"type": "DT_FLOAT"}}}, {"name": "model/zero_padding2d_9/Pad/paddings", "op": "Const", "attr": {"dtype": {"type": "DT_INT32"}, "value": {"tensor": {"dtype": "DT_INT32", "tensorShape": {"dim": [{"size": "4"}, {"size": "2"}]}}}}}, {"name": "model/depthwise_conv2d_8/depthwise/ReadVariableOp", "op": "Const", "attr": {"value": {"tensor": {"dtype": "DT_FLOAT", "tensorShape": {"dim": [{"size": "3"}, {"size": "3"}, {"size": "384"}, {"size": "1"}]}}}, "dtype": {"type": "DT_FLOAT"}}}, {"name": "model/tf.math.add_29/Add/y", "op": "Const", "attr": {"value": {"tensor": {"dtype": "DT_FLOAT", "tensorShape": {"dim": [{"size": "384"}]}}}, "dtype": {"type": "DT_FLOAT"}}}, {"name": "model/conv2d_17/Conv2D/ReadVariableOp", "op": "Const", "attr": {"dtype": {"type": "DT_FLOAT"}, "value": {"tensor": {"dtype": "DT_FLOAT", "tensorShape": {"dim": [{"size": "1"}, {"size": "1"}, {"size": "384"}, {"size": "64"}]}}}}}, {"name": "model/tf.math.add_30/Add/y", "op": "Const", "attr": {"dtype": {"type": "DT_FLOAT"}, "value": {"tensor": {"dtype": "DT_FLOAT", "tensorShape": {"dim": [{"size": "64"}]}}}}}, {"name": "model/conv2d_18/Conv2D/ReadVariableOp", "op": "Const", "attr": {"value": {"tensor": {"dtype": "DT_FLOAT", "tensorShape": {"dim": [{"size": "1"}, {"size": "1"}, {"size": "64"}, {"size": "384"}]}}}, "dtype": {"type": "DT_FLOAT"}}}, {"name": "model/tf.math.add_32/Add/y", "op": "Const", "attr": {"dtype": {"type": "DT_FLOAT"}, "value": {"tensor": {"dtype": "DT_FLOAT", "tensorShape": {"dim": [{"size": "384"}]}}}}}, {"name": "model/zero_padding2d_10/Pad/paddings", "op": "Const", "attr": {"dtype": {"type": "DT_INT32"}, "value": {"tensor": {"dtype": "DT_INT32", "tensorShape": {"dim": [{"size": "4"}, {"size": "2"}]}}}}}, {"name": "model/depthwise_conv2d_9/depthwise/ReadVariableOp", "op": "Const", "attr": {"value": {"tensor": {"dtype": "DT_FLOAT", "tensorShape": {"dim": [{"size": "3"}, {"size": "3"}, {"size": "384"}, {"size": "1"}]}}}, "dtype": {"type": "DT_FLOAT"}}}, {"name": "model/tf.math.add_33/Add/y", "op": "Const", "attr": {"value": {"tensor": {"dtype": "DT_FLOAT", "tensorShape": {"dim": [{"size": "384"}]}}}, "dtype": {"type": "DT_FLOAT"}}}, {"name": "model/conv2d_19/Conv2D/ReadVariableOp", "op": "Const", "attr": {"value": {"tensor": {"dtype": "DT_FLOAT", "tensorShape": {"dim": [{"size": "1"}, {"size": "1"}, {"size": "384"}, {"size": "64"}]}}}, "dtype": {"type": "DT_FLOAT"}}}, {"name": "model/tf.math.add_34/Add/y", "op": "Const", "attr": {"value": {"tensor": {"dtype": "DT_FLOAT", "tensorShape": {"dim": [{"size": "64"}]}}}, "dtype": {"type": "DT_FLOAT"}}}, {"name": "model/conv2d_20/Conv2D/ReadVariableOp", "op": "Const", "attr": {"dtype": {"type": "DT_FLOAT"}, "value": {"tensor": {"dtype": "DT_FLOAT", "tensorShape": {"dim": [{"size": "1"}, {"size": "1"}, {"size": "64"}, {"size": "384"}]}}}}}, {"name": "model/tf.math.add_36/Add/y", "op": "Const", "attr": {"dtype": {"type": "DT_FLOAT"}, "value": {"tensor": {"dtype": "DT_FLOAT", "tensorShape": {"dim": [{"size": "384"}]}}}}}, {"name": "model/zero_padding2d_11/Pad/paddings", "op": "Const", "attr": {"value": {"tensor": {"dtype": "DT_INT32", "tensorShape": {"dim": [{"size": "4"}, {"size": "2"}]}}}, "dtype": {"type": "DT_INT32"}}}, {"name": "model/depthwise_conv2d_10/depthwise/ReadVariableOp", "op": "Const", "attr": {"value": {"tensor": {"dtype": "DT_FLOAT", "tensorShape": {"dim": [{"size": "3"}, {"size": "3"}, {"size": "384"}, {"size": "1"}]}}}, "dtype": {"type": "DT_FLOAT"}}}, {"name": "model/tf.math.add_37/Add/y", "op": "Const", "attr": {"value": {"tensor": {"dtype": "DT_FLOAT", "tensorShape": {"dim": [{"size": "384"}]}}}, "dtype": {"type": "DT_FLOAT"}}}, {"name": "model/conv2d_21/Conv2D/ReadVariableOp", "op": "Const", "attr": {"dtype": {"type": "DT_FLOAT"}, "value": {"tensor": {"dtype": "DT_FLOAT", "tensorShape": {"dim": [{"size": "1"}, {"size": "1"}, {"size": "384"}, {"size": "96"}]}}}}}, {"name": "model/tf.math.add_38/Add/y", "op": "Const", "attr": {"dtype": {"type": "DT_FLOAT"}, "value": {"tensor": {"dtype": "DT_FLOAT", "tensorShape": {"dim": [{"size": "96"}]}}}}}, {"name": "model/conv2d_22/Conv2D/ReadVariableOp", "op": "Const", "attr": {"dtype": {"type": "DT_FLOAT"}, "value": {"tensor": {"dtype": "DT_FLOAT", "tensorShape": {"dim": [{"size": "1"}, {"size": "1"}, {"size": "96"}, {"size": "576"}]}}}}}, {"name": "model/tf.math.add_39/Add/y", "op": "Const", "attr": {"dtype": {"type": "DT_FLOAT"}, "value": {"tensor": {"dtype": "DT_FLOAT", "tensorShape": {"dim": [{"size": "576"}]}}}}}, {"name": "model/zero_padding2d_12/Pad/paddings", "op": "Const", "attr": {"dtype": {"type": "DT_INT32"}, "value": {"tensor": {"dtype": "DT_INT32", "tensorShape": {"dim": [{"size": "4"}, {"size": "2"}]}}}}}, {"name": "model/depthwise_conv2d_11/depthwise/ReadVariableOp", "op": "Const", "attr": {"value": {"tensor": {"dtype": "DT_FLOAT", "tensorShape": {"dim": [{"size": "3"}, {"size": "3"}, {"size": "576"}, {"size": "1"}]}}}, "dtype": {"type": "DT_FLOAT"}}}, {"name": "model/tf.math.add_40/Add/y", "op": "Const", "attr": {"value": {"tensor": {"dtype": "DT_FLOAT", "tensorShape": {"dim": [{"size": "576"}]}}}, "dtype": {"type": "DT_FLOAT"}}}, {"name": "model/conv2d_23/Conv2D/ReadVariableOp", "op": "Const", "attr": {"dtype": {"type": "DT_FLOAT"}, "value": {"tensor": {"dtype": "DT_FLOAT", "tensorShape": {"dim": [{"size": "1"}, {"size": "1"}, {"size": "576"}, {"size": "96"}]}}}}}, {"name": "model/tf.math.add_41/Add/y", "op": "Const", "attr": {"dtype": {"type": "DT_FLOAT"}, "value": {"tensor": {"dtype": "DT_FLOAT", "tensorShape": {"dim": [{"size": "96"}]}}}}}, {"name": "model/conv2d_24/Conv2D/ReadVariableOp", "op": "Const", "attr": {"value": {"tensor": {"dtype": "DT_FLOAT", "tensorShape": {"dim": [{"size": "1"}, {"size": "1"}, {"size": "96"}, {"size": "576"}]}}}, "dtype": {"type": "DT_FLOAT"}}}, {"name": "model/tf.math.add_43/Add/y", "op": "Const", "attr": {"dtype": {"type": "DT_FLOAT"}, "value": {"tensor": {"dtype": "DT_FLOAT", "tensorShape": {"dim": [{"size": "576"}]}}}}}, {"name": "model/zero_padding2d_13/Pad/paddings", "op": "Const", "attr": {"dtype": {"type": "DT_INT32"}, "value": {"tensor": {"dtype": "DT_INT32", "tensorShape": {"dim": [{"size": "4"}, {"size": "2"}]}}}}}, {"name": "model/depthwise_conv2d_12/depthwise/ReadVariableOp", "op": "Const", "attr": {"dtype": {"type": "DT_FLOAT"}, "value": {"tensor": {"dtype": "DT_FLOAT", "tensorShape": {"dim": [{"size": "3"}, {"size": "3"}, {"size": "576"}, {"size": "1"}]}}}}}, {"name": "model/tf.math.add_44/Add/y", "op": "Const", "attr": {"value": {"tensor": {"dtype": "DT_FLOAT", "tensorShape": {"dim": [{"size": "576"}]}}}, "dtype": {"type": "DT_FLOAT"}}}, {"name": "model/conv2d_25/Conv2D/ReadVariableOp", "op": "Const", "attr": {"value": {"tensor": {"dtype": "DT_FLOAT", "tensorShape": {"dim": [{"size": "1"}, {"size": "1"}, {"size": "576"}, {"size": "96"}]}}}, "dtype": {"type": "DT_FLOAT"}}}, {"name": "model/tf.math.add_45/Add/y", "op": "Const", "attr": {"dtype": {"type": "DT_FLOAT"}, "value": {"tensor": {"dtype": "DT_FLOAT", "tensorShape": {"dim": [{"size": "96"}]}}}}}, {"name": "model/conv2d_26/Conv2D/ReadVariableOp", "op": "Const", "attr": {"dtype": {"type": "DT_FLOAT"}, "value": {"tensor": {"dtype": "DT_FLOAT", "tensorShape": {"dim": [{"size": "1"}, {"size": "1"}, {"size": "96"}, {"size": "576"}]}}}}}, {"name": "model/tf.math.add_47/Add/y", "op": "Const", "attr": {"dtype": {"type": "DT_FLOAT"}, "value": {"tensor": {"dtype": "DT_FLOAT", "tensorShape": {"dim": [{"size": "576"}]}}}}}, {"name": "model/zero_padding2d_14/Pad/paddings", "op": "Const", "attr": {"dtype": {"type": "DT_INT32"}, "value": {"tensor": {"dtype": "DT_INT32", "tensorShape": {"dim": [{"size": "4"}, {"size": "2"}]}}}}}, {"name": "model/depthwise_conv2d_13/depthwise/ReadVariableOp", "op": "Const", "attr": {"dtype": {"type": "DT_FLOAT"}, "value": {"tensor": {"dtype": "DT_FLOAT", "tensorShape": {"dim": [{"size": "3"}, {"size": "3"}, {"size": "576"}, {"size": "1"}]}}}}}, {"name": "model/tf.math.add_48/Add/y", "op": "Const", "attr": {"value": {"tensor": {"dtype": "DT_FLOAT", "tensorShape": {"dim": [{"size": "576"}]}}}, "dtype": {"type": "DT_FLOAT"}}}, {"name": "model/conv2d_27/Conv2D/ReadVariableOp", "op": "Const", "attr": {"dtype": {"type": "DT_FLOAT"}, "value": {"tensor": {"dtype": "DT_FLOAT", "tensorShape": {"dim": [{"size": "1"}, {"size": "1"}, {"size": "576"}, {"size": "160"}]}}}}}, {"name": "model/tf.math.add_49/Add/y", "op": "Const", "attr": {"value": {"tensor": {"dtype": "DT_FLOAT", "tensorShape": {"dim": [{"size": "160"}]}}}, "dtype": {"type": "DT_FLOAT"}}}, {"name": "model/conv2d_28/Conv2D/ReadVariableOp", "op": "Const", "attr": {"dtype": {"type": "DT_FLOAT"}, "value": {"tensor": {"dtype": "DT_FLOAT", "tensorShape": {"dim": [{"size": "1"}, {"size": "1"}, {"size": "160"}, {"size": "960"}]}}}}}, {"name": "model/tf.math.add_50/Add/y", "op": "Const", "attr": {"dtype": {"type": "DT_FLOAT"}, "value": {"tensor": {"dtype": "DT_FLOAT", "tensorShape": {"dim": [{"size": "960"}]}}}}}, {"name": "model/zero_padding2d_15/Pad/paddings", "op": "Const", "attr": {"dtype": {"type": "DT_INT32"}, "value": {"tensor": {"dtype": "DT_INT32", "tensorShape": {"dim": [{"size": "4"}, {"size": "2"}]}}}}}, {"name": "model/depthwise_conv2d_14/depthwise/ReadVariableOp", "op": "Const", "attr": {"value": {"tensor": {"dtype": "DT_FLOAT", "tensorShape": {"dim": [{"size": "3"}, {"size": "3"}, {"size": "960"}, {"size": "1"}]}}}, "dtype": {"type": "DT_FLOAT"}}}, {"name": "model/tf.math.add_51/Add/y", "op": "Const", "attr": {"value": {"tensor": {"dtype": "DT_FLOAT", "tensorShape": {"dim": [{"size": "960"}]}}}, "dtype": {"type": "DT_FLOAT"}}}, {"name": "model/conv2d_29/Conv2D/ReadVariableOp", "op": "Const", "attr": {"dtype": {"type": "DT_FLOAT"}, "value": {"tensor": {"dtype": "DT_FLOAT", "tensorShape": {"dim": [{"size": "1"}, {"size": "1"}, {"size": "960"}, {"size": "160"}]}}}}}, {"name": "model/tf.math.add_52/Add/y", "op": "Const", "attr": {"value": {"tensor": {"dtype": "DT_FLOAT", "tensorShape": {"dim": [{"size": "160"}]}}}, "dtype": {"type": "DT_FLOAT"}}}, {"name": "model/conv2d_30/Conv2D/ReadVariableOp", "op": "Const", "attr": {"dtype": {"type": "DT_FLOAT"}, "value": {"tensor": {"dtype": "DT_FLOAT", "tensorShape": {"dim": [{"size": "1"}, {"size": "1"}, {"size": "160"}, {"size": "960"}]}}}}}, {"name": "model/tf.math.add_54/Add/y", "op": "Const", "attr": {"value": {"tensor": {"dtype": "DT_FLOAT", "tensorShape": {"dim": [{"size": "960"}]}}}, "dtype": {"type": "DT_FLOAT"}}}, {"name": "model/zero_padding2d_16/Pad/paddings", "op": "Const", "attr": {"dtype": {"type": "DT_INT32"}, "value": {"tensor": {"dtype": "DT_INT32", "tensorShape": {"dim": [{"size": "4"}, {"size": "2"}]}}}}}, {"name": "model/depthwise_conv2d_15/depthwise/ReadVariableOp", "op": "Const", "attr": {"value": {"tensor": {"dtype": "DT_FLOAT", "tensorShape": {"dim": [{"size": "3"}, {"size": "3"}, {"size": "960"}, {"size": "1"}]}}}, "dtype": {"type": "DT_FLOAT"}}}, {"name": "model/tf.math.add_55/Add/y", "op": "Const", "attr": {"dtype": {"type": "DT_FLOAT"}, "value": {"tensor": {"dtype": "DT_FLOAT", "tensorShape": {"dim": [{"size": "960"}]}}}}}, {"name": "model/conv2d_31/Conv2D/ReadVariableOp", "op": "Const", "attr": {"value": {"tensor": {"dtype": "DT_FLOAT", "tensorShape": {"dim": [{"size": "1"}, {"size": "1"}, {"size": "960"}, {"size": "160"}]}}}, "dtype": {"type": "DT_FLOAT"}}}, {"name": "model/tf.math.add_56/Add/y", "op": "Const", "attr": {"dtype": {"type": "DT_FLOAT"}, "value": {"tensor": {"dtype": "DT_FLOAT", "tensorShape": {"dim": [{"size": "160"}]}}}}}, {"name": "model/conv2d_32/Conv2D/ReadVariableOp", "op": "Const", "attr": {"value": {"tensor": {"dtype": "DT_FLOAT", "tensorShape": {"dim": [{"size": "1"}, {"size": "1"}, {"size": "160"}, {"size": "960"}]}}}, "dtype": {"type": "DT_FLOAT"}}}, {"name": "model/tf.math.add_58/Add/y", "op": "Const", "attr": {"value": {"tensor": {"dtype": "DT_FLOAT", "tensorShape": {"dim": [{"size": "960"}]}}}, "dtype": {"type": "DT_FLOAT"}}}, {"name": "model/zero_padding2d_17/Pad/paddings", "op": "Const", "attr": {"value": {"tensor": {"dtype": "DT_INT32", "tensorShape": {"dim": [{"size": "4"}, {"size": "2"}]}}}, "dtype": {"type": "DT_INT32"}}}, {"name": "model/depthwise_conv2d_16/depthwise/ReadVariableOp", "op": "Const", "attr": {"dtype": {"type": "DT_FLOAT"}, "value": {"tensor": {"dtype": "DT_FLOAT", "tensorShape": {"dim": [{"size": "3"}, {"size": "3"}, {"size": "960"}, {"size": "1"}]}}}}}, {"name": "model/tf.math.add_59/Add/y", "op": "Const", "attr": {"value": {"tensor": {"dtype": "DT_FLOAT", "tensorShape": {"dim": [{"size": "960"}]}}}, "dtype": {"type": "DT_FLOAT"}}}, {"name": "model/conv2d_33/Conv2D/ReadVariableOp", "op": "Const", "attr": {"dtype": {"type": "DT_FLOAT"}, "value": {"tensor": {"dtype": "DT_FLOAT", "tensorShape": {"dim": [{"size": "1"}, {"size": "1"}, {"size": "960"}, {"size": "320"}]}}}}}, {"name": "model/tf.math.add_60/Add/y", "op": "Const", "attr": {"value": {"tensor": {"dtype": "DT_FLOAT", "tensorShape": {"dim": [{"size": "320"}]}}}, "dtype": {"type": "DT_FLOAT"}}}, {"name": "model/conv2d_34/Conv2D/ReadVariableOp", "op": "Const", "attr": {"dtype": {"type": "DT_FLOAT"}, "value": {"tensor": {"dtype": "DT_FLOAT", "tensorShape": {"dim": [{"size": "1"}, {"size": "1"}, {"size": "320"}, {"size": "1280"}]}}}}}, {"name": "model/tf.math.add_61/Add/y", "op": "Const", "attr": {"value": {"tensor": {"dtype": "DT_FLOAT", "tensorShape": {"dim": [{"size": "1280"}]}}}, "dtype": {"type": "DT_FLOAT"}}}, {"name": "model/tf.math.reduce_mean/Mean/reduction_indices", "op": "Const", "device": "/job:localhost/replica:0/task:0/device:CPU:0", "attr": {"dtype": {"type": "DT_INT32"}, "value": {"tensor": {"dtype": "DT_INT32", "tensorShape": {"dim": [{"size": "2"}]}}}}}, {"name": "model/tf.reshape/Reshape/shape", "op": "Const", "device": "/job:localhost/replica:0/task:0/device:CPU:0", "attr": {"value": {"tensor": {"dtype": "DT_INT64", "tensorShape": {"dim": [{"size": "2"}]}}}, "dtype": {"type": "DT_INT64"}}}, {"name": "model/tf.linalg.matmul/MatMul/b", "op": "Const", "attr": {"dtype": {"type": "DT_FLOAT"}, "value": {"tensor": {"dtype": "DT_FLOAT", "tensorShape": {"dim": [{"size": "320"}, {"size": "1280"}]}}}}}, {"name": "model/tf.linalg.matmul_1/MatMul/b", "op": "Const", "attr": {"dtype": {"type": "DT_FLOAT"}, "value": {"tensor": {"dtype": "DT_FLOAT", "tensorShape": {"dim": [{"size": "1280"}, {"size": "320"}]}}}}}, {"name": "model/tf.reshape_1/Reshape/shape", "op": "Const", "attr": {"value": {"tensor": {"dtype": "DT_INT32", "tensorShape": {"dim": [{"size": "4"}]}}}, "dtype": {"type": "DT_INT32"}}}, {"name": "ConstantFolding/model/tf.math.multiply/Mul-broadcastto_shape-0", "op": "Const", "attr": {"value": {"tensor": {"dtype": "DT_INT32", "tensorShape": {"dim": [{"size": "4"}]}}}, "dtype": {"type": "DT_INT32"}}}, {"name": "model/lambda/resize/size", "op": "Const", "attr": {"value": {"tensor": {"dtype": "DT_INT32", "tensorShape": {"dim": [{"size": "2"}]}}}, "dtype": {"type": "DT_INT32"}}}, {"name": "model/zero_padding2d_18/Pad/paddings", "op": "Const", "attr": {"dtype": {"type": "DT_INT32"}, "value": {"tensor": {"dtype": "DT_INT32", "tensorShape": {"dim": [{"size": "4"}, {"size": "2"}]}}}}}, {"name": "model/conv2d_35/Conv2D/ReadVariableOp", "op": "Const", "attr": {"dtype": {"type": "DT_FLOAT"}, "value": {"tensor": {"dtype": "DT_FLOAT", "tensorShape": {"dim": [{"size": "5"}, {"size": "5"}, {"size": "1280"}, {"size": "96"}]}}}}}, {"name": "model/tf.math.add_62/Add/y", "op": "Const", "attr": {"dtype": {"type": "DT_FLOAT"}, "value": {"tensor": {"dtype": "DT_FLOAT", "tensorShape": {"dim": [{"size": "96"}]}}}}}, {"name": "model/tf.strided_slice_1/StridedSlice/begin", "op": "Const", "attr": {"value": {"tensor": {"dtype": "DT_INT64", "tensorShape": {"dim": [{"size": "4"}]}}}, "dtype": {"type": "DT_INT64"}}}, {"name": "model/tf.strided_slice_1/StridedSlice/end", "op": "Const", "attr": {"dtype": {"type": "DT_INT64"}, "value": {"tensor": {"dtype": "DT_INT64", "tensorShape": {"dim": [{"size": "4"}]}}}}}, {"name": "model/tf.strided_slice_1/StridedSlice/strides", "op": "Const", "attr": {"value": {"tensor": {"dtype": "DT_INT64", "tensorShape": {"dim": [{"size": "4"}]}}}, "dtype": {"type": "DT_INT64"}}}, {"name": "model/tf.math.reduce_mean_2/Const", "op": "Const", "attr": {"value": {"tensor": {"dtype": "DT_INT32", "tensorShape": {"dim": [{"size": "4"}]}}}, "dtype": {"type": "DT_INT32"}}}, {"name": "model/tf.math.reduce_mean_3/Const", "op": "Const", "attr": {"value": {"tensor": {"dtype": "DT_INT32", "tensorShape": {"dim": [{"size": "4"}]}}}, "dtype": {"type": "DT_INT32"}}}, {"name": "model/tf.__operators__.add/y", "op": "Const", "attr": {"dtype": {"type": "DT_FLOAT"}, "value": {"tensor": {"dtype": "DT_FLOAT", "tensorShape": {}}}}}, {"name": "model/tf.concat/concat/axis", "op": "Const", "attr": {"value": {"tensor": {"dtype": "DT_INT32", "tensorShape": {}}}, "dtype": {"type": "DT_INT32"}}}, {"name": "model/lambda_1/resize/size", "op": "Const", "attr": {"value": {"tensor": {"dtype": "DT_INT32", "tensorShape": {"dim": [{"size": "2"}]}}}, "dtype": {"type": "DT_INT32"}}}, {"name": "model/zero_padding2d_19/Pad/paddings", "op": "Const", "attr": {"dtype": {"type": "DT_INT32"}, "value": {"tensor": {"dtype": "DT_INT32", "tensorShape": {"dim": [{"size": "4"}, {"size": "2"}]}}}}}, {"name": "model/conv2d_36/Conv2D/ReadVariableOp", "op": "Const", "attr": {"value": {"tensor": {"dtype": "DT_FLOAT", "tensorShape": {"dim": [{"size": "5"}, {"size": "5"}, {"size": "96"}, {"size": "32"}]}}}, "dtype": {"type": "DT_FLOAT"}}}, {"name": "model/tf.math.add_65/Add/y", "op": "Const", "attr": {"dtype": {"type": "DT_FLOAT"}, "value": {"tensor": {"dtype": "DT_FLOAT", "tensorShape": {"dim": [{"size": "32"}]}}}}}, {"name": "model/tf.strided_slice_3/StridedSlice/begin", "op": "Const", "attr": {"value": {"tensor": {"dtype": "DT_INT64", "tensorShape": {"dim": [{"size": "4"}]}}}, "dtype": {"type": "DT_INT64"}}}, {"name": "model/tf.strided_slice_3/StridedSlice/end", "op": "Const", "attr": {"dtype": {"type": "DT_INT64"}, "value": {"tensor": {"dtype": "DT_INT64", "tensorShape": {"dim": [{"size": "4"}]}}}}}, {"name": "model/tf.strided_slice_3/StridedSlice/strides", "op": "Const", "attr": {"value": {"tensor": {"dtype": "DT_INT64", "tensorShape": {"dim": [{"size": "4"}]}}}, "dtype": {"type": "DT_INT64"}}}, {"name": "model/tf.math.reduce_mean_5/Const", "op": "Const", "attr": {"value": {"tensor": {"dtype": "DT_INT32", "tensorShape": {"dim": [{"size": "4"}]}}}, "dtype": {"type": "DT_INT32"}}}, {"name": "model/tf.math.reduce_mean_6/Const", "op": "Const", "attr": {"dtype": {"type": "DT_INT32"}, "value": {"tensor": {"dtype": "DT_INT32", "tensorShape": {"dim": [{"size": "4"}]}}}}}, {"name": "model/tf.__operators__.add_1/y", "op": "Const", "attr": {"dtype": {"type": "DT_FLOAT"}, "value": {"tensor": {"dtype": "DT_FLOAT", "tensorShape": {}}}}}, {"name": "model/tf.concat_1/concat/axis", "op": "Const", "attr": {"dtype": {"type": "DT_INT32"}, "value": {"tensor": {"dtype": "DT_INT32", "tensorShape": {}}}}}, {"name": "model/lambda_4/resize/size", "op": "Const", "attr": {"value": {"tensor": {"dtype": "DT_INT32", "tensorShape": {"dim": [{"size": "2"}]}}}, "dtype": {"type": "DT_INT32"}}}, {"name": "model/tf.image.resize_1/resize/size", "op": "Const", "attr": {"dtype": {"type": "DT_INT32"}, "value": {"tensor": {"dtype": "DT_INT32", "tensorShape": {"dim": [{"size": "2"}]}}}}}, {"name": "model/tf.concat_9/concat/axis", "op": "Const", "attr": {"value": {"tensor": {"dtype": "DT_INT32", "tensorShape": {}}}, "dtype": {"type": "DT_INT32"}}}, {"name": "model/zero_padding2d_23/Pad/paddings", "op": "Const", "attr": {"dtype": {"type": "DT_INT32"}, "value": {"tensor": {"dtype": "DT_INT32", "tensorShape": {"dim": [{"size": "4"}, {"size": "2"}]}}}}}, {"name": "model/conv2d_42/Conv2D/ReadVariableOp", "op": "Const", "attr": {"value": {"tensor": {"dtype": "DT_FLOAT", "tensorShape": {"dim": [{"size": "3"}, {"size": "3"}, {"size": "99"}, {"size": "64"}]}}}, "dtype": {"type": "DT_FLOAT"}}}, {"name": "model/tf.math.add_83/Add/y", "op": "Const", "attr": {"dtype": {"type": "DT_FLOAT"}, "value": {"tensor": {"dtype": "DT_FLOAT", "tensorShape": {"dim": [{"size": "64"}]}}}}}, {"name": "model/tf.strided_slice_15/StridedSlice/begin", "op": "Const", "attr": {"dtype": {"type": "DT_INT64"}, "value": {"tensor": {"dtype": "DT_INT64", "tensorShape": {"dim": [{"size": "4"}]}}}}}, {"name": "model/tf.strided_slice_15/StridedSlice/end", "op": "Const", "attr": {"value": {"tensor": {"dtype": "DT_INT64", "tensorShape": {"dim": [{"size": "4"}]}}}, "dtype": {"type": "DT_INT64"}}}, {"name": "model/tf.strided_slice_15/StridedSlice/strides", "op": "Const", "attr": {"dtype": {"type": "DT_INT64"}, "value": {"tensor": {"dtype": "DT_INT64", "tensorShape": {"dim": [{"size": "4"}]}}}}}, {"name": "model/tf.math.reduce_mean_23/Const", "op": "Const", "attr": {"dtype": {"type": "DT_INT32"}, "value": {"tensor": {"dtype": "DT_INT32", "tensorShape": {"dim": [{"size": "4"}]}}}}}, {"name": "model/tf.math.reduce_mean_24/Const", "op": "Const", "attr": {"dtype": {"type": "DT_INT32"}, "value": {"tensor": {"dtype": "DT_INT32", "tensorShape": {"dim": [{"size": "4"}]}}}}}, {"name": "model/tf.__operators__.add_7/y", "op": "Const", "attr": {"dtype": {"type": "DT_FLOAT"}, "value": {"tensor": {"dtype": "DT_FLOAT", "tensorShape": {}}}}}, {"name": "model/tf.concat_10/concat/axis", "op": "Const", "attr": {"dtype": {"type": "DT_INT32"}, "value": {"tensor": {"dtype": "DT_INT32", "tensorShape": {}}}}}, {"name": "model/zero_padding2d_24/Pad/paddings", "op": "Const", "attr": {"value": {"tensor": {"dtype": "DT_INT32", "tensorShape": {"dim": [{"size": "4"}, {"size": "2"}]}}}, "dtype": {"type": "DT_INT32"}}}, {"name": "model/conv2d_43/Conv2D/ReadVariableOp", "op": "Const", "attr": {"dtype": {"type": "DT_FLOAT"}, "value": {"tensor": {"dtype": "DT_FLOAT", "tensorShape": {"dim": [{"size": "3"}, {"size": "3"}, {"size": "64"}, {"size": "64"}]}}}}}, {"name": "model/tf.math.add_86/Add/y", "op": "Const", "attr": {"dtype": {"type": "DT_FLOAT"}, "value": {"tensor": {"dtype": "DT_FLOAT", "tensorShape": {"dim": [{"size": "64"}]}}}}}, {"name": "model/tf.strided_slice_17/StridedSlice/begin", "op": "Const", "attr": {"dtype": {"type": "DT_INT64"}, "value": {"tensor": {"dtype": "DT_INT64", "tensorShape": {"dim": [{"size": "4"}]}}}}}, {"name": "model/tf.strided_slice_17/StridedSlice/end", "op": "Const", "attr": {"dtype": {"type": "DT_INT64"}, "value": {"tensor": {"dtype": "DT_INT64", "tensorShape": {"dim": [{"size": "4"}]}}}}}, {"name": "model/tf.strided_slice_17/StridedSlice/strides", "op": "Const", "attr": {"value": {"tensor": {"dtype": "DT_INT64", "tensorShape": {"dim": [{"size": "4"}]}}}, "dtype": {"type": "DT_INT64"}}}, {"name": "model/tf.math.reduce_mean_26/Const", "op": "Const", "attr": {"dtype": {"type": "DT_INT32"}, "value": {"tensor": {"dtype": "DT_INT32", "tensorShape": {"dim": [{"size": "4"}]}}}}}, {"name": "model/tf.math.reduce_mean_27/Const", "op": "Const", "attr": {"value": {"tensor": {"dtype": "DT_INT32", "tensorShape": {"dim": [{"size": "4"}]}}}, "dtype": {"type": "DT_INT32"}}}, {"name": "model/tf.__operators__.add_8/y", "op": "Const", "attr": {"value": {"tensor": {"dtype": "DT_FLOAT", "tensorShape": {}}}, "dtype": {"type": "DT_FLOAT"}}}, {"name": "model/tf.concat_11/concat/axis", "op": "Const", "attr": {"dtype": {"type": "DT_INT32"}, "value": {"tensor": {"dtype": "DT_INT32", "tensorShape": {}}}}}, {"name": "model/zero_padding2d_25/Pad/paddings", "op": "Const", "attr": {"value": {"tensor": {"dtype": "DT_INT32", "tensorShape": {"dim": [{"size": "4"}, {"size": "2"}]}}}, "dtype": {"type": "DT_INT32"}}}, {"name": "model/conv2d_44/Conv2D/ReadVariableOp", "op": "Const", "attr": {"dtype": {"type": "DT_FLOAT"}, "value": {"tensor": {"dtype": "DT_FLOAT", "tensorShape": {"dim": [{"size": "3"}, {"size": "3"}, {"size": "64"}, {"size": "32"}]}}}}}, {"name": "model/tf.math.add_89/Add/y", "op": "Const", "attr": {"dtype": {"type": "DT_FLOAT"}, "value": {"tensor": {"dtype": "DT_FLOAT", "tensorShape": {"dim": [{"size": "32"}]}}}}}, {"name": "model/tf.strided_slice_19/StridedSlice/begin", "op": "Const", "attr": {"dtype": {"type": "DT_INT64"}, "value": {"tensor": {"dtype": "DT_INT64", "tensorShape": {"dim": [{"size": "4"}]}}}}}, {"name": "model/tf.strided_slice_19/StridedSlice/end", "op": "Const", "attr": {"dtype": {"type": "DT_INT64"}, "value": {"tensor": {"dtype": "DT_INT64", "tensorShape": {"dim": [{"size": "4"}]}}}}}, {"name": "model/tf.strided_slice_19/StridedSlice/strides", "op": "Const", "attr": {"value": {"tensor": {"dtype": "DT_INT64", "tensorShape": {"dim": [{"size": "4"}]}}}, "dtype": {"type": "DT_INT64"}}}, {"name": "model/tf.math.reduce_mean_29/Const", "op": "Const", "attr": {"value": {"tensor": {"dtype": "DT_INT32", "tensorShape": {"dim": [{"size": "4"}]}}}, "dtype": {"type": "DT_INT32"}}}, {"name": "model/tf.math.reduce_mean_30/Const", "op": "Const", "attr": {"dtype": {"type": "DT_INT32"}, "value": {"tensor": {"dtype": "DT_INT32", "tensorShape": {"dim": [{"size": "4"}]}}}}}, {"name": "model/tf.__operators__.add_9/y", "op": "Const", "attr": {"dtype": {"type": "DT_FLOAT"}, "value": {"tensor": {"dtype": "DT_FLOAT", "tensorShape": {}}}}}, {"name": "model/tf.concat_12/concat/axis", "op": "Const", "attr": {"dtype": {"type": "DT_INT32"}, "value": {"tensor": {"dtype": "DT_INT32", "tensorShape": {}}}}}, {"name": "model/lambda_5/resize/size", "op": "Const", "attr": {"dtype": {"type": "DT_INT32"}, "value": {"tensor": {"dtype": "DT_INT32", "tensorShape": {"dim": [{"size": "2"}]}}}}}, {"name": "model/tf.strided_slice_6/StridedSlice/begin", "op": "Const", "attr": {"dtype": {"type": "DT_INT64"}, "value": {"tensor": {"dtype": "DT_INT64", "tensorShape": {"dim": [{"size": "4"}]}}}}}, {"name": "model/tf.strided_slice_6/StridedSlice/end", "op": "Const", "attr": {"dtype": {"type": "DT_INT64"}, "value": {"tensor": {"dtype": "DT_INT64", "tensorShape": {"dim": [{"size": "4"}]}}}}}, {"name": "model/tf.strided_slice_6/StridedSlice/strides", "op": "Const", "attr": {"value": {"tensor": {"dtype": "DT_INT64", "tensorShape": {"dim": [{"size": "4"}]}}}, "dtype": {"type": "DT_INT64"}}}, {"name": "model/tf.math.multiply_8/Mul/y", "op": "Const", "attr": {"dtype": {"type": "DT_FLOAT"}, "value": {"tensor": {"dtype": "DT_FLOAT", "tensorShape": {"dim": [{"size": "1"}, {"size": "1"}, {"size": "1"}, {"size": "16"}]}}}}}, {"name": "model/tf.math.add_72/Add/y", "op": "Const", "attr": {"value": {"tensor": {"dtype": "DT_FLOAT", "tensorShape": {"dim": [{"size": "16"}]}}}, "dtype": {"type": "DT_FLOAT"}}}, {"name": "model/tf.math.reduce_mean_10/Const", "op": "Const", "attr": {"value": {"tensor": {"dtype": "DT_INT32", "tensorShape": {"dim": [{"size": "4"}]}}}, "dtype": {"type": "DT_INT32"}}}, {"name": "model/zero_padding2d/Pad/paddings", "op": "Const", "attr": {"dtype": {"type": "DT_INT32"}, "value": {"tensor": {"dtype": "DT_INT32", "tensorShape": {"dim": [{"size": "4"}, {"size": "2"}]}}}}}, {"name": "model/conv2d/Conv2D/ReadVariableOp", "op": "Const", "attr": {"dtype": {"type": "DT_FLOAT"}, "value": {"tensor": {"dtype": "DT_FLOAT", "tensorShape": {"dim": [{"size": "3"}, {"size": "3"}, {"size": "3"}, {"size": "32"}]}}}}}, {"name": "model/tf.math.add/Add/y", "op": "Const", "attr": {"dtype": {"type": "DT_FLOAT"}, "value": {"tensor": {"dtype": "DT_FLOAT", "tensorShape": {"dim": [{"size": "32"}]}}}}}, {"name": "model/zero_padding2d_1/Pad/paddings", "op": "Const", "attr": {"value": {"tensor": {"dtype": "DT_INT32", "tensorShape": {"dim": [{"size": "4"}, {"size": "2"}]}}}, "dtype": {"type": "DT_INT32"}}}, {"name": "model/depthwise_conv2d/depthwise/ReadVariableOp", "op": "Const", "attr": {"dtype": {"type": "DT_FLOAT"}, "value": {"tensor": {"dtype": "DT_FLOAT", "tensorShape": {"dim": [{"size": "3"}, {"size": "3"}, {"size": "32"}, {"size": "1"}]}}}}}, {"name": "model/tf.math.add_1/Add/y", "op": "Const", "attr": {"value": {"tensor": {"dtype": "DT_FLOAT", "tensorShape": {"dim": [{"size": "32"}]}}}, "dtype": {"type": "DT_FLOAT"}}}, {"name": "model/conv2d_1/Conv2D/ReadVariableOp", "op": "Const", "attr": {"value": {"tensor": {"dtype": "DT_FLOAT", "tensorShape": {"dim": [{"size": "1"}, {"size": "1"}, {"size": "32"}, {"size": "16"}]}}}, "dtype": {"type": "DT_FLOAT"}}}, {"name": "model/tf.math.add_2/Add/y", "op": "Const", "attr": {"dtype": {"type": "DT_FLOAT"}, "value": {"tensor": {"dtype": "DT_FLOAT", "tensorShape": {"dim": [{"size": "16"}]}}}}}, {"name": "model/conv2d_38/Conv2D/ReadVariableOp", "op": "Const", "attr": {"value": {"tensor": {"dtype": "DT_FLOAT", "tensorShape": {"dim": [{"size": "1"}, {"size": "1"}, {"size": "16"}, {"size": "32"}]}}}, "dtype": {"type": "DT_FLOAT"}}}, {"name": "model/tf.math.add_71/Add/y", "op": "Const", "attr": {"value": {"tensor": {"dtype": "DT_FLOAT", "tensorShape": {"dim": [{"size": "32"}]}}}, "dtype": {"type": "DT_FLOAT"}}}, {"name": "model/tf.strided_slice_7/StridedSlice/begin", "op": "Const", "attr": {"dtype": {"type": "DT_INT64"}, "value": {"tensor": {"dtype": "DT_INT64", "tensorShape": {"dim": [{"size": "4"}]}}}}}, {"name": "model/tf.strided_slice_7/StridedSlice/end", "op": "Const", "attr": {"dtype": {"type": "DT_INT64"}, "value": {"tensor": {"dtype": "DT_INT64", "tensorShape": {"dim": [{"size": "4"}]}}}}}, {"name": "model/tf.strided_slice_7/StridedSlice/strides", "op": "Const", "attr": {"value": {"tensor": {"dtype": "DT_INT64", "tensorShape": {"dim": [{"size": "4"}]}}}, "dtype": {"type": "DT_INT64"}}}, {"name": "model/tf.math.reduce_mean_11/Const", "op": "Const", "attr": {"value": {"tensor": {"dtype": "DT_INT32", "tensorShape": {"dim": [{"size": "4"}]}}}, "dtype": {"type": "DT_INT32"}}}, {"name": "model/tf.math.reduce_mean_12/Const", "op": "Const", "attr": {"dtype": {"type": "DT_INT32"}, "value": {"tensor": {"dtype": "DT_INT32", "tensorShape": {"dim": [{"size": "4"}]}}}}}, {"name": "model/tf.__operators__.add_3/y", "op": "Const", "attr": {"value": {"tensor": {"dtype": "DT_FLOAT", "tensorShape": {}}}, "dtype": {"type": "DT_FLOAT"}}}, {"name": "model/tf.concat_3/concat/axis", "op": "Const", "attr": {"dtype": {"type": "DT_INT32"}, "value": {"tensor": {"dtype": "DT_INT32", "tensorShape": {}}}}}, {"name": "model/tf.concat_13/concat/axis", "op": "Const", "attr": {"dtype": {"type": "DT_INT32"}, "value": {"tensor": {"dtype": "DT_INT32", "tensorShape": {}}}}}, {"name": "model/zero_padding2d_26/Pad/paddings", "op": "Const", "attr": {"dtype": {"type": "DT_INT32"}, "value": {"tensor": {"dtype": "DT_INT32", "tensorShape": {"dim": [{"size": "4"}, {"size": "2"}]}}}}}, {"name": "model/conv2d_45/Conv2D/ReadVariableOp", "op": "Const", "attr": {"dtype": {"type": "DT_FLOAT"}, "value": {"tensor": {"dtype": "DT_FLOAT", "tensorShape": {"dim": [{"size": "3"}, {"size": "3"}, {"size": "64"}, {"size": "64"}]}}}}}, {"name": "model/tf.math.add_92/Add/y", "op": "Const", "attr": {"value": {"tensor": {"dtype": "DT_FLOAT", "tensorShape": {"dim": [{"size": "64"}]}}}, "dtype": {"type": "DT_FLOAT"}}}, {"name": "model/tf.strided_slice_21/StridedSlice/begin", "op": "Const", "attr": {"value": {"tensor": {"dtype": "DT_INT64", "tensorShape": {"dim": [{"size": "4"}]}}}, "dtype": {"type": "DT_INT64"}}}, {"name": "model/tf.strided_slice_21/StridedSlice/end", "op": "Const", "attr": {"value": {"tensor": {"dtype": "DT_INT64", "tensorShape": {"dim": [{"size": "4"}]}}}, "dtype": {"type": "DT_INT64"}}}, {"name": "model/tf.strided_slice_21/StridedSlice/strides", "op": "Const", "attr": {"value": {"tensor": {"dtype": "DT_INT64", "tensorShape": {"dim": [{"size": "4"}]}}}, "dtype": {"type": "DT_INT64"}}}, {"name": "model/tf.math.reduce_mean_32/Const", "op": "Const", "attr": {"value": {"tensor": {"dtype": "DT_INT32", "tensorShape": {"dim": [{"size": "4"}]}}}, "dtype": {"type": "DT_INT32"}}}, {"name": "model/tf.math.reduce_mean_33/Const", "op": "Const", "attr": {"dtype": {"type": "DT_INT32"}, "value": {"tensor": {"dtype": "DT_INT32", "tensorShape": {"dim": [{"size": "4"}]}}}}}, {"name": "model/tf.__operators__.add_10/y", "op": "Const", "attr": {"value": {"tensor": {"dtype": "DT_FLOAT", "tensorShape": {}}}, "dtype": {"type": "DT_FLOAT"}}}, {"name": "model/tf.concat_14/concat/axis", "op": "Const", "attr": {"value": {"tensor": {"dtype": "DT_INT32", "tensorShape": {}}}, "dtype": {"type": "DT_INT32"}}}, {"name": "model/zero_padding2d_27/Pad/paddings", "op": "Const", "attr": {"dtype": {"type": "DT_INT32"}, "value": {"tensor": {"dtype": "DT_INT32", "tensorShape": {"dim": [{"size": "4"}, {"size": "2"}]}}}}}, {"name": "model/conv2d_46/Conv2D/ReadVariableOp", "op": "Const", "attr": {"dtype": {"type": "DT_FLOAT"}, "value": {"tensor": {"dtype": "DT_FLOAT", "tensorShape": {"dim": [{"size": "3"}, {"size": "3"}, {"size": "64"}, {"size": "32"}]}}}}}, {"name": "model/tf.math.add_95/Add/y", "op": "Const", "attr": {"dtype": {"type": "DT_FLOAT"}, "value": {"tensor": {"dtype": "DT_FLOAT", "tensorShape": {"dim": [{"size": "32"}]}}}}}, {"name": "model/tf.strided_slice_23/StridedSlice/begin", "op": "Const", "attr": {"value": {"tensor": {"dtype": "DT_INT64", "tensorShape": {"dim": [{"size": "4"}]}}}, "dtype": {"type": "DT_INT64"}}}, {"name": "model/tf.strided_slice_23/StridedSlice/end", "op": "Const", "attr": {"dtype": {"type": "DT_INT64"}, "value": {"tensor": {"dtype": "DT_INT64", "tensorShape": {"dim": [{"size": "4"}]}}}}}, {"name": "model/tf.strided_slice_23/StridedSlice/strides", "op": "Const", "attr": {"value": {"tensor": {"dtype": "DT_INT64", "tensorShape": {"dim": [{"size": "4"}]}}}, "dtype": {"type": "DT_INT64"}}}, {"name": "model/tf.math.reduce_mean_35/Const", "op": "Const", "attr": {"dtype": {"type": "DT_INT32"}, "value": {"tensor": {"dtype": "DT_INT32", "tensorShape": {"dim": [{"size": "4"}]}}}}}, {"name": "model/tf.math.reduce_mean_36/Const", "op": "Const", "attr": {"dtype": {"type": "DT_INT32"}, "value": {"tensor": {"dtype": "DT_INT32", "tensorShape": {"dim": [{"size": "4"}]}}}}}, {"name": "model/tf.__operators__.add_11/y", "op": "Const", "attr": {"dtype": {"type": "DT_FLOAT"}, "value": {"tensor": {"dtype": "DT_FLOAT", "tensorShape": {}}}}}, {"name": "model/tf.concat_15/concat/axis", "op": "Const", "attr": {"value": {"tensor": {"dtype": "DT_INT32", "tensorShape": {}}}, "dtype": {"type": "DT_INT32"}}}, {"name": "model/zero_padding2d_28/Pad/paddings", "op": "Const", "attr": {"dtype": {"type": "DT_INT32"}, "value": {"tensor": {"dtype": "DT_INT32", "tensorShape": {"dim": [{"size": "4"}, {"size": "2"}]}}}}}, {"name": "model/conv2d_47/Conv2D/ReadVariableOp", "op": "Const", "attr": {"value": {"tensor": {"dtype": "DT_FLOAT", "tensorShape": {"dim": [{"size": "3"}, {"size": "3"}, {"size": "32"}, {"size": "32"}]}}}, "dtype": {"type": "DT_FLOAT"}}}, {"name": "model/tf.math.add_98/Add/y", "op": "Const", "attr": {"dtype": {"type": "DT_FLOAT"}, "value": {"tensor": {"dtype": "DT_FLOAT", "tensorShape": {"dim": [{"size": "32"}]}}}}}, {"name": "model/tf.strided_slice_25/StridedSlice/begin", "op": "Const", "attr": {"value": {"tensor": {"dtype": "DT_INT64", "tensorShape": {"dim": [{"size": "4"}]}}}, "dtype": {"type": "DT_INT64"}}}, {"name": "model/tf.strided_slice_25/StridedSlice/end", "op": "Const", "attr": {"dtype": {"type": "DT_INT64"}, "value": {"tensor": {"dtype": "DT_INT64", "tensorShape": {"dim": [{"size": "4"}]}}}}}, {"name": "model/tf.strided_slice_25/StridedSlice/strides", "op": "Const", "attr": {"value": {"tensor": {"dtype": "DT_INT64", "tensorShape": {"dim": [{"size": "4"}]}}}, "dtype": {"type": "DT_INT64"}}}, {"name": "model/tf.math.reduce_mean_38/Const", "op": "Const", "attr": {"value": {"tensor": {"dtype": "DT_INT32", "tensorShape": {"dim": [{"size": "4"}]}}}, "dtype": {"type": "DT_INT32"}}}, {"name": "model/tf.math.reduce_mean_39/Const", "op": "Const", "attr": {"value": {"tensor": {"dtype": "DT_INT32", "tensorShape": {"dim": [{"size": "4"}]}}}, "dtype": {"type": "DT_INT32"}}}, {"name": "model/tf.__operators__.add_12/y", "op": "Const", "attr": {"value": {"tensor": {"dtype": "DT_FLOAT", "tensorShape": {}}}, "dtype": {"type": "DT_FLOAT"}}}, {"name": "model/tf.concat_16/concat/axis", "op": "Const", "attr": {"dtype": {"type": "DT_INT32"}, "value": {"tensor": {"dtype": "DT_INT32", "tensorShape": {}}}}}, {"name": "model/zero_padding2d_29/Pad/paddings", "op": "Const", "attr": {"dtype": {"type": "DT_INT32"}, "value": {"tensor": {"dtype": "DT_INT32", "tensorShape": {"dim": [{"size": "4"}, {"size": "2"}]}}}}}, {"name": "model/conv2d_48/Conv2D/ReadVariableOp", "op": "Const", "attr": {"value": {"tensor": {"dtype": "DT_FLOAT", "tensorShape": {"dim": [{"size": "3"}, {"size": "3"}, {"size": "32"}, {"size": "32"}]}}}, "dtype": {"type": "DT_FLOAT"}}}, {"name": "model/tf.math.add_101/Add/y", "op": "Const", "attr": {"value": {"tensor": {"dtype": "DT_FLOAT", "tensorShape": {"dim": [{"size": "32"}]}}}, "dtype": {"type": "DT_FLOAT"}}}, {"name": "model/tf.strided_slice_27/StridedSlice/begin", "op": "Const", "attr": {"dtype": {"type": "DT_INT64"}, "value": {"tensor": {"dtype": "DT_INT64", "tensorShape": {"dim": [{"size": "4"}]}}}}}, {"name": "model/tf.strided_slice_27/StridedSlice/end", "op": "Const", "attr": {"dtype": {"type": "DT_INT64"}, "value": {"tensor": {"dtype": "DT_INT64", "tensorShape": {"dim": [{"size": "4"}]}}}}}, {"name": "model/tf.strided_slice_27/StridedSlice/strides", "op": "Const", "attr": {"dtype": {"type": "DT_INT64"}, "value": {"tensor": {"dtype": "DT_INT64", "tensorShape": {"dim": [{"size": "4"}]}}}}}, {"name": "model/tf.math.reduce_mean_41/Const", "op": "Const", "attr": {"dtype": {"type": "DT_INT32"}, "value": {"tensor": {"dtype": "DT_INT32", "tensorShape": {"dim": [{"size": "4"}]}}}}}, {"name": "model/tf.math.reduce_mean_42/Const", "op": "Const", "attr": {"dtype": {"type": "DT_INT32"}, "value": {"tensor": {"dtype": "DT_INT32", "tensorShape": {"dim": [{"size": "4"}]}}}}}, {"name": "model/tf.__operators__.add_13/y", "op": "Const", "attr": {"value": {"tensor": {"dtype": "DT_FLOAT", "tensorShape": {}}}, "dtype": {"type": "DT_FLOAT"}}}, {"name": "model/tf.concat_17/concat/axis", "op": "Const", "attr": {"value": {"tensor": {"dtype": "DT_INT32", "tensorShape": {}}}, "dtype": {"type": "DT_INT32"}}}, {"name": "model/tf.concat_18/concat/axis", "op": "Const", "attr": {"dtype": {"type": "DT_INT32"}, "value": {"tensor": {"dtype": "DT_INT32", "tensorShape": {}}}}}, {"name": "model/zero_padding2d_30/Pad/paddings", "op": "Const", "attr": {"dtype": {"type": "DT_INT32"}, "value": {"tensor": {"dtype": "DT_INT32", "tensorShape": {"dim": [{"size": "4"}, {"size": "2"}]}}}}}, {"name": "model/conv2d_49/Conv2D/ReadVariableOp", "op": "Const", "attr": {"dtype": {"type": "DT_FLOAT"}, "value": {"tensor": {"dtype": "DT_FLOAT", "tensorShape": {"dim": [{"size": "3"}, {"size": "3"}, {"size": "64"}, {"size": "32"}]}}}}}, {"name": "model/tf.math.add_104/Add/y", "op": "Const", "attr": {"dtype": {"type": "DT_FLOAT"}, "value": {"tensor": {"dtype": "DT_FLOAT", "tensorShape": {"dim": [{"size": "32"}]}}}}}, {"name": "model/tf.strided_slice_29/StridedSlice/begin", "op": "Const", "attr": {"value": {"tensor": {"dtype": "DT_INT64", "tensorShape": {"dim": [{"size": "4"}]}}}, "dtype": {"type": "DT_INT64"}}}, {"name": "model/tf.strided_slice_29/StridedSlice/end", "op": "Const", "attr": {"value": {"tensor": {"dtype": "DT_INT64", "tensorShape": {"dim": [{"size": "4"}]}}}, "dtype": {"type": "DT_INT64"}}}, {"name": "model/tf.strided_slice_29/StridedSlice/strides", "op": "Const", "attr": {"value": {"tensor": {"dtype": "DT_INT64", "tensorShape": {"dim": [{"size": "4"}]}}}, "dtype": {"type": "DT_INT64"}}}, {"name": "model/tf.math.reduce_mean_44/Const", "op": "Const", "attr": {"dtype": {"type": "DT_INT32"}, "value": {"tensor": {"dtype": "DT_INT32", "tensorShape": {"dim": [{"size": "4"}]}}}}}, {"name": "model/tf.math.reduce_mean_45/Const", "op": "Const", "attr": {"value": {"tensor": {"dtype": "DT_INT32", "tensorShape": {"dim": [{"size": "4"}]}}}, "dtype": {"type": "DT_INT32"}}}, {"name": "model/tf.__operators__.add_14/y", "op": "Const", "attr": {"value": {"tensor": {"dtype": "DT_FLOAT", "tensorShape": {}}}, "dtype": {"type": "DT_FLOAT"}}}, {"name": "model/tf.concat_19/concat/axis", "op": "Const", "attr": {"dtype": {"type": "DT_INT32"}, "value": {"tensor": {"dtype": "DT_INT32", "tensorShape": {}}}}}, {"name": "model/lambda_6/resize/size", "op": "Const", "attr": {"dtype": {"type": "DT_INT32"}, "value": {"tensor": {"dtype": "DT_INT32", "tensorShape": {"dim": [{"size": "2"}]}}}}}, {"name": "model/tf.concat_20/concat/axis", "op": "Const", "attr": {"value": {"tensor": {"dtype": "DT_INT32", "tensorShape": {}}}, "dtype": {"type": "DT_INT32"}}}, {"name": "model/zero_padding2d_31/Pad/paddings", "op": "Const", "attr": {"value": {"tensor": {"dtype": "DT_INT32", "tensorShape": {"dim": [{"size": "4"}, {"size": "2"}]}}}, "dtype": {"type": "DT_INT32"}}}, {"name": "model/conv2d_50/Conv2D/ReadVariableOp", "op": "Const", "attr": {"value": {"tensor": {"dtype": "DT_FLOAT", "tensorShape": {"dim": [{"size": "3"}, {"size": "3"}, {"size": "35"}, {"size": "16"}]}}}, "dtype": {"type": "DT_FLOAT"}}}, {"name": "model/tf.math.add_107/Add/y", "op": "Const", "attr": {"dtype": {"type": "DT_FLOAT"}, "value": {"tensor": {"dtype": "DT_FLOAT", "tensorShape": {"dim": [{"size": "16"}]}}}}}, {"name": "model/tf.strided_slice_31/StridedSlice/begin", "op": "Const", "attr": {"value": {"tensor": {"dtype": "DT_INT64", "tensorShape": {"dim": [{"size": "4"}]}}}, "dtype": {"type": "DT_INT64"}}}, {"name": "model/tf.strided_slice_31/StridedSlice/end", "op": "Const", "attr": {"value": {"tensor": {"dtype": "DT_INT64", "tensorShape": {"dim": [{"size": "4"}]}}}, "dtype": {"type": "DT_INT64"}}}, {"name": "model/tf.strided_slice_31/StridedSlice/strides", "op": "Const", "attr": {"dtype": {"type": "DT_INT64"}, "value": {"tensor": {"dtype": "DT_INT64", "tensorShape": {"dim": [{"size": "4"}]}}}}}, {"name": "model/tf.math.reduce_mean_47/Const", "op": "Const", "attr": {"dtype": {"type": "DT_INT32"}, "value": {"tensor": {"dtype": "DT_INT32", "tensorShape": {"dim": [{"size": "4"}]}}}}}, {"name": "model/tf.math.reduce_mean_48/Const", "op": "Const", "attr": {"dtype": {"type": "DT_INT32"}, "value": {"tensor": {"dtype": "DT_INT32", "tensorShape": {"dim": [{"size": "4"}]}}}}}, {"name": "model/tf.__operators__.add_15/y", "op": "Const", "attr": {"value": {"tensor": {"dtype": "DT_FLOAT", "tensorShape": {}}}, "dtype": {"type": "DT_FLOAT"}}}, {"name": "model/tf.concat_21/concat/axis", "op": "Const", "attr": {"value": {"tensor": {"dtype": "DT_INT32", "tensorShape": {}}}, "dtype": {"type": "DT_INT32"}}}, {"name": "model/conv2d_51/Conv2D/ReadVariableOp", "op": "Const", "attr": {"value": {"tensor": {"dtype": "DT_FLOAT", "tensorShape": {"dim": [{"size": "1"}, {"size": "1"}, {"size": "16"}, {"size": "1"}]}}}, "dtype": {"type": "DT_FLOAT"}}}, {"name": "model/tf.math.add_110/Add/y", "op": "Const", "attr": {"value": {"tensor": {"dtype": "DT_FLOAT", "tensorShape": {"dim": [{"size": "1"}]}}}, "dtype": {"type": "DT_FLOAT"}}}, {"name": "inputs", "op": "Placeholder", "attr": {"shape": {"shape": {"dim": [{"size": "1"}, {"size": "512"}, {"size": "512"}, {"size": "3"}]}}, "dtype": {"type": "DT_FLOAT"}}}, {"name": "model/tf.image.resize/resize/ResizeBilinear", "op": "ResizeBilinear", "input": ["inputs", "model/tf.image.resize/resize/size"], "attr": {"half_pixel_centers": {"b": true}, "T": {"type": "DT_FLOAT"}, "align_corners": {"b": false}}}, {"name": "model/tf.image.resize_1/resize/ResizeBilinear", "op": "ResizeBilinear", "input": ["inputs", "model/tf.image.resize_1/resize/size"], "attr": {"T": {"type": "DT_FLOAT"}, "half_pixel_centers": {"b": true}, "align_corners": {"b": false}}}, {"name": "model/zero_padding2d/Pad", "op": "Pad", "input": ["inputs", "model/zero_padding2d/Pad/paddings"], "attr": {"Tpaddings": {"type": "DT_INT32"}, "T": {"type": "DT_FLOAT"}}}, {"name": "model/conv2d/Conv2D", "op": "Conv2D", "input": ["model/zero_padding2d/Pad", "model/conv2d/Conv2D/ReadVariableOp"], "device": "/device:CPU:0", "attr": {"explicit_paddings": {"list": {}}, "use_cudnn_on_gpu": {"b": true}, "strides": {"list": {"i": ["1", "2", "2", "1"]}}, "T": {"type": "DT_FLOAT"}, "padding": {"s": "VkFMSUQ="}, "dilations": {"list": {"i": ["1", "1", "1", "1"]}}, "data_format": {"s": "TkhXQw=="}}}, {"name": "model/tf.math.add/Add", "op": "Add", "input": ["model/conv2d/Conv2D", "model/tf.math.add/Add/y"], "attr": {"T": {"type": "DT_FLOAT"}}}, {"name": "model/tf.nn.relu6/Relu6", "op": "Relu6", "input": ["model/tf.math.add/Add"], "attr": {"T": {"type": "DT_FLOAT"}}}, {"name": "model/zero_padding2d_1/Pad", "op": "Pad", "input": ["model/tf.nn.relu6/Relu6", "model/zero_padding2d_1/Pad/paddings"], "attr": {"Tpaddings": {"type": "DT_INT32"}, "T": {"type": "DT_FLOAT"}}}, {"name": "model/depthwise_conv2d/depthwise", "op": "DepthwiseConv2dNative", "input": ["model/zero_padding2d_1/Pad", "model/depthwise_conv2d/depthwise/ReadVariableOp"], "attr": {"explicit_paddings": {"list": {}}, "dilations": {"list": {"i": ["1", "1", "1", "1"]}}, "T": {"type": "DT_FLOAT"}, "strides": {"list": {"i": ["1", "1", "1", "1"]}}, "data_format": {"s": "TkhXQw=="}, "padding": {"s": "VkFMSUQ="}}}, {"name": "model/tf.math.add_1/Add", "op": "Add", "input": ["model/depthwise_conv2d/depthwise", "model/tf.math.add_1/Add/y"], "attr": {"T": {"type": "DT_FLOAT"}}}, {"name": "model/tf.nn.relu6_1/Relu6", "op": "Relu6", "input": ["model/tf.math.add_1/Add"], "attr": {"T": {"type": "DT_FLOAT"}}}, {"name": "model/conv2d_1/Conv2D", "op": "Conv2D", "input": ["model/tf.nn.relu6_1/Relu6", "model/conv2d_1/Conv2D/ReadVariableOp"], "device": "/device:CPU:0", "attr": {"explicit_paddings": {"list": {}}, "data_format": {"s": "TkhXQw=="}, "T": {"type": "DT_FLOAT"}, "dilations": {"list": {"i": ["1", "1", "1", "1"]}}, "padding": {"s": "VkFMSUQ="}, "use_cudnn_on_gpu": {"b": true}, "strides": {"list": {"i": ["1", "1", "1", "1"]}}}}, {"name": "model/tf.math.add_2/Add", "op": "Add", "input": ["model/conv2d_1/Conv2D", "model/tf.math.add_2/Add/y"], "attr": {"T": {"type": "DT_FLOAT"}}}, {"name": "model/conv2d_2/Conv2D", "op": "Conv2D", "input": ["model/tf.math.add_2/Add", "model/conv2d_2/Conv2D/ReadVariableOp"], "device": "/device:CPU:0", "attr": {"data_format": {"s": "TkhXQw=="}, "strides": {"list": {"i": ["1", "1", "1", "1"]}}, "padding": {"s": "VkFMSUQ="}, "T": {"type": "DT_FLOAT"}, "explicit_paddings": {"list": {}}, "use_cudnn_on_gpu": {"b": true}, "dilations": {"list": {"i": ["1", "1", "1", "1"]}}}}, {"name": "model/conv2d_38/Conv2D", "op": "Conv2D", "input": ["model/tf.math.add_2/Add", "model/conv2d_38/Conv2D/ReadVariableOp"], "device": "/device:CPU:0", "attr": {"data_format": {"s": "TkhXQw=="}, "use_cudnn_on_gpu": {"b": true}, "strides": {"list": {"i": ["1", "1", "1", "1"]}}, "explicit_paddings": {"list": {}}, "padding": {"s": "VkFMSUQ="}, "T": {"type": "DT_FLOAT"}, "dilations": {"list": {"i": ["1", "1", "1", "1"]}}}}, {"name": "model/tf.math.add_3/Add", "op": "Add", "input": ["model/conv2d_2/Conv2D", "model/tf.math.add_3/Add/y"], "attr": {"T": {"type": "DT_FLOAT"}}}, {"name": "model/tf.math.add_71/Add", "op": "Add", "input": ["model/conv2d_38/Conv2D", "model/tf.math.add_71/Add/y"], "attr": {"T": {"type": "DT_FLOAT"}}}, {"name": "model/tf.nn.relu6_2/Relu6", "op": "Relu6", "input": ["model/tf.math.add_3/Add"], "attr": {"T": {"type": "DT_FLOAT"}}}, {"name": "model/tf.strided_slice_6/StridedSlice", "op": "StridedSlice", "input": ["model/tf.math.add_71/Add", "model/tf.strided_slice_6/StridedSlice/begin", "model/tf.strided_slice_6/StridedSlice/end", "model/tf.strided_slice_6/StridedSlice/strides"], "attr": {"ellipsis_mask": {"i": "0"}, "Index": {"type": "DT_INT64"}, "end_mask": {"i": "3"}, "begin_mask": {"i": "-1"}, "T": {"type": "DT_FLOAT"}, "new_axis_mask": {"i": "0"}, "shrink_axis_mask": {"i": "0"}}}, {"name": "model/tf.strided_slice_7/StridedSlice", "op": "StridedSlice", "input": ["model/tf.math.add_71/Add", "model/tf.strided_slice_7/StridedSlice/begin", "model/tf.strided_slice_7/StridedSlice/end", "model/tf.strided_slice_7/StridedSlice/strides"], "attr": {"shrink_axis_mask": {"i": "0"}, "end_mask": {"i": "3"}, "begin_mask": {"i": "3"}, "T": {"type": "DT_FLOAT"}, "Index": {"type": "DT_INT64"}, "ellipsis_mask": {"i": "0"}, "new_axis_mask": {"i": "0"}}}, {"name": "model/zero_padding2d_2/Pad", "op": "Pad", "input": ["model/tf.nn.relu6_2/Relu6", "model/zero_padding2d_2/Pad/paddings"], "attr": {"Tpaddings": {"type": "DT_INT32"}, "T": {"type": "DT_FLOAT"}}}, {"name": "model/tf.math.multiply_8/Mul", "op": "Mul", "input": ["model/tf.strided_slice_6/StridedSlice", "model/tf.math.multiply_8/Mul/y"], "attr": {"T": {"type": "DT_FLOAT"}}}, {"name": "model/tf.math.reduce_mean_10/Mean", "op": "Mean", "input": ["model/tf.strided_slice_7/StridedSlice", "model/tf.math.reduce_mean_10/Const"], "attr": {"T": {"type": "DT_FLOAT"}, "Tidx": {"type": "DT_INT32"}, "keep_dims": {"b": true}}}, {"name": "model/tf.math.reduce_mean_11/Mean", "op": "Mean", "input": ["model/tf.strided_slice_7/StridedSlice", "model/tf.math.reduce_mean_11/Const"], "attr": {"keep_dims": {"b": true}, "T": {"type": "DT_FLOAT"}, "Tidx": {"type": "DT_INT32"}}}, {"name": "model/depthwise_conv2d_1/depthwise", "op": "DepthwiseConv2dNative", "input": ["model/zero_padding2d_2/Pad", "model/depthwise_conv2d_1/depthwise/ReadVariableOp"], "attr": {"data_format": {"s": "TkhXQw=="}, "strides": {"list": {"i": ["1", "2", "2", "1"]}}, "dilations": {"list": {"i": ["1", "1", "1", "1"]}}, "padding": {"s": "VkFMSUQ="}, "T": {"type": "DT_FLOAT"}, "explicit_paddings": {"list": {}}}}, {"name": "model/tf.math.add_72/Add", "op": "Add", "input": ["model/tf.math.multiply_8/Mul", "model/tf.math.add_72/Add/y"], "attr": {"T": {"type": "DT_FLOAT"}}}, {"name": "model/tf.math.subtract_7/Sub", "op": "Sub", "input": ["model/tf.strided_slice_7/StridedSlice", "model/tf.math.reduce_mean_10/Mean"], "attr": {"T": {"type": "DT_FLOAT"}}}, {"name": "model/tf.math.subtract_6/Sub", "op": "SquaredDifference", "input": ["model/tf.strided_slice_7/StridedSlice", "model/tf.math.reduce_mean_11/Mean"], "attr": {"T": {"type": "DT_FLOAT"}}}, {"name": "model/tf.math.add_4/Add", "op": "Add", "input": ["model/depthwise_conv2d_1/depthwise", "model/tf.math.add_4/Add/y"], "attr": {"T": {"type": "DT_FLOAT"}}}, {"name": "model/tf.math.reduce_mean_12/Mean", "op": "Mean", "input": ["model/tf.math.subtract_6/Sub", "model/tf.math.reduce_mean_12/Const"], "attr": {"keep_dims": {"b": true}, "Tidx": {"type": "DT_INT32"}, "T": {"type": "DT_FLOAT"}}}, {"name": "model/tf.nn.relu6_3/Relu6", "op": "Relu6", "input": ["model/tf.math.add_4/Add"], "attr": {"T": {"type": "DT_FLOAT"}}}, {"name": "model/tf.__operators__.add_3/AddV2", "op": "AddV2", "input": ["model/tf.math.reduce_mean_12/Mean", "model/tf.__operators__.add_3/y"], "attr": {"T": {"type": "DT_FLOAT"}}}, {"name": "model/conv2d_3/Conv2D", "op": "Conv2D", "input": ["model/tf.nn.relu6_3/Relu6", "model/conv2d_3/Conv2D/ReadVariableOp"], "device": "/device:CPU:0", "attr": {"padding": {"s": "VkFMSUQ="}, "use_cudnn_on_gpu": {"b": true}, "explicit_paddings": {"list": {}}, "dilations": {"list": {"i": ["1", "1", "1", "1"]}}, "T": {"type": "DT_FLOAT"}, "data_format": {"s": "TkhXQw=="}, "strides": {"list": {"i": ["1", "1", "1", "1"]}}}}, {"name": "model/tf.math.sqrt_3/Sqrt", "op": "Rsqrt", "input": ["model/tf.__operators__.add_3/AddV2"], "attr": {"T": {"type": "DT_FLOAT"}}}, {"name": "model/tf.math.add_5/Add", "op": "Add", "input": ["model/conv2d_3/Conv2D", "model/tf.math.add_5/Add/y"], "attr": {"T": {"type": "DT_FLOAT"}}}, {"name": "model/tf.math.truediv_3/truediv", "op": "Mul", "input": ["model/tf.math.subtract_7/Sub", "model/tf.math.sqrt_3/Sqrt"], "attr": {"T": {"type": "DT_FLOAT"}}}, {"name": "model/conv2d_4/Conv2D", "op": "Conv2D", "input": ["model/tf.math.add_5/Add", "model/conv2d_4/Conv2D/ReadVariableOp"], "device": "/device:CPU:0", "attr": {"padding": {"s": "VkFMSUQ="}, "dilations": {"list": {"i": ["1", "1", "1", "1"]}}, "data_format": {"s": "TkhXQw=="}, "strides": {"list": {"i": ["1", "1", "1", "1"]}}, "explicit_paddings": {"list": {}}, "T": {"type": "DT_FLOAT"}, "use_cudnn_on_gpu": {"b": true}}}, {"name": "model/tf.concat_3/concat", "op": "ConcatV2", "input": ["model/tf.math.add_72/Add", "model/tf.math.truediv_3/truediv", "model/tf.concat_3/concat/axis"], "attr": {"Tidx": {"type": "DT_INT32"}, "N": {"i": "2"}, "T": {"type": "DT_FLOAT"}}}, {"name": "model/tf.math.add_6/Add", "op": "Add", "input": ["model/conv2d_4/Conv2D", "model/tf.math.add_6/Add/y"], "attr": {"T": {"type": "DT_FLOAT"}}}, {"name": "model/tf.nn.relu_4/Relu", "op": "Relu", "input": ["model/tf.concat_3/concat"], "attr": {"T": {"type": "DT_FLOAT"}}}, {"name": "model/tf.nn.relu6_4/Relu6", "op": "Relu6", "input": ["model/tf.math.add_6/Add"], "attr": {"T": {"type": "DT_FLOAT"}}}, {"name": "model/tf.concat_4/concat", "op": "ConcatV2", "input": ["model/tf.image.resize/resize/ResizeBilinear", "model/tf.nn.relu_4/Relu", "model/tf.concat_4/concat/axis"], "attr": {"Tidx": {"type": "DT_INT32"}, "T": {"type": "DT_FLOAT"}, "N": {"i": "2"}}}, {"name": "model/zero_padding2d_3/Pad", "op": "Pad", "input": ["model/tf.nn.relu6_4/Relu6", "model/zero_padding2d_3/Pad/paddings"], "attr": {"Tpaddings": {"type": "DT_INT32"}, "T": {"type": "DT_FLOAT"}}}, {"name": "model/zero_padding2d_21/Pad", "op": "Pad", "input": ["model/tf.concat_4/concat", "model/zero_padding2d_21/Pad/paddings"], "attr": {"T": {"type": "DT_FLOAT"}, "Tpaddings": {"type": "DT_INT32"}}}, {"name": "model/depthwise_conv2d_2/depthwise", "op": "DepthwiseConv2dNative", "input": ["model/zero_padding2d_3/Pad", "model/depthwise_conv2d_2/depthwise/ReadVariableOp"], "attr": {"strides": {"list": {"i": ["1", "1", "1", "1"]}}, "padding": {"s": "VkFMSUQ="}, "explicit_paddings": {"list": {}}, "dilations": {"list": {"i": ["1", "1", "1", "1"]}}, "T": {"type": "DT_FLOAT"}, "data_format": {"s": "TkhXQw=="}}}, {"name": "model/conv2d_39/Conv2D", "op": "Conv2D", "input": ["model/zero_padding2d_21/Pad", "model/conv2d_39/Conv2D/ReadVariableOp"], "device": "/device:CPU:0", "attr": {"padding": {"s": "VkFMSUQ="}, "use_cudnn_on_gpu": {"b": true}, "dilations": {"list": {"i": ["1", "1", "1", "1"]}}, "T": {"type": "DT_FLOAT"}, "strides": {"list": {"i": ["1", "2", "2", "1"]}}, "explicit_paddings": {"list": {}}, "data_format": {"s": "TkhXQw=="}}}, {"name": "model/tf.math.add_7/Add", "op": "Add", "input": ["model/depthwise_conv2d_2/depthwise", "model/tf.math.add_7/Add/y"], "attr": {"T": {"type": "DT_FLOAT"}}}, {"name": "model/tf.math.add_74/Add", "op": "Add", "input": ["model/conv2d_39/Conv2D", "model/tf.math.add_74/Add/y"], "attr": {"T": {"type": "DT_FLOAT"}}}, {"name": "model/tf.nn.relu6_5/Relu6", "op": "Relu6", "input": ["model/tf.math.add_7/Add"], "attr": {"T": {"type": "DT_FLOAT"}}}, {"name": "model/tf.strided_slice_8/StridedSlice", "op": "StridedSlice", "input": ["model/tf.math.add_74/Add", "model/tf.strided_slice_8/StridedSlice/begin", "model/tf.strided_slice_8/StridedSlice/end", "model/tf.strided_slice_8/StridedSlice/strides"], "attr": {"Index": {"type": "DT_INT64"}, "T": {"type": "DT_FLOAT"}, "ellipsis_mask": {"i": "0"}, "end_mask": {"i": "3"}, "shrink_axis_mask": {"i": "0"}, "begin_mask": {"i": "-1"}, "new_axis_mask": {"i": "0"}}}, {"name": "model/tf.strided_slice_9/StridedSlice", "op": "StridedSlice", "input": ["model/tf.math.add_74/Add", "model/tf.strided_slice_9/StridedSlice/begin", "model/tf.strided_slice_9/StridedSlice/end", "model/tf.strided_slice_9/StridedSlice/strides"], "attr": {"ellipsis_mask": {"i": "0"}, "new_axis_mask": {"i": "0"}, "T": {"type": "DT_FLOAT"}, "end_mask": {"i": "3"}, "Index": {"type": "DT_INT64"}, "begin_mask": {"i": "3"}, "shrink_axis_mask": {"i": "0"}}}, {"name": "model/conv2d_5/Conv2D", "op": "Conv2D", "input": ["model/tf.nn.relu6_5/Relu6", "model/conv2d_5/Conv2D/ReadVariableOp"], "device": "/device:CPU:0", "attr": {"strides": {"list": {"i": ["1", "1", "1", "1"]}}, "dilations": {"list": {"i": ["1", "1", "1", "1"]}}, "padding": {"s": "VkFMSUQ="}, "use_cudnn_on_gpu": {"b": true}, "data_format": {"s": "TkhXQw=="}, "explicit_paddings": {"list": {}}, "T": {"type": "DT_FLOAT"}}}, {"name": "model/tf.math.multiply_10/Mul", "op": "Mul", "input": ["model/tf.strided_slice_8/StridedSlice", "model/tf.math.multiply_10/Mul/y"], "attr": {"T": {"type": "DT_FLOAT"}}}, {"name": "model/tf.math.reduce_mean_13/Mean", "op": "Mean", "input": ["model/tf.strided_slice_9/StridedSlice", "model/tf.math.reduce_mean_13/Const"], "attr": {"Tidx": {"type": "DT_INT32"}, "keep_dims": {"b": true}, "T": {"type": "DT_FLOAT"}}}, {"name": "model/tf.math.reduce_mean_14/Mean", "op": "Mean", "input": ["model/tf.strided_slice_9/StridedSlice", "model/tf.math.reduce_mean_14/Const"], "attr": {"Tidx": {"type": "DT_INT32"}, "T": {"type": "DT_FLOAT"}, "keep_dims": {"b": true}}}, {"name": "model/tf.math.add_8/Add", "op": "Add", "input": ["model/conv2d_5/Conv2D", "model/tf.math.add_8/Add/y"], "attr": {"T": {"type": "DT_FLOAT"}}}, {"name": "model/tf.math.add_75/Add", "op": "Add", "input": ["model/tf.math.multiply_10/Mul", "model/tf.math.add_75/Add/y"], "attr": {"T": {"type": "DT_FLOAT"}}}, {"name": "model/tf.math.subtract_9/Sub", "op": "Sub", "input": ["model/tf.strided_slice_9/StridedSlice", "model/tf.math.reduce_mean_13/Mean"], "attr": {"T": {"type": "DT_FLOAT"}}}, {"name": "model/tf.math.subtract_8/Sub", "op": "SquaredDifference", "input": ["model/tf.strided_slice_9/StridedSlice", "model/tf.math.reduce_mean_14/Mean"], "attr": {"T": {"type": "DT_FLOAT"}}}, {"name": "model/tf.math.add_9/Add", "op": "Add", "input": ["model/tf.math.add_5/Add", "model/tf.math.add_8/Add"], "attr": {"T": {"type": "DT_FLOAT"}}}, {"name": "model/tf.math.reduce_mean_15/Mean", "op": "Mean", "input": ["model/tf.math.subtract_8/Sub", "model/tf.math.reduce_mean_15/Const"], "attr": {"keep_dims": {"b": true}, "T": {"type": "DT_FLOAT"}, "Tidx": {"type": "DT_INT32"}}}, {"name": "model/conv2d_40/Conv2D", "op": "Conv2D", "input": ["model/tf.math.add_9/Add", "model/conv2d_40/Conv2D/ReadVariableOp"], "device": "/device:CPU:0", "attr": {"T": {"type": "DT_FLOAT"}, "dilations": {"list": {"i": ["1", "1", "1", "1"]}}, "padding": {"s": "VkFMSUQ="}, "use_cudnn_on_gpu": {"b": true}, "data_format": {"s": "TkhXQw=="}, "strides": {"list": {"i": ["1", "1", "1", "1"]}}, "explicit_paddings": {"list": {}}}}, {"name": "model/conv2d_6/Conv2D", "op": "Conv2D", "input": ["model/tf.math.add_9/Add", "model/conv2d_6/Conv2D/ReadVariableOp"], "device": "/device:CPU:0", "attr": {"dilations": {"list": {"i": ["1", "1", "1", "1"]}}, "padding": {"s": "VkFMSUQ="}, "T": {"type": "DT_FLOAT"}, "use_cudnn_on_gpu": {"b": true}, "strides": {"list": {"i": ["1", "1", "1", "1"]}}, "data_format": {"s": "TkhXQw=="}, "explicit_paddings": {"list": {}}}}, {"name": "model/tf.__operators__.add_4/AddV2", "op": "AddV2", "input": ["model/tf.math.reduce_mean_15/Mean", "model/tf.__operators__.add_4/y"], "attr": {"T": {"type": "DT_FLOAT"}}}, {"name": "model/tf.math.add_77/Add", "op": "Add", "input": ["model/conv2d_40/Conv2D", "model/tf.math.add_77/Add/y"], "attr": {"T": {"type": "DT_FLOAT"}}}, {"name": "model/tf.math.add_10/Add", "op": "Add", "input": ["model/conv2d_6/Conv2D", "model/tf.math.add_10/Add/y"], "attr": {"T": {"type": "DT_FLOAT"}}}, {"name": "model/tf.math.sqrt_4/Sqrt", "op": "Rsqrt", "input": ["model/tf.__operators__.add_4/AddV2"], "attr": {"T": {"type": "DT_FLOAT"}}}, {"name": "model/tf.strided_slice_10/StridedSlice", "op": "StridedSlice", "input": ["model/tf.math.add_77/Add", "model/tf.strided_slice_10/StridedSlice/begin", "model/tf.strided_slice_10/StridedSlice/end", "model/tf.strided_slice_10/StridedSlice/strides"], "attr": {"ellipsis_mask": {"i": "0"}, "new_axis_mask": {"i": "0"}, "end_mask": {"i": "3"}, "shrink_axis_mask": {"i": "0"}, "T": {"type": "DT_FLOAT"}, "Index": {"type": "DT_INT64"}, "begin_mask": {"i": "-1"}}}, {"name": "model/tf.strided_slice_11/StridedSlice", "op": "StridedSlice", "input": ["model/tf.math.add_77/Add", "model/tf.strided_slice_11/StridedSlice/begin", "model/tf.strided_slice_11/StridedSlice/end", "model/tf.strided_slice_11/StridedSlice/strides"], "attr": {"shrink_axis_mask": {"i": "0"}, "ellipsis_mask": {"i": "0"}, "end_mask": {"i": "3"}, "Index": {"type": "DT_INT64"}, "begin_mask": {"i": "3"}, "T": {"type": "DT_FLOAT"}, "new_axis_mask": {"i": "0"}}}, {"name": "model/tf.nn.relu6_6/Relu6", "op": "Relu6", "input": ["model/tf.math.add_10/Add"], "attr": {"T": {"type": "DT_FLOAT"}}}, {"name": "model/tf.math.truediv_4/truediv", "op": "Mul", "input": ["model/tf.math.subtract_9/Sub", "model/tf.math.sqrt_4/Sqrt"], "attr": {"T": {"type": "DT_FLOAT"}}}, {"name": "model/tf.math.multiply_12/Mul", "op": "Mul", "input": ["model/tf.strided_slice_10/StridedSlice", "model/tf.math.multiply_12/Mul/y"], "attr": {"T": {"type": "DT_FLOAT"}}}, {"name": "model/tf.math.reduce_mean_16/Mean", "op": "Mean", "input": ["model/tf.strided_slice_11/StridedSlice", "model/tf.math.reduce_mean_16/Const"], "attr": {"keep_dims": {"b": true}, "T": {"type": "DT_FLOAT"}, "Tidx": {"type": "DT_INT32"}}}, {"name": "model/tf.math.reduce_mean_17/Mean", "op": "Mean", "input": ["model/tf.strided_slice_11/StridedSlice", "model/tf.math.reduce_mean_17/Const"], "attr": {"Tidx": {"type": "DT_INT32"}, "keep_dims": {"b": true}, "T": {"type": "DT_FLOAT"}}}, {"name": "model/zero_padding2d_4/Pad", "op": "Pad", "input": ["model/tf.nn.relu6_6/Relu6", "model/zero_padding2d_4/Pad/paddings"], "attr": {"Tpaddings": {"type": "DT_INT32"}, "T": {"type": "DT_FLOAT"}}}, {"name": "model/tf.math.add_78/Add", "op": "Add", "input": ["model/tf.math.multiply_12/Mul", "model/tf.math.add_78/Add/y"], "attr": {"T": {"type": "DT_FLOAT"}}}, {"name": "model/tf.math.subtract_11/Sub", "op": "Sub", "input": ["model/tf.strided_slice_11/StridedSlice", "model/tf.math.reduce_mean_16/Mean"], "attr": {"T": {"type": "DT_FLOAT"}}}, {"name": "model/tf.math.subtract_10/Sub", "op": "SquaredDifference", "input": ["model/tf.strided_slice_11/StridedSlice", "model/tf.math.reduce_mean_17/Mean"], "attr": {"T": {"type": "DT_FLOAT"}}}, {"name": "model/depthwise_conv2d_3/depthwise", "op": "DepthwiseConv2dNative", "input": ["model/zero_padding2d_4/Pad", "model/depthwise_conv2d_3/depthwise/ReadVariableOp"], "attr": {"padding": {"s": "VkFMSUQ="}, "data_format": {"s": "TkhXQw=="}, "dilations": {"list": {"i": ["1", "1", "1", "1"]}}, "T": {"type": "DT_FLOAT"}, "explicit_paddings": {"list": {}}, "strides": {"list": {"i": ["1", "2", "2", "1"]}}}}, {"name": "model/tf.math.reduce_mean_18/Mean", "op": "Mean", "input": ["model/tf.math.subtract_10/Sub", "model/tf.math.reduce_mean_18/Const"], "attr": {"Tidx": {"type": "DT_INT32"}, "keep_dims": {"b": true}, "T": {"type": "DT_FLOAT"}}}, {"name": "model/tf.math.add_11/Add", "op": "Add", "input": ["model/depthwise_conv2d_3/depthwise", "model/tf.math.add_11/Add/y"], "attr": {"T": {"type": "DT_FLOAT"}}}, {"name": "model/tf.__operators__.add_5/AddV2", "op": "AddV2", "input": ["model/tf.math.reduce_mean_18/Mean", "model/tf.__operators__.add_5/y"], "attr": {"T": {"type": "DT_FLOAT"}}}, {"name": "model/tf.nn.relu6_7/Relu6", "op": "Relu6", "input": ["model/tf.math.add_11/Add"], "attr": {"T": {"type": "DT_FLOAT"}}}, {"name": "model/tf.math.sqrt_5/Sqrt", "op": "Rsqrt", "input": ["model/tf.__operators__.add_5/AddV2"], "attr": {"T": {"type": "DT_FLOAT"}}}, {"name": "model/conv2d_7/Conv2D", "op": "Conv2D", "input": ["model/tf.nn.relu6_7/Relu6", "model/conv2d_7/Conv2D/ReadVariableOp"], "device": "/device:CPU:0", "attr": {"explicit_paddings": {"list": {}}, "padding": {"s": "VkFMSUQ="}, "use_cudnn_on_gpu": {"b": true}, "T": {"type": "DT_FLOAT"}, "strides": {"list": {"i": ["1", "1", "1", "1"]}}, "dilations": {"list": {"i": ["1", "1", "1", "1"]}}, "data_format": {"s": "TkhXQw=="}}}, {"name": "model/tf.math.truediv_5/truediv", "op": "Mul", "input": ["model/tf.math.subtract_11/Sub", "model/tf.math.sqrt_5/Sqrt"], "attr": {"T": {"type": "DT_FLOAT"}}}, {"name": "model/tf.math.add_12/Add", "op": "Add", "input": ["model/conv2d_7/Conv2D", "model/tf.math.add_12/Add/y"], "attr": {"T": {"type": "DT_FLOAT"}}}, {"name": "model/tf.concat_7/concat", "op": "ConcatV2", "input": ["model/tf.math.add_75/Add", "model/tf.math.truediv_4/truediv", "model/tf.math.add_78/Add", "model/tf.math.truediv_5/truediv", "model/tf.concat_7/concat/axis"], "attr": {"Tidx": {"type": "DT_INT32"}, "N": {"i": "4"}, "T": {"type": "DT_FLOAT"}}}, {"name": "model/conv2d_8/Conv2D", "op": "Conv2D", "input": ["model/tf.math.add_12/Add", "model/conv2d_8/Conv2D/ReadVariableOp"], "device": "/device:CPU:0", "attr": {"dilations": {"list": {"i": ["1", "1", "1", "1"]}}, "T": {"type": "DT_FLOAT"}, "use_cudnn_on_gpu": {"b": true}, "strides": {"list": {"i": ["1", "1", "1", "1"]}}, "padding": {"s": "VkFMSUQ="}, "data_format": {"s": "TkhXQw=="}, "explicit_paddings": {"list": {}}}}, {"name": "model/tf.nn.relu_5/Relu", "op": "Relu", "input": ["model/tf.concat_7/concat"], "attr": {"T": {"type": "DT_FLOAT"}}}, {"name": "model/tf.math.add_13/Add", "op": "Add", "input": ["model/conv2d_8/Conv2D", "model/tf.math.add_13/Add/y"], "attr": {"T": {"type": "DT_FLOAT"}}}, {"name": "model/zero_padding2d_22/Pad", "op": "Pad", "input": ["model/tf.nn.relu_5/Relu", "model/zero_padding2d_22/Pad/paddings"], "attr": {"T": {"type": "DT_FLOAT"}, "Tpaddings": {"type": "DT_INT32"}}}, {"name": "model/tf.nn.relu6_8/Relu6", "op": "Relu6", "input": ["model/tf.math.add_13/Add"], "attr": {"T": {"type": "DT_FLOAT"}}}, {"name": "model/conv2d_41/Conv2D", "op": "Conv2D", "input": ["model/zero_padding2d_22/Pad", "model/conv2d_41/Conv2D/ReadVariableOp"], "device": "/device:CPU:0", "attr": {"dilations": {"list": {"i": ["1", "1", "1", "1"]}}, "T": {"type": "DT_FLOAT"}, "strides": {"list": {"i": ["1", "1", "1", "1"]}}, "padding": {"s": "VkFMSUQ="}, "explicit_paddings": {"list": {}}, "use_cudnn_on_gpu": {"b": true}, "data_format": {"s": "TkhXQw=="}}}, {"name": "model/zero_padding2d_5/Pad", "op": "Pad", "input": ["model/tf.nn.relu6_8/Relu6", "model/zero_padding2d_5/Pad/paddings"], "attr": {"T": {"type": "DT_FLOAT"}, "Tpaddings": {"type": "DT_INT32"}}}, {"name": "model/tf.math.add_80/Add", "op": "Add", "input": ["model/conv2d_41/Conv2D", "model/tf.math.add_80/Add/y"], "attr": {"T": {"type": "DT_FLOAT"}}}, {"name": "model/depthwise_conv2d_4/depthwise", "op": "DepthwiseConv2dNative", "input": ["model/zero_padding2d_5/Pad", "model/depthwise_conv2d_4/depthwise/ReadVariableOp"], "attr": {"padding": {"s": "VkFMSUQ="}, "T": {"type": "DT_FLOAT"}, "data_format": {"s": "TkhXQw=="}, "dilations": {"list": {"i": ["1", "1", "1", "1"]}}, "explicit_paddings": {"list": {}}, "strides": {"list": {"i": ["1", "1", "1", "1"]}}}}, {"name": "model/tf.strided_slice_12/StridedSlice", "op": "StridedSlice", "input": ["model/tf.math.add_80/Add", "model/tf.strided_slice_12/StridedSlice/begin", "model/tf.strided_slice_12/StridedSlice/end", "model/tf.strided_slice_12/StridedSlice/strides"], "attr": {"end_mask": {"i": "3"}, "ellipsis_mask": {"i": "0"}, "T": {"type": "DT_FLOAT"}, "begin_mask": {"i": "-1"}, "Index": {"type": "DT_INT64"}, "shrink_axis_mask": {"i": "0"}, "new_axis_mask": {"i": "0"}}}, {"name": "model/tf.strided_slice_13/StridedSlice", "op": "StridedSlice", "input": ["model/tf.math.add_80/Add", "model/tf.strided_slice_13/StridedSlice/begin", "model/tf.strided_slice_13/StridedSlice/end", "model/tf.strided_slice_13/StridedSlice/strides"], "attr": {"T": {"type": "DT_FLOAT"}, "Index": {"type": "DT_INT64"}, "shrink_axis_mask": {"i": "0"}, "end_mask": {"i": "3"}, "new_axis_mask": {"i": "0"}, "ellipsis_mask": {"i": "0"}, "begin_mask": {"i": "3"}}}, {"name": "model/tf.math.add_14/Add", "op": "Add", "input": ["model/depthwise_conv2d_4/depthwise", "model/tf.math.add_14/Add/y"], "attr": {"T": {"type": "DT_FLOAT"}}}, {"name": "model/tf.math.multiply_14/Mul", "op": "Mul", "input": ["model/tf.strided_slice_12/StridedSlice", "model/tf.math.multiply_14/Mul/y"], "attr": {"T": {"type": "DT_FLOAT"}}}, {"name": "model/tf.math.reduce_mean_19/Mean", "op": "Mean", "input": ["model/tf.strided_slice_13/StridedSlice", "model/tf.math.reduce_mean_19/Const"], "attr": {"Tidx": {"type": "DT_INT32"}, "T": {"type": "DT_FLOAT"}, "keep_dims": {"b": true}}}, {"name": "model/tf.math.reduce_mean_20/Mean", "op": "Mean", "input": ["model/tf.strided_slice_13/StridedSlice", "model/tf.math.reduce_mean_20/Const"], "attr": {"keep_dims": {"b": true}, "T": {"type": "DT_FLOAT"}, "Tidx": {"type": "DT_INT32"}}}, {"name": "model/tf.nn.relu6_9/Relu6", "op": "Relu6", "input": ["model/tf.math.add_14/Add"], "attr": {"T": {"type": "DT_FLOAT"}}}, {"name": "model/tf.math.add_81/Add", "op": "Add", "input": ["model/tf.math.multiply_14/Mul", "model/tf.math.add_81/Add/y"], "attr": {"T": {"type": "DT_FLOAT"}}}, {"name": "model/tf.math.subtract_13/Sub", "op": "Sub", "input": ["model/tf.strided_slice_13/StridedSlice", "model/tf.math.reduce_mean_19/Mean"], "attr": {"T": {"type": "DT_FLOAT"}}}, {"name": "model/tf.math.subtract_12/Sub", "op": "SquaredDifference", "input": ["model/tf.strided_slice_13/StridedSlice", "model/tf.math.reduce_mean_20/Mean"], "attr": {"T": {"type": "DT_FLOAT"}}}, {"name": "model/conv2d_9/Conv2D", "op": "Conv2D", "input": ["model/tf.nn.relu6_9/Relu6", "model/conv2d_9/Conv2D/ReadVariableOp"], "device": "/device:CPU:0", "attr": {"T": {"type": "DT_FLOAT"}, "strides": {"list": {"i": ["1", "1", "1", "1"]}}, "data_format": {"s": "TkhXQw=="}, "dilations": {"list": {"i": ["1", "1", "1", "1"]}}, "padding": {"s": "VkFMSUQ="}, "explicit_paddings": {"list": {}}, "use_cudnn_on_gpu": {"b": true}}}, {"name": "model/tf.math.reduce_mean_21/Mean", "op": "Mean", "input": ["model/tf.math.subtract_12/Sub", "model/tf.math.reduce_mean_21/Const"], "attr": {"keep_dims": {"b": true}, "Tidx": {"type": "DT_INT32"}, "T": {"type": "DT_FLOAT"}}}, {"name": "model/tf.math.add_15/Add", "op": "Add", "input": ["model/conv2d_9/Conv2D", "model/tf.math.add_15/Add/y"], "attr": {"T": {"type": "DT_FLOAT"}}}, {"name": "model/tf.__operators__.add_6/AddV2", "op": "AddV2", "input": ["model/tf.math.reduce_mean_21/Mean", "model/tf.__operators__.add_6/y"], "attr": {"T": {"type": "DT_FLOAT"}}}, {"name": "model/tf.math.add_16/Add", "op": "Add", "input": ["model/tf.math.add_12/Add", "model/tf.math.add_15/Add"], "attr": {"T": {"type": "DT_FLOAT"}}}, {"name": "model/tf.math.sqrt_6/Sqrt", "op": "Rsqrt", "input": ["model/tf.__operators__.add_6/AddV2"], "attr": {"T": {"type": "DT_FLOAT"}}}, {"name": "model/conv2d_10/Conv2D", "op": "Conv2D", "input": ["model/tf.math.add_16/Add", "model/conv2d_10/Conv2D/ReadVariableOp"], "device": "/device:CPU:0", "attr": {"explicit_paddings": {"list": {}}, "use_cudnn_on_gpu": {"b": true}, "padding": {"s": "VkFMSUQ="}, "strides": {"list": {"i": ["1", "1", "1", "1"]}}, "dilations": {"list": {"i": ["1", "1", "1", "1"]}}, "data_format": {"s": "TkhXQw=="}, "T": {"type": "DT_FLOAT"}}}, {"name": "model/tf.math.truediv_6/truediv", "op": "Mul", "input": ["model/tf.math.subtract_13/Sub", "model/tf.math.sqrt_6/Sqrt"], "attr": {"T": {"type": "DT_FLOAT"}}}, {"name": "model/tf.math.add_17/Add", "op": "Add", "input": ["model/conv2d_10/Conv2D", "model/tf.math.add_17/Add/y"], "attr": {"T": {"type": "DT_FLOAT"}}}, {"name": "model/tf.concat_8/concat", "op": "ConcatV2", "input": ["model/tf.math.add_81/Add", "model/tf.math.truediv_6/truediv", "model/tf.concat_8/concat/axis"], "attr": {"Tidx": {"type": "DT_INT32"}, "T": {"type": "DT_FLOAT"}, "N": {"i": "2"}}}, {"name": "model/tf.nn.relu6_10/Relu6", "op": "Relu6", "input": ["model/tf.math.add_17/Add"], "attr": {"T": {"type": "DT_FLOAT"}}}, {"name": "model/tf.nn.relu_7/Relu", "op": "Relu", "input": ["model/tf.concat_8/concat"], "attr": {"T": {"type": "DT_FLOAT"}}}, {"name": "model/zero_padding2d_6/Pad", "op": "Pad", "input": ["model/tf.nn.relu6_10/Relu6", "model/zero_padding2d_6/Pad/paddings"], "attr": {"Tpaddings": {"type": "DT_INT32"}, "T": {"type": "DT_FLOAT"}}}, {"name": "model/depthwise_conv2d_5/depthwise", "op": "DepthwiseConv2dNative", "input": ["model/zero_padding2d_6/Pad", "model/depthwise_conv2d_5/depthwise/ReadVariableOp"], "attr": {"padding": {"s": "VkFMSUQ="}, "explicit_paddings": {"list": {}}, "T": {"type": "DT_FLOAT"}, "dilations": {"list": {"i": ["1", "1", "1", "1"]}}, "strides": {"list": {"i": ["1", "1", "1", "1"]}}, "data_format": {"s": "TkhXQw=="}}}, {"name": "model/tf.math.add_18/Add", "op": "Add", "input": ["model/depthwise_conv2d_5/depthwise", "model/tf.math.add_18/Add/y"], "attr": {"T": {"type": "DT_FLOAT"}}}, {"name": "model/tf.nn.relu6_11/Relu6", "op": "Relu6", "input": ["model/tf.math.add_18/Add"], "attr": {"T": {"type": "DT_FLOAT"}}}, {"name": "model/conv2d_11/Conv2D", "op": "Conv2D", "input": ["model/tf.nn.relu6_11/Relu6", "model/conv2d_11/Conv2D/ReadVariableOp"], "device": "/device:CPU:0", "attr": {"strides": {"list": {"i": ["1", "1", "1", "1"]}}, "T": {"type": "DT_FLOAT"}, "use_cudnn_on_gpu": {"b": true}, "explicit_paddings": {"list": {}}, "dilations": {"list": {"i": ["1", "1", "1", "1"]}}, "data_format": {"s": "TkhXQw=="}, "padding": {"s": "VkFMSUQ="}}}, {"name": "model/tf.math.add_19/Add", "op": "Add", "input": ["model/conv2d_11/Conv2D", "model/tf.math.add_19/Add/y"], "attr": {"T": {"type": "DT_FLOAT"}}}, {"name": "model/tf.math.add_20/Add", "op": "Add", "input": ["model/tf.math.add_16/Add", "model/tf.math.add_19/Add"], "attr": {"T": {"type": "DT_FLOAT"}}}, {"name": "model/conv2d_12/Conv2D", "op": "Conv2D", "input": ["model/tf.math.add_20/Add", "model/conv2d_12/Conv2D/ReadVariableOp"], "device": "/device:CPU:0", "attr": {"data_format": {"s": "TkhXQw=="}, "strides": {"list": {"i": ["1", "1", "1", "1"]}}, "use_cudnn_on_gpu": {"b": true}, "T": {"type": "DT_FLOAT"}, "padding": {"s": "VkFMSUQ="}, "dilations": {"list": {"i": ["1", "1", "1", "1"]}}, "explicit_paddings": {"list": {}}}}, {"name": "model/tf.math.add_21/Add", "op": "Add", "input": ["model/conv2d_12/Conv2D", "model/tf.math.add_21/Add/y"], "attr": {"T": {"type": "DT_FLOAT"}}}, {"name": "model/tf.nn.relu6_12/Relu6", "op": "Relu6", "input": ["model/tf.math.add_21/Add"], "attr": {"T": {"type": "DT_FLOAT"}}}, {"name": "model/zero_padding2d_7/Pad", "op": "Pad", "input": ["model/tf.nn.relu6_12/Relu6", "model/zero_padding2d_7/Pad/paddings"], "attr": {"T": {"type": "DT_FLOAT"}, "Tpaddings": {"type": "DT_INT32"}}}, {"name": "model/depthwise_conv2d_6/depthwise", "op": "DepthwiseConv2dNative", "input": ["model/zero_padding2d_7/Pad", "model/depthwise_conv2d_6/depthwise/ReadVariableOp"], "attr": {"T": {"type": "DT_FLOAT"}, "strides": {"list": {"i": ["1", "2", "2", "1"]}}, "explicit_paddings": {"list": {}}, "padding": {"s": "VkFMSUQ="}, "dilations": {"list": {"i": ["1", "1", "1", "1"]}}, "data_format": {"s": "TkhXQw=="}}}, {"name": "model/tf.math.add_22/Add", "op": "Add", "input": ["model/depthwise_conv2d_6/depthwise", "model/tf.math.add_22/Add/y"], "attr": {"T": {"type": "DT_FLOAT"}}}, {"name": "model/tf.nn.relu6_13/Relu6", "op": "Relu6", "input": ["model/tf.math.add_22/Add"], "attr": {"T": {"type": "DT_FLOAT"}}}, {"name": "model/conv2d_13/Conv2D", "op": "Conv2D", "input": ["model/tf.nn.relu6_13/Relu6", "model/conv2d_13/Conv2D/ReadVariableOp"], "device": "/device:CPU:0", "attr": {"strides": {"list": {"i": ["1", "1", "1", "1"]}}, "data_format": {"s": "TkhXQw=="}, "explicit_paddings": {"list": {}}, "dilations": {"list": {"i": ["1", "1", "1", "1"]}}, "T": {"type": "DT_FLOAT"}, "padding": {"s": "VkFMSUQ="}, "use_cudnn_on_gpu": {"b": true}}}, {"name": "model/tf.math.add_23/Add", "op": "Add", "input": ["model/conv2d_13/Conv2D", "model/tf.math.add_23/Add/y"], "attr": {"T": {"type": "DT_FLOAT"}}}, {"name": "model/conv2d_14/Conv2D", "op": "Conv2D", "input": ["model/tf.math.add_23/Add", "model/conv2d_14/Conv2D/ReadVariableOp"], "device": "/device:CPU:0", "attr": {"strides": {"list": {"i": ["1", "1", "1", "1"]}}, "T": {"type": "DT_FLOAT"}, "data_format": {"s": "TkhXQw=="}, "padding": {"s": "VkFMSUQ="}, "dilations": {"list": {"i": ["1", "1", "1", "1"]}}, "use_cudnn_on_gpu": {"b": true}, "explicit_paddings": {"list": {}}}}, {"name": "model/tf.math.add_24/Add", "op": "Add", "input": ["model/conv2d_14/Conv2D", "model/tf.math.add_24/Add/y"], "attr": {"T": {"type": "DT_FLOAT"}}}, {"name": "model/tf.nn.relu6_14/Relu6", "op": "Relu6", "input": ["model/tf.math.add_24/Add"], "attr": {"T": {"type": "DT_FLOAT"}}}, {"name": "model/zero_padding2d_8/Pad", "op": "Pad", "input": ["model/tf.nn.relu6_14/Relu6", "model/zero_padding2d_8/Pad/paddings"], "attr": {"T": {"type": "DT_FLOAT"}, "Tpaddings": {"type": "DT_INT32"}}}, {"name": "model/depthwise_conv2d_7/depthwise", "op": "DepthwiseConv2dNative", "input": ["model/zero_padding2d_8/Pad", "model/depthwise_conv2d_7/depthwise/ReadVariableOp"], "attr": {"dilations": {"list": {"i": ["1", "1", "1", "1"]}}, "data_format": {"s": "TkhXQw=="}, "padding": {"s": "VkFMSUQ="}, "strides": {"list": {"i": ["1", "1", "1", "1"]}}, "explicit_paddings": {"list": {}}, "T": {"type": "DT_FLOAT"}}}, {"name": "model/tf.math.add_25/Add", "op": "Add", "input": ["model/depthwise_conv2d_7/depthwise", "model/tf.math.add_25/Add/y"], "attr": {"T": {"type": "DT_FLOAT"}}}, {"name": "model/tf.nn.relu6_15/Relu6", "op": "Relu6", "input": ["model/tf.math.add_25/Add"], "attr": {"T": {"type": "DT_FLOAT"}}}, {"name": "model/conv2d_15/Conv2D", "op": "Conv2D", "input": ["model/tf.nn.relu6_15/Relu6", "model/conv2d_15/Conv2D/ReadVariableOp"], "device": "/device:CPU:0", "attr": {"explicit_paddings": {"list": {}}, "use_cudnn_on_gpu": {"b": true}, "dilations": {"list": {"i": ["1", "1", "1", "1"]}}, "T": {"type": "DT_FLOAT"}, "padding": {"s": "VkFMSUQ="}, "strides": {"list": {"i": ["1", "1", "1", "1"]}}, "data_format": {"s": "TkhXQw=="}}}, {"name": "model/tf.math.add_26/Add", "op": "Add", "input": ["model/conv2d_15/Conv2D", "model/tf.math.add_26/Add/y"], "attr": {"T": {"type": "DT_FLOAT"}}}, {"name": "model/tf.math.add_27/Add", "op": "Add", "input": ["model/tf.math.add_23/Add", "model/tf.math.add_26/Add"], "attr": {"T": {"type": "DT_FLOAT"}}}, {"name": "model/conv2d_16/Conv2D", "op": "Conv2D", "input": ["model/tf.math.add_27/Add", "model/conv2d_16/Conv2D/ReadVariableOp"], "device": "/device:CPU:0", "attr": {"T": {"type": "DT_FLOAT"}, "data_format": {"s": "TkhXQw=="}, "strides": {"list": {"i": ["1", "1", "1", "1"]}}, "explicit_paddings": {"list": {}}, "padding": {"s": "VkFMSUQ="}, "dilations": {"list": {"i": ["1", "1", "1", "1"]}}, "use_cudnn_on_gpu": {"b": true}}}, {"name": "model/tf.math.add_28/Add", "op": "Add", "input": ["model/conv2d_16/Conv2D", "model/tf.math.add_28/Add/y"], "attr": {"T": {"type": "DT_FLOAT"}}}, {"name": "model/tf.nn.relu6_16/Relu6", "op": "Relu6", "input": ["model/tf.math.add_28/Add"], "attr": {"T": {"type": "DT_FLOAT"}}}, {"name": "model/zero_padding2d_9/Pad", "op": "Pad", "input": ["model/tf.nn.relu6_16/Relu6", "model/zero_padding2d_9/Pad/paddings"], "attr": {"T": {"type": "DT_FLOAT"}, "Tpaddings": {"type": "DT_INT32"}}}, {"name": "model/depthwise_conv2d_8/depthwise", "op": "DepthwiseConv2dNative", "input": ["model/zero_padding2d_9/Pad", "model/depthwise_conv2d_8/depthwise/ReadVariableOp"], "attr": {"dilations": {"list": {"i": ["1", "1", "1", "1"]}}, "T": {"type": "DT_FLOAT"}, "strides": {"list": {"i": ["1", "1", "1", "1"]}}, "padding": {"s": "VkFMSUQ="}, "data_format": {"s": "TkhXQw=="}, "explicit_paddings": {"list": {}}}}, {"name": "model/tf.math.add_29/Add", "op": "Add", "input": ["model/depthwise_conv2d_8/depthwise", "model/tf.math.add_29/Add/y"], "attr": {"T": {"type": "DT_FLOAT"}}}, {"name": "model/tf.nn.relu6_17/Relu6", "op": "Relu6", "input": ["model/tf.math.add_29/Add"], "attr": {"T": {"type": "DT_FLOAT"}}}, {"name": "model/conv2d_17/Conv2D", "op": "Conv2D", "input": ["model/tf.nn.relu6_17/Relu6", "model/conv2d_17/Conv2D/ReadVariableOp"], "device": "/device:CPU:0", "attr": {"padding": {"s": "VkFMSUQ="}, "data_format": {"s": "TkhXQw=="}, "use_cudnn_on_gpu": {"b": true}, "T": {"type": "DT_FLOAT"}, "dilations": {"list": {"i": ["1", "1", "1", "1"]}}, "strides": {"list": {"i": ["1", "1", "1", "1"]}}, "explicit_paddings": {"list": {}}}}, {"name": "model/tf.math.add_30/Add", "op": "Add", "input": ["model/conv2d_17/Conv2D", "model/tf.math.add_30/Add/y"], "attr": {"T": {"type": "DT_FLOAT"}}}, {"name": "model/tf.math.add_31/Add", "op": "Add", "input": ["model/tf.math.add_27/Add", "model/tf.math.add_30/Add"], "attr": {"T": {"type": "DT_FLOAT"}}}, {"name": "model/conv2d_18/Conv2D", "op": "Conv2D", "input": ["model/tf.math.add_31/Add", "model/conv2d_18/Conv2D/ReadVariableOp"], "device": "/device:CPU:0", "attr": {"strides": {"list": {"i": ["1", "1", "1", "1"]}}, "explicit_paddings": {"list": {}}, "T": {"type": "DT_FLOAT"}, "use_cudnn_on_gpu": {"b": true}, "dilations": {"list": {"i": ["1", "1", "1", "1"]}}, "data_format": {"s": "TkhXQw=="}, "padding": {"s": "VkFMSUQ="}}}, {"name": "model/tf.math.add_32/Add", "op": "Add", "input": ["model/conv2d_18/Conv2D", "model/tf.math.add_32/Add/y"], "attr": {"T": {"type": "DT_FLOAT"}}}, {"name": "model/tf.nn.relu6_18/Relu6", "op": "Relu6", "input": ["model/tf.math.add_32/Add"], "attr": {"T": {"type": "DT_FLOAT"}}}, {"name": "model/zero_padding2d_10/Pad", "op": "Pad", "input": ["model/tf.nn.relu6_18/Relu6", "model/zero_padding2d_10/Pad/paddings"], "attr": {"T": {"type": "DT_FLOAT"}, "Tpaddings": {"type": "DT_INT32"}}}, {"name": "model/depthwise_conv2d_9/depthwise", "op": "DepthwiseConv2dNative", "input": ["model/zero_padding2d_10/Pad", "model/depthwise_conv2d_9/depthwise/ReadVariableOp"], "attr": {"T": {"type": "DT_FLOAT"}, "data_format": {"s": "TkhXQw=="}, "padding": {"s": "VkFMSUQ="}, "explicit_paddings": {"list": {}}, "dilations": {"list": {"i": ["1", "1", "1", "1"]}}, "strides": {"list": {"i": ["1", "1", "1", "1"]}}}}, {"name": "model/tf.math.add_33/Add", "op": "Add", "input": ["model/depthwise_conv2d_9/depthwise", "model/tf.math.add_33/Add/y"], "attr": {"T": {"type": "DT_FLOAT"}}}, {"name": "model/tf.nn.relu6_19/Relu6", "op": "Relu6", "input": ["model/tf.math.add_33/Add"], "attr": {"T": {"type": "DT_FLOAT"}}}, {"name": "model/conv2d_19/Conv2D", "op": "Conv2D", "input": ["model/tf.nn.relu6_19/Relu6", "model/conv2d_19/Conv2D/ReadVariableOp"], "device": "/device:CPU:0", "attr": {"strides": {"list": {"i": ["1", "1", "1", "1"]}}, "dilations": {"list": {"i": ["1", "1", "1", "1"]}}, "explicit_paddings": {"list": {}}, "padding": {"s": "VkFMSUQ="}, "use_cudnn_on_gpu": {"b": true}, "data_format": {"s": "TkhXQw=="}, "T": {"type": "DT_FLOAT"}}}, {"name": "model/tf.math.add_34/Add", "op": "Add", "input": ["model/conv2d_19/Conv2D", "model/tf.math.add_34/Add/y"], "attr": {"T": {"type": "DT_FLOAT"}}}, {"name": "model/tf.math.add_35/Add", "op": "Add", "input": ["model/tf.math.add_31/Add", "model/tf.math.add_34/Add"], "attr": {"T": {"type": "DT_FLOAT"}}}, {"name": "model/conv2d_20/Conv2D", "op": "Conv2D", "input": ["model/tf.math.add_35/Add", "model/conv2d_20/Conv2D/ReadVariableOp"], "device": "/device:CPU:0", "attr": {"padding": {"s": "VkFMSUQ="}, "dilations": {"list": {"i": ["1", "1", "1", "1"]}}, "T": {"type": "DT_FLOAT"}, "strides": {"list": {"i": ["1", "1", "1", "1"]}}, "use_cudnn_on_gpu": {"b": true}, "explicit_paddings": {"list": {}}, "data_format": {"s": "TkhXQw=="}}}, {"name": "model/tf.math.add_36/Add", "op": "Add", "input": ["model/conv2d_20/Conv2D", "model/tf.math.add_36/Add/y"], "attr": {"T": {"type": "DT_FLOAT"}}}, {"name": "model/tf.nn.relu6_20/Relu6", "op": "Relu6", "input": ["model/tf.math.add_36/Add"], "attr": {"T": {"type": "DT_FLOAT"}}}, {"name": "model/zero_padding2d_11/Pad", "op": "Pad", "input": ["model/tf.nn.relu6_20/Relu6", "model/zero_padding2d_11/Pad/paddings"], "attr": {"Tpaddings": {"type": "DT_INT32"}, "T": {"type": "DT_FLOAT"}}}, {"name": "model/depthwise_conv2d_10/depthwise", "op": "DepthwiseConv2dNative", "input": ["model/zero_padding2d_11/Pad", "model/depthwise_conv2d_10/depthwise/ReadVariableOp"], "attr": {"padding": {"s": "VkFMSUQ="}, "data_format": {"s": "TkhXQw=="}, "dilations": {"list": {"i": ["1", "1", "1", "1"]}}, "explicit_paddings": {"list": {}}, "strides": {"list": {"i": ["1", "1", "1", "1"]}}, "T": {"type": "DT_FLOAT"}}}, {"name": "model/tf.math.add_37/Add", "op": "Add", "input": ["model/depthwise_conv2d_10/depthwise", "model/tf.math.add_37/Add/y"], "attr": {"T": {"type": "DT_FLOAT"}}}, {"name": "model/tf.nn.relu6_21/Relu6", "op": "Relu6", "input": ["model/tf.math.add_37/Add"], "attr": {"T": {"type": "DT_FLOAT"}}}, {"name": "model/conv2d_21/Conv2D", "op": "Conv2D", "input": ["model/tf.nn.relu6_21/Relu6", "model/conv2d_21/Conv2D/ReadVariableOp"], "device": "/device:CPU:0", "attr": {"explicit_paddings": {"list": {}}, "padding": {"s": "VkFMSUQ="}, "use_cudnn_on_gpu": {"b": true}, "T": {"type": "DT_FLOAT"}, "dilations": {"list": {"i": ["1", "1", "1", "1"]}}, "strides": {"list": {"i": ["1", "1", "1", "1"]}}, "data_format": {"s": "TkhXQw=="}}}, {"name": "model/tf.math.add_38/Add", "op": "Add", "input": ["model/conv2d_21/Conv2D", "model/tf.math.add_38/Add/y"], "attr": {"T": {"type": "DT_FLOAT"}}}, {"name": "model/conv2d_22/Conv2D", "op": "Conv2D", "input": ["model/tf.math.add_38/Add", "model/conv2d_22/Conv2D/ReadVariableOp"], "device": "/device:CPU:0", "attr": {"strides": {"list": {"i": ["1", "1", "1", "1"]}}, "padding": {"s": "VkFMSUQ="}, "explicit_paddings": {"list": {}}, "dilations": {"list": {"i": ["1", "1", "1", "1"]}}, "use_cudnn_on_gpu": {"b": true}, "T": {"type": "DT_FLOAT"}, "data_format": {"s": "TkhXQw=="}}}, {"name": "model/tf.math.add_39/Add", "op": "Add", "input": ["model/conv2d_22/Conv2D", "model/tf.math.add_39/Add/y"], "attr": {"T": {"type": "DT_FLOAT"}}}, {"name": "model/tf.nn.relu6_22/Relu6", "op": "Relu6", "input": ["model/tf.math.add_39/Add"], "attr": {"T": {"type": "DT_FLOAT"}}}, {"name": "model/zero_padding2d_12/Pad", "op": "Pad", "input": ["model/tf.nn.relu6_22/Relu6", "model/zero_padding2d_12/Pad/paddings"], "attr": {"T": {"type": "DT_FLOAT"}, "Tpaddings": {"type": "DT_INT32"}}}, {"name": "model/depthwise_conv2d_11/depthwise", "op": "DepthwiseConv2dNative", "input": ["model/zero_padding2d_12/Pad", "model/depthwise_conv2d_11/depthwise/ReadVariableOp"], "attr": {"data_format": {"s": "TkhXQw=="}, "dilations": {"list": {"i": ["1", "1", "1", "1"]}}, "explicit_paddings": {"list": {}}, "T": {"type": "DT_FLOAT"}, "strides": {"list": {"i": ["1", "1", "1", "1"]}}, "padding": {"s": "VkFMSUQ="}}}, {"name": "model/tf.math.add_40/Add", "op": "Add", "input": ["model/depthwise_conv2d_11/depthwise", "model/tf.math.add_40/Add/y"], "attr": {"T": {"type": "DT_FLOAT"}}}, {"name": "model/tf.nn.relu6_23/Relu6", "op": "Relu6", "input": ["model/tf.math.add_40/Add"], "attr": {"T": {"type": "DT_FLOAT"}}}, {"name": "model/conv2d_23/Conv2D", "op": "Conv2D", "input": ["model/tf.nn.relu6_23/Relu6", "model/conv2d_23/Conv2D/ReadVariableOp"], "device": "/device:CPU:0", "attr": {"explicit_paddings": {"list": {}}, "T": {"type": "DT_FLOAT"}, "use_cudnn_on_gpu": {"b": true}, "data_format": {"s": "TkhXQw=="}, "strides": {"list": {"i": ["1", "1", "1", "1"]}}, "padding": {"s": "VkFMSUQ="}, "dilations": {"list": {"i": ["1", "1", "1", "1"]}}}}, {"name": "model/tf.math.add_41/Add", "op": "Add", "input": ["model/conv2d_23/Conv2D", "model/tf.math.add_41/Add/y"], "attr": {"T": {"type": "DT_FLOAT"}}}, {"name": "model/tf.math.add_42/Add", "op": "Add", "input": ["model/tf.math.add_38/Add", "model/tf.math.add_41/Add"], "attr": {"T": {"type": "DT_FLOAT"}}}, {"name": "model/conv2d_24/Conv2D", "op": "Conv2D", "input": ["model/tf.math.add_42/Add", "model/conv2d_24/Conv2D/ReadVariableOp"], "device": "/device:CPU:0", "attr": {"explicit_paddings": {"list": {}}, "T": {"type": "DT_FLOAT"}, "data_format": {"s": "TkhXQw=="}, "strides": {"list": {"i": ["1", "1", "1", "1"]}}, "padding": {"s": "VkFMSUQ="}, "dilations": {"list": {"i": ["1", "1", "1", "1"]}}, "use_cudnn_on_gpu": {"b": true}}}, {"name": "model/tf.math.add_43/Add", "op": "Add", "input": ["model/conv2d_24/Conv2D", "model/tf.math.add_43/Add/y"], "attr": {"T": {"type": "DT_FLOAT"}}}, {"name": "model/tf.nn.relu6_24/Relu6", "op": "Relu6", "input": ["model/tf.math.add_43/Add"], "attr": {"T": {"type": "DT_FLOAT"}}}, {"name": "model/zero_padding2d_13/Pad", "op": "Pad", "input": ["model/tf.nn.relu6_24/Relu6", "model/zero_padding2d_13/Pad/paddings"], "attr": {"T": {"type": "DT_FLOAT"}, "Tpaddings": {"type": "DT_INT32"}}}, {"name": "model/depthwise_conv2d_12/depthwise", "op": "DepthwiseConv2dNative", "input": ["model/zero_padding2d_13/Pad", "model/depthwise_conv2d_12/depthwise/ReadVariableOp"], "attr": {"dilations": {"list": {"i": ["1", "1", "1", "1"]}}, "data_format": {"s": "TkhXQw=="}, "strides": {"list": {"i": ["1", "1", "1", "1"]}}, "explicit_paddings": {"list": {}}, "T": {"type": "DT_FLOAT"}, "padding": {"s": "VkFMSUQ="}}}, {"name": "model/tf.math.add_44/Add", "op": "Add", "input": ["model/depthwise_conv2d_12/depthwise", "model/tf.math.add_44/Add/y"], "attr": {"T": {"type": "DT_FLOAT"}}}, {"name": "model/tf.nn.relu6_25/Relu6", "op": "Relu6", "input": ["model/tf.math.add_44/Add"], "attr": {"T": {"type": "DT_FLOAT"}}}, {"name": "model/conv2d_25/Conv2D", "op": "Conv2D", "input": ["model/tf.nn.relu6_25/Relu6", "model/conv2d_25/Conv2D/ReadVariableOp"], "device": "/device:CPU:0", "attr": {"dilations": {"list": {"i": ["1", "1", "1", "1"]}}, "explicit_paddings": {"list": {}}, "use_cudnn_on_gpu": {"b": true}, "padding": {"s": "VkFMSUQ="}, "strides": {"list": {"i": ["1", "1", "1", "1"]}}, "T": {"type": "DT_FLOAT"}, "data_format": {"s": "TkhXQw=="}}}, {"name": "model/tf.math.add_45/Add", "op": "Add", "input": ["model/conv2d_25/Conv2D", "model/tf.math.add_45/Add/y"], "attr": {"T": {"type": "DT_FLOAT"}}}, {"name": "model/tf.math.add_46/Add", "op": "Add", "input": ["model/tf.math.add_42/Add", "model/tf.math.add_45/Add"], "attr": {"T": {"type": "DT_FLOAT"}}}, {"name": "model/conv2d_26/Conv2D", "op": "Conv2D", "input": ["model/tf.math.add_46/Add", "model/conv2d_26/Conv2D/ReadVariableOp"], "device": "/device:CPU:0", "attr": {"explicit_paddings": {"list": {}}, "use_cudnn_on_gpu": {"b": true}, "T": {"type": "DT_FLOAT"}, "data_format": {"s": "TkhXQw=="}, "padding": {"s": "VkFMSUQ="}, "dilations": {"list": {"i": ["1", "1", "1", "1"]}}, "strides": {"list": {"i": ["1", "1", "1", "1"]}}}}, {"name": "model/tf.math.add_47/Add", "op": "Add", "input": ["model/conv2d_26/Conv2D", "model/tf.math.add_47/Add/y"], "attr": {"T": {"type": "DT_FLOAT"}}}, {"name": "model/tf.nn.relu6_26/Relu6", "op": "Relu6", "input": ["model/tf.math.add_47/Add"], "attr": {"T": {"type": "DT_FLOAT"}}}, {"name": "model/zero_padding2d_14/Pad", "op": "Pad", "input": ["model/tf.nn.relu6_26/Relu6", "model/zero_padding2d_14/Pad/paddings"], "attr": {"Tpaddings": {"type": "DT_INT32"}, "T": {"type": "DT_FLOAT"}}}, {"name": "model/depthwise_conv2d_13/depthwise", "op": "DepthwiseConv2dNative", "input": ["model/zero_padding2d_14/Pad", "model/depthwise_conv2d_13/depthwise/ReadVariableOp"], "attr": {"dilations": {"list": {"i": ["1", "1", "1", "1"]}}, "T": {"type": "DT_FLOAT"}, "padding": {"s": "VkFMSUQ="}, "data_format": {"s": "TkhXQw=="}, "explicit_paddings": {"list": {}}, "strides": {"list": {"i": ["1", "2", "2", "1"]}}}}, {"name": "model/tf.math.add_48/Add", "op": "Add", "input": ["model/depthwise_conv2d_13/depthwise", "model/tf.math.add_48/Add/y"], "attr": {"T": {"type": "DT_FLOAT"}}}, {"name": "model/tf.nn.relu6_27/Relu6", "op": "Relu6", "input": ["model/tf.math.add_48/Add"], "attr": {"T": {"type": "DT_FLOAT"}}}, {"name": "model/conv2d_27/Conv2D", "op": "Conv2D", "input": ["model/tf.nn.relu6_27/Relu6", "model/conv2d_27/Conv2D/ReadVariableOp"], "device": "/device:CPU:0", "attr": {"use_cudnn_on_gpu": {"b": true}, "explicit_paddings": {"list": {}}, "T": {"type": "DT_FLOAT"}, "strides": {"list": {"i": ["1", "1", "1", "1"]}}, "dilations": {"list": {"i": ["1", "1", "1", "1"]}}, "data_format": {"s": "TkhXQw=="}, "padding": {"s": "VkFMSUQ="}}}, {"name": "model/tf.math.add_49/Add", "op": "Add", "input": ["model/conv2d_27/Conv2D", "model/tf.math.add_49/Add/y"], "attr": {"T": {"type": "DT_FLOAT"}}}, {"name": "model/conv2d_28/Conv2D", "op": "Conv2D", "input": ["model/tf.math.add_49/Add", "model/conv2d_28/Conv2D/ReadVariableOp"], "device": "/device:CPU:0", "attr": {"data_format": {"s": "TkhXQw=="}, "use_cudnn_on_gpu": {"b": true}, "T": {"type": "DT_FLOAT"}, "strides": {"list": {"i": ["1", "1", "1", "1"]}}, "explicit_paddings": {"list": {}}, "padding": {"s": "VkFMSUQ="}, "dilations": {"list": {"i": ["1", "1", "1", "1"]}}}}, {"name": "model/tf.math.add_50/Add", "op": "Add", "input": ["model/conv2d_28/Conv2D", "model/tf.math.add_50/Add/y"], "attr": {"T": {"type": "DT_FLOAT"}}}, {"name": "model/tf.nn.relu6_28/Relu6", "op": "Relu6", "input": ["model/tf.math.add_50/Add"], "attr": {"T": {"type": "DT_FLOAT"}}}, {"name": "model/zero_padding2d_15/Pad", "op": "Pad", "input": ["model/tf.nn.relu6_28/Relu6", "model/zero_padding2d_15/Pad/paddings"], "attr": {"Tpaddings": {"type": "DT_INT32"}, "T": {"type": "DT_FLOAT"}}}, {"name": "model/depthwise_conv2d_14/depthwise", "op": "DepthwiseConv2dNative", "input": ["model/zero_padding2d_15/Pad", "model/depthwise_conv2d_14/depthwise/ReadVariableOp"], "attr": {"padding": {"s": "VkFMSUQ="}, "dilations": {"list": {"i": ["1", "1", "1", "1"]}}, "strides": {"list": {"i": ["1", "1", "1", "1"]}}, "explicit_paddings": {"list": {}}, "data_format": {"s": "TkhXQw=="}, "T": {"type": "DT_FLOAT"}}}, {"name": "model/tf.math.add_51/Add", "op": "Add", "input": ["model/depthwise_conv2d_14/depthwise", "model/tf.math.add_51/Add/y"], "attr": {"T": {"type": "DT_FLOAT"}}}, {"name": "model/tf.nn.relu6_29/Relu6", "op": "Relu6", "input": ["model/tf.math.add_51/Add"], "attr": {"T": {"type": "DT_FLOAT"}}}, {"name": "model/conv2d_29/Conv2D", "op": "Conv2D", "input": ["model/tf.nn.relu6_29/Relu6", "model/conv2d_29/Conv2D/ReadVariableOp"], "device": "/device:CPU:0", "attr": {"use_cudnn_on_gpu": {"b": true}, "explicit_paddings": {"list": {}}, "padding": {"s": "VkFMSUQ="}, "T": {"type": "DT_FLOAT"}, "strides": {"list": {"i": ["1", "1", "1", "1"]}}, "data_format": {"s": "TkhXQw=="}, "dilations": {"list": {"i": ["1", "1", "1", "1"]}}}}, {"name": "model/tf.math.add_52/Add", "op": "Add", "input": ["model/conv2d_29/Conv2D", "model/tf.math.add_52/Add/y"], "attr": {"T": {"type": "DT_FLOAT"}}}, {"name": "model/tf.math.add_53/Add", "op": "Add", "input": ["model/tf.math.add_49/Add", "model/tf.math.add_52/Add"], "attr": {"T": {"type": "DT_FLOAT"}}}, {"name": "model/conv2d_30/Conv2D", "op": "Conv2D", "input": ["model/tf.math.add_53/Add", "model/conv2d_30/Conv2D/ReadVariableOp"], "device": "/device:CPU:0", "attr": {"explicit_paddings": {"list": {}}, "data_format": {"s": "TkhXQw=="}, "T": {"type": "DT_FLOAT"}, "strides": {"list": {"i": ["1", "1", "1", "1"]}}, "padding": {"s": "VkFMSUQ="}, "use_cudnn_on_gpu": {"b": true}, "dilations": {"list": {"i": ["1", "1", "1", "1"]}}}}, {"name": "model/tf.math.add_54/Add", "op": "Add", "input": ["model/conv2d_30/Conv2D", "model/tf.math.add_54/Add/y"], "attr": {"T": {"type": "DT_FLOAT"}}}, {"name": "model/tf.nn.relu6_30/Relu6", "op": "Relu6", "input": ["model/tf.math.add_54/Add"], "attr": {"T": {"type": "DT_FLOAT"}}}, {"name": "model/zero_padding2d_16/Pad", "op": "Pad", "input": ["model/tf.nn.relu6_30/Relu6", "model/zero_padding2d_16/Pad/paddings"], "attr": {"T": {"type": "DT_FLOAT"}, "Tpaddings": {"type": "DT_INT32"}}}, {"name": "model/depthwise_conv2d_15/depthwise", "op": "DepthwiseConv2dNative", "input": ["model/zero_padding2d_16/Pad", "model/depthwise_conv2d_15/depthwise/ReadVariableOp"], "attr": {"explicit_paddings": {"list": {}}, "strides": {"list": {"i": ["1", "1", "1", "1"]}}, "padding": {"s": "VkFMSUQ="}, "dilations": {"list": {"i": ["1", "1", "1", "1"]}}, "data_format": {"s": "TkhXQw=="}, "T": {"type": "DT_FLOAT"}}}, {"name": "model/tf.math.add_55/Add", "op": "Add", "input": ["model/depthwise_conv2d_15/depthwise", "model/tf.math.add_55/Add/y"], "attr": {"T": {"type": "DT_FLOAT"}}}, {"name": "model/tf.nn.relu6_31/Relu6", "op": "Relu6", "input": ["model/tf.math.add_55/Add"], "attr": {"T": {"type": "DT_FLOAT"}}}, {"name": "model/conv2d_31/Conv2D", "op": "Conv2D", "input": ["model/tf.nn.relu6_31/Relu6", "model/conv2d_31/Conv2D/ReadVariableOp"], "device": "/device:CPU:0", "attr": {"padding": {"s": "VkFMSUQ="}, "strides": {"list": {"i": ["1", "1", "1", "1"]}}, "use_cudnn_on_gpu": {"b": true}, "T": {"type": "DT_FLOAT"}, "data_format": {"s": "TkhXQw=="}, "dilations": {"list": {"i": ["1", "1", "1", "1"]}}, "explicit_paddings": {"list": {}}}}, {"name": "model/tf.math.add_56/Add", "op": "Add", "input": ["model/conv2d_31/Conv2D", "model/tf.math.add_56/Add/y"], "attr": {"T": {"type": "DT_FLOAT"}}}, {"name": "model/tf.math.add_57/Add", "op": "Add", "input": ["model/tf.math.add_53/Add", "model/tf.math.add_56/Add"], "attr": {"T": {"type": "DT_FLOAT"}}}, {"name": "model/conv2d_32/Conv2D", "op": "Conv2D", "input": ["model/tf.math.add_57/Add", "model/conv2d_32/Conv2D/ReadVariableOp"], "device": "/device:CPU:0", "attr": {"explicit_paddings": {"list": {}}, "padding": {"s": "VkFMSUQ="}, "dilations": {"list": {"i": ["1", "1", "1", "1"]}}, "data_format": {"s": "TkhXQw=="}, "use_cudnn_on_gpu": {"b": true}, "T": {"type": "DT_FLOAT"}, "strides": {"list": {"i": ["1", "1", "1", "1"]}}}}, {"name": "model/tf.math.add_58/Add", "op": "Add", "input": ["model/conv2d_32/Conv2D", "model/tf.math.add_58/Add/y"], "attr": {"T": {"type": "DT_FLOAT"}}}, {"name": "model/tf.nn.relu6_32/Relu6", "op": "Relu6", "input": ["model/tf.math.add_58/Add"], "attr": {"T": {"type": "DT_FLOAT"}}}, {"name": "model/zero_padding2d_17/Pad", "op": "Pad", "input": ["model/tf.nn.relu6_32/Relu6", "model/zero_padding2d_17/Pad/paddings"], "attr": {"Tpaddings": {"type": "DT_INT32"}, "T": {"type": "DT_FLOAT"}}}, {"name": "model/depthwise_conv2d_16/depthwise", "op": "DepthwiseConv2dNative", "input": ["model/zero_padding2d_17/Pad", "model/depthwise_conv2d_16/depthwise/ReadVariableOp"], "attr": {"dilations": {"list": {"i": ["1", "1", "1", "1"]}}, "T": {"type": "DT_FLOAT"}, "padding": {"s": "VkFMSUQ="}, "strides": {"list": {"i": ["1", "1", "1", "1"]}}, "explicit_paddings": {"list": {}}, "data_format": {"s": "TkhXQw=="}}}, {"name": "model/tf.math.add_59/Add", "op": "Add", "input": ["model/depthwise_conv2d_16/depthwise", "model/tf.math.add_59/Add/y"], "attr": {"T": {"type": "DT_FLOAT"}}}, {"name": "model/tf.nn.relu6_33/Relu6", "op": "Relu6", "input": ["model/tf.math.add_59/Add"], "attr": {"T": {"type": "DT_FLOAT"}}}, {"name": "model/conv2d_33/Conv2D", "op": "Conv2D", "input": ["model/tf.nn.relu6_33/Relu6", "model/conv2d_33/Conv2D/ReadVariableOp"], "device": "/device:CPU:0", "attr": {"use_cudnn_on_gpu": {"b": true}, "padding": {"s": "VkFMSUQ="}, "T": {"type": "DT_FLOAT"}, "strides": {"list": {"i": ["1", "1", "1", "1"]}}, "data_format": {"s": "TkhXQw=="}, "explicit_paddings": {"list": {}}, "dilations": {"list": {"i": ["1", "1", "1", "1"]}}}}, {"name": "model/tf.math.add_60/Add", "op": "Add", "input": ["model/conv2d_33/Conv2D", "model/tf.math.add_60/Add/y"], "attr": {"T": {"type": "DT_FLOAT"}}}, {"name": "model/conv2d_34/Conv2D", "op": "Conv2D", "input": ["model/tf.math.add_60/Add", "model/conv2d_34/Conv2D/ReadVariableOp"], "device": "/device:CPU:0", "attr": {"explicit_paddings": {"list": {}}, "data_format": {"s": "TkhXQw=="}, "padding": {"s": "VkFMSUQ="}, "strides": {"list": {"i": ["1", "1", "1", "1"]}}, "use_cudnn_on_gpu": {"b": true}, "T": {"type": "DT_FLOAT"}, "dilations": {"list": {"i": ["1", "1", "1", "1"]}}}}, {"name": "model/tf.math.add_61/Add", "op": "Add", "input": ["model/conv2d_34/Conv2D", "model/tf.math.add_61/Add/y"], "attr": {"T": {"type": "DT_FLOAT"}}}, {"name": "model/tf.nn.relu6_34/Relu6", "op": "Relu6", "input": ["model/tf.math.add_61/Add"], "attr": {"T": {"type": "DT_FLOAT"}}}, {"name": "model/tf.math.reduce_mean/Mean", "op": "Mean", "input": ["model/tf.nn.relu6_34/Relu6", "model/tf.math.reduce_mean/Mean/reduction_indices"], "attr": {"Tidx": {"type": "DT_INT32"}, "T": {"type": "DT_FLOAT"}, "keep_dims": {"b": true}}}, {"name": "model/tf.reshape/Reshape", "op": "Reshape", "input": ["model/tf.math.reduce_mean/Mean", "model/tf.reshape/Reshape/shape"], "attr": {"Tshape": {"type": "DT_INT64"}, "T": {"type": "DT_FLOAT"}}}, {"name": "model/tf.linalg.matmul/MatMul", "op": "MatMul", "input": ["model/tf.reshape/Reshape", "model/tf.linalg.matmul/MatMul/b"], "device": "/device:CPU:0", "attr": {"T": {"type": "DT_FLOAT"}, "transpose_a": {"b": false}, "transpose_b": {"b": true}}}, {"name": "model/tf.nn.relu/Relu", "op": "Relu", "input": ["model/tf.linalg.matmul/MatMul"], "attr": {"T": {"type": "DT_FLOAT"}}}, {"name": "model/tf.linalg.matmul_1/MatMul", "op": "MatMul", "input": ["model/tf.nn.relu/Relu", "model/tf.linalg.matmul_1/MatMul/b"], "device": "/device:CPU:0", "attr": {"transpose_b": {"b": true}, "T": {"type": "DT_FLOAT"}, "transpose_a": {"b": false}}}, {"name": "model/tf.math.sigmoid/Sigmoid", "op": "Sigmoid", "input": ["model/tf.linalg.matmul_1/MatMul"], "attr": {"T": {"type": "DT_FLOAT"}}}, {"name": "model/tf.reshape_1/Reshape", "op": "Reshape", "input": ["model/tf.math.sigmoid/Sigmoid", "model/tf.reshape_1/Reshape/shape"], "attr": {"T": {"type": "DT_FLOAT"}, "Tshape": {"type": "DT_INT32"}}}, {"name": "model/tf.math.multiply/Mul", "op": "BroadcastTo", "input": ["model/tf.reshape_1/Reshape", "ConstantFolding/model/tf.math.multiply/Mul-broadcastto_shape-0"], "attr": {"Tidx": {"type": "DT_INT32"}, "T": {"type": "DT_FLOAT"}}}, {"name": "model/tf.math.multiply_1/Mul", "op": "Mul", "input": ["model/tf.nn.relu6_34/Relu6", "model/tf.math.multiply/Mul"], "attr": {"T": {"type": "DT_FLOAT"}}}, {"name": "model/lambda/resize/ResizeBilinear", "op": "ResizeBilinear", "input": ["model/tf.math.multiply_1/Mul", "model/lambda/resize/size"], "attr": {"T": {"type": "DT_FLOAT"}, "half_pixel_centers": {"b": true}, "align_corners": {"b": false}}}, {"name": "model/zero_padding2d_18/Pad", "op": "Pad", "input": ["model/lambda/resize/ResizeBilinear", "model/zero_padding2d_18/Pad/paddings"], "attr": {"Tpaddings": {"type": "DT_INT32"}, "T": {"type": "DT_FLOAT"}}}, {"name": "model/conv2d_35/Conv2D", "op": "Conv2D", "input": ["model/zero_padding2d_18/Pad", "model/conv2d_35/Conv2D/ReadVariableOp"], "device": "/device:CPU:0", "attr": {"use_cudnn_on_gpu": {"b": true}, "dilations": {"list": {"i": ["1", "1", "1", "1"]}}, "data_format": {"s": "TkhXQw=="}, "explicit_paddings": {"list": {}}, "padding": {"s": "VkFMSUQ="}, "T": {"type": "DT_FLOAT"}, "strides": {"list": {"i": ["1", "1", "1", "1"]}}}}, {"name": "model/tf.math.add_62/Add", "op": "Add", "input": ["model/conv2d_35/Conv2D", "model/tf.math.add_62/Add/y"], "attr": {"T": {"type": "DT_FLOAT"}}}, {"name": "model/tf.strided_slice/StridedSlice", "op": "StridedSlice", "input": ["model/tf.math.add_62/Add", "model/tf.strided_slice/StridedSlice/begin", "model/tf.strided_slice/StridedSlice/end", "model/tf.strided_slice/StridedSlice/strides"], "attr": {"new_axis_mask": {"i": "0"}, "ellipsis_mask": {"i": "0"}, "T": {"type": "DT_FLOAT"}, "end_mask": {"i": "3"}, "begin_mask": {"i": "-1"}, "shrink_axis_mask": {"i": "0"}, "Index": {"type": "DT_INT64"}}}, {"name": "model/tf.strided_slice_1/StridedSlice", "op": "StridedSlice", "input": ["model/tf.math.add_62/Add", "model/tf.strided_slice_1/StridedSlice/begin", "model/tf.strided_slice_1/StridedSlice/end", "model/tf.strided_slice_1/StridedSlice/strides"], "attr": {"T": {"type": "DT_FLOAT"}, "begin_mask": {"i": "3"}, "Index": {"type": "DT_INT64"}, "end_mask": {"i": "3"}, "ellipsis_mask": {"i": "0"}, "shrink_axis_mask": {"i": "0"}, "new_axis_mask": {"i": "0"}}}, {"name": "model/tf.math.multiply_2/Mul", "op": "Mul", "input": ["model/tf.strided_slice/StridedSlice", "model/tf.math.multiply_2/Mul/y"], "attr": {"T": {"type": "DT_FLOAT"}}}, {"name": "model/tf.math.reduce_mean_1/Mean", "op": "Mean", "input": ["model/tf.strided_slice_1/StridedSlice", "model/tf.math.reduce_mean_1/Const"], "attr": {"Tidx": {"type": "DT_INT32"}, "keep_dims": {"b": true}, "T": {"type": "DT_FLOAT"}}}, {"name": "model/tf.math.reduce_mean_2/Mean", "op": "Mean", "input": ["model/tf.strided_slice_1/StridedSlice", "model/tf.math.reduce_mean_2/Const"], "attr": {"Tidx": {"type": "DT_INT32"}, "T": {"type": "DT_FLOAT"}, "keep_dims": {"b": true}}}, {"name": "model/tf.math.add_63/Add", "op": "Add", "input": ["model/tf.math.multiply_2/Mul", "model/tf.math.add_63/Add/y"], "attr": {"T": {"type": "DT_FLOAT"}}}, {"name": "model/tf.math.subtract_1/Sub", "op": "Sub", "input": ["model/tf.strided_slice_1/StridedSlice", "model/tf.math.reduce_mean_1/Mean"], "attr": {"T": {"type": "DT_FLOAT"}}}, {"name": "model/tf.math.subtract/Sub", "op": "SquaredDifference", "input": ["model/tf.strided_slice_1/StridedSlice", "model/tf.math.reduce_mean_2/Mean"], "attr": {"T": {"type": "DT_FLOAT"}}}, {"name": "model/tf.math.reduce_mean_3/Mean", "op": "Mean", "input": ["model/tf.math.subtract/Sub", "model/tf.math.reduce_mean_3/Const"], "attr": {"T": {"type": "DT_FLOAT"}, "Tidx": {"type": "DT_INT32"}, "keep_dims": {"b": true}}}, {"name": "model/tf.__operators__.add/AddV2", "op": "AddV2", "input": ["model/tf.math.reduce_mean_3/Mean", "model/tf.__operators__.add/y"], "attr": {"T": {"type": "DT_FLOAT"}}}, {"name": "model/tf.math.sqrt/Sqrt", "op": "Rsqrt", "input": ["model/tf.__operators__.add/AddV2"], "attr": {"T": {"type": "DT_FLOAT"}}}, {"name": "model/tf.math.truediv/truediv", "op": "Mul", "input": ["model/tf.math.subtract_1/Sub", "model/tf.math.sqrt/Sqrt"], "attr": {"T": {"type": "DT_FLOAT"}}}, {"name": "model/tf.concat/concat", "op": "ConcatV2", "input": ["model/tf.math.add_63/Add", "model/tf.math.truediv/truediv", "model/tf.concat/concat/axis"], "attr": {"T": {"type": "DT_FLOAT"}, "N": {"i": "2"}, "Tidx": {"type": "DT_INT32"}}}, {"name": "model/tf.nn.relu_1/Relu", "op": "Relu", "input": ["model/tf.concat/concat"], "attr": {"T": {"type": "DT_FLOAT"}}}, {"name": "model/lambda_1/resize/ResizeBilinear", "op": "ResizeBilinear", "input": ["model/tf.nn.relu_1/Relu", "model/lambda_1/resize/size"], "attr": {"align_corners": {"b": false}, "T": {"type": "DT_FLOAT"}, "half_pixel_centers": {"b": true}}}, {"name": "model/zero_padding2d_19/Pad", "op": "Pad", "input": ["model/lambda_1/resize/ResizeBilinear", "model/zero_padding2d_19/Pad/paddings"], "attr": {"Tpaddings": {"type": "DT_INT32"}, "T": {"type": "DT_FLOAT"}}}, {"name": "model/conv2d_36/Conv2D", "op": "Conv2D", "input": ["model/zero_padding2d_19/Pad", "model/conv2d_36/Conv2D/ReadVariableOp"], "device": "/device:CPU:0", "attr": {"data_format": {"s": "TkhXQw=="}, "T": {"type": "DT_FLOAT"}, "dilations": {"list": {"i": ["1", "1", "1", "1"]}}, "use_cudnn_on_gpu": {"b": true}, "padding": {"s": "VkFMSUQ="}, "strides": {"list": {"i": ["1", "1", "1", "1"]}}, "explicit_paddings": {"list": {}}}}, {"name": "model/tf.math.add_65/Add", "op": "Add", "input": ["model/conv2d_36/Conv2D", "model/tf.math.add_65/Add/y"], "attr": {"T": {"type": "DT_FLOAT"}}}, {"name": "model/tf.strided_slice_2/StridedSlice", "op": "StridedSlice", "input": ["model/tf.math.add_65/Add", "model/tf.strided_slice_2/StridedSlice/begin", "model/tf.strided_slice_2/StridedSlice/end", "model/tf.strided_slice_2/StridedSlice/strides"], "attr": {"end_mask": {"i": "3"}, "ellipsis_mask": {"i": "0"}, "shrink_axis_mask": {"i": "0"}, "Index": {"type": "DT_INT64"}, "new_axis_mask": {"i": "0"}, "begin_mask": {"i": "-1"}, "T": {"type": "DT_FLOAT"}}}, {"name": "model/tf.strided_slice_3/StridedSlice", "op": "StridedSlice", "input": ["model/tf.math.add_65/Add", "model/tf.strided_slice_3/StridedSlice/begin", "model/tf.strided_slice_3/StridedSlice/end", "model/tf.strided_slice_3/StridedSlice/strides"], "attr": {"T": {"type": "DT_FLOAT"}, "end_mask": {"i": "3"}, "begin_mask": {"i": "3"}, "ellipsis_mask": {"i": "0"}, "new_axis_mask": {"i": "0"}, "shrink_axis_mask": {"i": "0"}, "Index": {"type": "DT_INT64"}}}, {"name": "model/tf.math.multiply_4/Mul", "op": "Mul", "input": ["model/tf.strided_slice_2/StridedSlice", "model/tf.math.multiply_4/Mul/y"], "attr": {"T": {"type": "DT_FLOAT"}}}, {"name": "model/tf.math.reduce_mean_4/Mean", "op": "Mean", "input": ["model/tf.strided_slice_3/StridedSlice", "model/tf.math.reduce_mean_4/Const"], "attr": {"keep_dims": {"b": true}, "T": {"type": "DT_FLOAT"}, "Tidx": {"type": "DT_INT32"}}}, {"name": "model/tf.math.reduce_mean_5/Mean", "op": "Mean", "input": ["model/tf.strided_slice_3/StridedSlice", "model/tf.math.reduce_mean_5/Const"], "attr": {"T": {"type": "DT_FLOAT"}, "Tidx": {"type": "DT_INT32"}, "keep_dims": {"b": true}}}, {"name": "model/tf.math.add_66/Add", "op": "Add", "input": ["model/tf.math.multiply_4/Mul", "model/tf.math.add_66/Add/y"], "attr": {"T": {"type": "DT_FLOAT"}}}, {"name": "model/tf.math.subtract_3/Sub", "op": "Sub", "input": ["model/tf.strided_slice_3/StridedSlice", "model/tf.math.reduce_mean_4/Mean"], "attr": {"T": {"type": "DT_FLOAT"}}}, {"name": "model/tf.math.subtract_2/Sub", "op": "SquaredDifference", "input": ["model/tf.strided_slice_3/StridedSlice", "model/tf.math.reduce_mean_5/Mean"], "attr": {"T": {"type": "DT_FLOAT"}}}, {"name": "model/tf.math.reduce_mean_6/Mean", "op": "Mean", "input": ["model/tf.math.subtract_2/Sub", "model/tf.math.reduce_mean_6/Const"], "attr": {"Tidx": {"type": "DT_INT32"}, "T": {"type": "DT_FLOAT"}, "keep_dims": {"b": true}}}, {"name": "model/tf.__operators__.add_1/AddV2", "op": "AddV2", "input": ["model/tf.math.reduce_mean_6/Mean", "model/tf.__operators__.add_1/y"], "attr": {"T": {"type": "DT_FLOAT"}}}, {"name": "model/tf.math.sqrt_1/Sqrt", "op": "Rsqrt", "input": ["model/tf.__operators__.add_1/AddV2"], "attr": {"T": {"type": "DT_FLOAT"}}}, {"name": "model/tf.math.truediv_1/truediv", "op": "Mul", "input": ["model/tf.math.subtract_3/Sub", "model/tf.math.sqrt_1/Sqrt"], "attr": {"T": {"type": "DT_FLOAT"}}}, {"name": "model/tf.concat_1/concat", "op": "ConcatV2", "input": ["model/tf.math.add_66/Add", "model/tf.math.truediv_1/truediv", "model/tf.concat_1/concat/axis"], "attr": {"T": {"type": "DT_FLOAT"}, "N": {"i": "2"}, "Tidx": {"type": "DT_INT32"}}}, {"name": "model/tf.nn.relu_2/Relu", "op": "Relu", "input": ["model/tf.concat_1/concat"], "attr": {"T": {"type": "DT_FLOAT"}}}, {"name": "model/lambda_2/resize/ResizeBilinear", "op": "ResizeBilinear", "input": ["model/tf.nn.relu_2/Relu", "model/lambda_2/resize/size"], "attr": {"align_corners": {"b": false}, "half_pixel_centers": {"b": true}, "T": {"type": "DT_FLOAT"}}}, {"name": "model/lambda_4/resize/ResizeBilinear", "op": "ResizeBilinear", "input": ["model/tf.nn.relu_2/Relu", "model/lambda_4/resize/size"], "attr": {"T": {"type": "DT_FLOAT"}, "half_pixel_centers": {"b": true}, "align_corners": {"b": false}}}, {"name": "model/zero_padding2d_20/Pad", "op": "Pad", "input": ["model/lambda_2/resize/ResizeBilinear", "model/zero_padding2d_20/Pad/paddings"], "attr": {"T": {"type": "DT_FLOAT"}, "Tpaddings": {"type": "DT_INT32"}}}, {"name": "model/tf.concat_9/concat", "op": "ConcatV2", "input": ["model/tf.nn.relu_7/Relu", "model/lambda_4/resize/ResizeBilinear", "model/tf.image.resize_1/resize/ResizeBilinear", "model/tf.concat_9/concat/axis"], "attr": {"T": {"type": "DT_FLOAT"}, "Tidx": {"type": "DT_INT32"}, "N": {"i": "3"}}}, {"name": "model/conv2d_37/Conv2D", "op": "Conv2D", "input": ["model/zero_padding2d_20/Pad", "model/conv2d_37/Conv2D/ReadVariableOp"], "device": "/device:CPU:0", "attr": {"T": {"type": "DT_FLOAT"}, "dilations": {"list": {"i": ["1", "1", "1", "1"]}}, "strides": {"list": {"i": ["1", "1", "1", "1"]}}, "explicit_paddings": {"list": {}}, "data_format": {"s": "TkhXQw=="}, "padding": {"s": "VkFMSUQ="}, "use_cudnn_on_gpu": {"b": true}}}, {"name": "model/zero_padding2d_23/Pad", "op": "Pad", "input": ["model/tf.concat_9/concat", "model/zero_padding2d_23/Pad/paddings"], "attr": {"Tpaddings": {"type": "DT_INT32"}, "T": {"type": "DT_FLOAT"}}}, {"name": "model/tf.math.add_68/Add", "op": "Add", "input": ["model/conv2d_37/Conv2D", "model/tf.math.add_68/Add/y"], "attr": {"T": {"type": "DT_FLOAT"}}}, {"name": "model/conv2d_42/Conv2D", "op": "Conv2D", "input": ["model/zero_padding2d_23/Pad", "model/conv2d_42/Conv2D/ReadVariableOp"], "device": "/device:CPU:0", "attr": {"data_format": {"s": "TkhXQw=="}, "padding": {"s": "VkFMSUQ="}, "T": {"type": "DT_FLOAT"}, "strides": {"list": {"i": ["1", "1", "1", "1"]}}, "use_cudnn_on_gpu": {"b": true}, "explicit_paddings": {"list": {}}, "dilations": {"list": {"i": ["1", "1", "1", "1"]}}}}, {"name": "model/tf.strided_slice_4/StridedSlice", "op": "StridedSlice", "input": ["model/tf.math.add_68/Add", "model/tf.strided_slice_4/StridedSlice/begin", "model/tf.strided_slice_4/StridedSlice/end", "model/tf.strided_slice_4/StridedSlice/strides"], "attr": {"end_mask": {"i": "3"}, "shrink_axis_mask": {"i": "0"}, "Index": {"type": "DT_INT64"}, "T": {"type": "DT_FLOAT"}, "begin_mask": {"i": "-1"}, "ellipsis_mask": {"i": "0"}, "new_axis_mask": {"i": "0"}}}, {"name": "model/tf.strided_slice_5/StridedSlice", "op": "StridedSlice", "input": ["model/tf.math.add_68/Add", "model/tf.strided_slice_5/StridedSlice/begin", "model/tf.strided_slice_5/StridedSlice/end", "model/tf.strided_slice_5/StridedSlice/strides"], "attr": {"shrink_axis_mask": {"i": "0"}, "Index": {"type": "DT_INT64"}, "T": {"type": "DT_FLOAT"}, "new_axis_mask": {"i": "0"}, "end_mask": {"i": "3"}, "ellipsis_mask": {"i": "0"}, "begin_mask": {"i": "3"}}}, {"name": "model/tf.math.add_83/Add", "op": "Add", "input": ["model/conv2d_42/Conv2D", "model/tf.math.add_83/Add/y"], "attr": {"T": {"type": "DT_FLOAT"}}}, {"name": "model/tf.math.multiply_6/Mul", "op": "Mul", "input": ["model/tf.strided_slice_4/StridedSlice", "model/tf.math.multiply_6/Mul/y"], "attr": {"T": {"type": "DT_FLOAT"}}}, {"name": "model/tf.math.reduce_mean_7/Mean", "op": "Mean", "input": ["model/tf.strided_slice_5/StridedSlice", "model/tf.math.reduce_mean_7/Co…
T64"}, "T": {"type": "DT_FLOAT"}, "end_mask": {"i": "3"}}}, {"name": "model/tf.math.multiply_26/Mul", "op": "Mul", "input": ["model/tf.strided_slice_24/StridedSlice", "model/tf.math.multiply_26/Mul/y"], "attr": {"T": {"type": "DT_FLOAT"}}}, {"name": "model/tf.math.reduce_mean_37/Mean", "op": "Mean", "input": ["model/tf.strided_slice_25/StridedSlice", "model/tf.math.reduce_mean_37/Const"], "attr": {"keep_dims": {"b": true}, "T": {"type": "DT_FLOAT"}, "Tidx": {"type": "DT_INT32"}}}, {"name": "model/tf.math.reduce_mean_38/Mean", "op": "Mean", "input": ["model/tf.strided_slice_25/StridedSlice", "model/tf.math.reduce_mean_38/Const"], "attr": {"keep_dims": {"b": true}, "Tidx": {"type": "DT_INT32"}, "T": {"type": "DT_FLOAT"}}}, {"name": "model/tf.math.add_99/Add", "op": "Add", "input": ["model/tf.math.multiply_26/Mul", "model/tf.math.add_99/Add/y"], "attr": {"T": {"type": "DT_FLOAT"}}}, {"name": "model/tf.math.subtract_25/Sub", "op": "Sub", "input": ["model/tf.strided_slice_25/StridedSlice", "model/tf.math.reduce_mean_37/Mean"], "attr": {"T": {"type": "DT_FLOAT"}}}, {"name": "model/tf.math.subtract_24/Sub", "op": "SquaredDifference", "input": ["model/tf.strided_slice_25/StridedSlice", "model/tf.math.reduce_mean_38/Mean"], "attr": {"T": {"type": "DT_FLOAT"}}}, {"name": "model/tf.math.reduce_mean_39/Mean", "op": "Mean", "input": ["model/tf.math.subtract_24/Sub", "model/tf.math.reduce_mean_39/Const"], "attr": {"T": {"type": "DT_FLOAT"}, "keep_dims": {"b": true}, "Tidx": {"type": "DT_INT32"}}}, {"name": "model/tf.__operators__.add_12/AddV2", "op": "AddV2", "input": ["model/tf.math.reduce_mean_39/Mean", "model/tf.__operators__.add_12/y"], "attr": {"T": {"type": "DT_FLOAT"}}}, {"name": "model/tf.math.sqrt_12/Sqrt", "op": "Rsqrt", "input": ["model/tf.__operators__.add_12/AddV2"], "attr": {"T": {"type": "DT_FLOAT"}}}, {"name": "model/tf.math.truediv_12/truediv", "op": "Mul", "input": ["model/tf.math.subtract_25/Sub", "model/tf.math.sqrt_12/Sqrt"], "attr": {"T": {"type": "DT_FLOAT"}}}, {"name": "model/tf.concat_16/concat", "op": "ConcatV2", "input": ["model/tf.math.add_99/Add", "model/tf.math.truediv_12/truediv", "model/tf.concat_16/concat/axis"], "attr": {"T": {"type": "DT_FLOAT"}, "Tidx": {"type": "DT_INT32"}, "N": {"i": "2"}}}, {"name": "model/tf.nn.relu_13/Relu", "op": "Relu", "input": ["model/tf.concat_16/concat"], "attr": {"T": {"type": "DT_FLOAT"}}}, {"name": "model/zero_padding2d_29/Pad", "op": "Pad", "input": ["model/tf.nn.relu_13/Relu", "model/zero_padding2d_29/Pad/paddings"], "attr": {"T": {"type": "DT_FLOAT"}, "Tpaddings": {"type": "DT_INT32"}}}, {"name": "model/conv2d_48/Conv2D", "op": "Conv2D", "input": ["model/zero_padding2d_29/Pad", "model/conv2d_48/Conv2D/ReadVariableOp"], "device": "/device:CPU:0", "attr": {"explicit_paddings": {"list": {}}, "padding": {"s": "VkFMSUQ="}, "strides": {"list": {"i": ["1", "1", "1", "1"]}}, "T": {"type": "DT_FLOAT"}, "data_format": {"s": "TkhXQw=="}, "dilations": {"list": {"i": ["1", "1", "1", "1"]}}, "use_cudnn_on_gpu": {"b": true}}}, {"name": "model/tf.math.add_101/Add", "op": "Add", "input": ["model/conv2d_48/Conv2D", "model/tf.math.add_101/Add/y"], "attr": {"T": {"type": "DT_FLOAT"}}}, {"name": "model/tf.strided_slice_26/StridedSlice", "op": "StridedSlice", "input": ["model/tf.math.add_101/Add", "model/tf.strided_slice_26/StridedSlice/begin", "model/tf.strided_slice_26/StridedSlice/end", "model/tf.strided_slice_26/StridedSlice/strides"], "attr": {"ellipsis_mask": {"i": "0"}, "Index": {"type": "DT_INT64"}, "begin_mask": {"i": "-1"}, "new_axis_mask": {"i": "0"}, "shrink_axis_mask": {"i": "0"}, "end_mask": {"i": "3"}, "T": {"type": "DT_FLOAT"}}}, {"name": "model/tf.strided_slice_27/StridedSlice", "op": "StridedSlice", "input": ["model/tf.math.add_101/Add", "model/tf.strided_slice_27/StridedSlice/begin", "model/tf.strided_slice_27/StridedSlice/end", "model/tf.strided_slice_27/StridedSlice/strides"], "attr": {"end_mask": {"i": "3"}, "ellipsis_mask": {"i": "0"}, "begin_mask": {"i": "3"}, "Index": {"type": "DT_INT64"}, "new_axis_mask": {"i": "0"}, "T": {"type": "DT_FLOAT"}, "shrink_axis_mask": {"i": "0"}}}, {"name": "model/tf.math.multiply_28/Mul", "op": "Mul", "input": ["model/tf.strided_slice_26/StridedSlice", "model/tf.math.multiply_28/Mul/y"], "attr": {"T": {"type": "DT_FLOAT"}}}, {"name": "model/tf.math.reduce_mean_40/Mean", "op": "Mean", "input": ["model/tf.strided_slice_27/StridedSlice", "model/tf.math.reduce_mean_40/Const"], "attr": {"T": {"type": "DT_FLOAT"}, "Tidx": {"type": "DT_INT32"}, "keep_dims": {"b": true}}}, {"name": "model/tf.math.reduce_mean_41/Mean", "op": "Mean", "input": ["model/tf.strided_slice_27/StridedSlice", "model/tf.math.reduce_mean_41/Const"], "attr": {"Tidx": {"type": "DT_INT32"}, "T": {"type": "DT_FLOAT"}, "keep_dims": {"b": true}}}, {"name": "model/tf.math.add_102/Add", "op": "Add", "input": ["model/tf.math.multiply_28/Mul", "model/tf.math.add_102/Add/y"], "attr": {"T": {"type": "DT_FLOAT"}}}, {"name": "model/tf.math.subtract_27/Sub", "op": "Sub", "input": ["model/tf.strided_slice_27/StridedSlice", "model/tf.math.reduce_mean_40/Mean"], "attr": {"T": {"type": "DT_FLOAT"}}}, {"name": "model/tf.math.subtract_26/Sub", "op": "SquaredDifference", "input": ["model/tf.strided_slice_27/StridedSlice", "model/tf.math.reduce_mean_41/Mean"], "attr": {"T": {"type": "DT_FLOAT"}}}, {"name": "model/tf.math.reduce_mean_42/Mean", "op": "Mean", "input": ["model/tf.math.subtract_26/Sub", "model/tf.math.reduce_mean_42/Const"], "attr": {"Tidx": {"type": "DT_INT32"}, "T": {"type": "DT_FLOAT"}, "keep_dims": {"b": true}}}, {"name": "model/tf.__operators__.add_13/AddV2", "op": "AddV2", "input": ["model/tf.math.reduce_mean_42/Mean", "model/tf.__operators__.add_13/y"], "attr": {"T": {"type": "DT_FLOAT"}}}, {"name": "model/tf.math.sqrt_13/Sqrt", "op": "Rsqrt", "input": ["model/tf.__operators__.add_13/AddV2"], "attr": {"T": {"type": "DT_FLOAT"}}}, {"name": "model/tf.math.truediv_13/truediv", "op": "Mul", "input": ["model/tf.math.subtract_27/Sub", "model/tf.math.sqrt_13/Sqrt"], "attr": {"T": {"type": "DT_FLOAT"}}}, {"name": "model/tf.concat_17/concat", "op": "ConcatV2", "input": ["model/tf.math.add_102/Add", "model/tf.math.truediv_13/truediv", "model/tf.concat_17/concat/axis"], "attr": {"T": {"type": "DT_FLOAT"}, "Tidx": {"type": "DT_INT32"}, "N": {"i": "2"}}}, {"name": "model/tf.nn.relu_14/Relu", "op": "Relu", "input": ["model/tf.concat_17/concat"], "attr": {"T": {"type": "DT_FLOAT"}}}, {"name": "model/tf.concat_18/concat", "op": "ConcatV2", "input": ["model/lambda_3/resize/ResizeBilinear", "model/tf.nn.relu_14/Relu", "model/tf.concat_18/concat/axis"], "attr": {"Tidx": {"type": "DT_INT32"}, "N": {"i": "2"}, "T": {"type": "DT_FLOAT"}}}, {"name": "model/zero_padding2d_30/Pad", "op": "Pad", "input": ["model/tf.concat_18/concat", "model/zero_padding2d_30/Pad/paddings"], "attr": {"T": {"type": "DT_FLOAT"}, "Tpaddings": {"type": "DT_INT32"}}}, {"name": "model/conv2d_49/Conv2D", "op": "Conv2D", "input": ["model/zero_padding2d_30/Pad", "model/conv2d_49/Conv2D/ReadVariableOp"], "device": "/device:CPU:0", "attr": {"use_cudnn_on_gpu": {"b": true}, "T": {"type": "DT_FLOAT"}, "data_format": {"s": "TkhXQw=="}, "explicit_paddings": {"list": {}}, "padding": {"s": "VkFMSUQ="}, "strides": {"list": {"i": ["1", "1", "1", "1"]}}, "dilations": {"list": {"i": ["1", "1", "1", "1"]}}}}, {"name": "model/tf.math.add_104/Add", "op": "Add", "input": ["model/conv2d_49/Conv2D", "model/tf.math.add_104/Add/y"], "attr": {"T": {"type": "DT_FLOAT"}}}, {"name": "model/tf.strided_slice_28/StridedSlice", "op": "StridedSlice", "input": ["model/tf.math.add_104/Add", "model/tf.strided_slice_28/StridedSlice/begin", "model/tf.strided_slice_28/StridedSlice/end", "model/tf.strided_slice_28/StridedSlice/strides"], "attr": {"end_mask": {"i": "3"}, "new_axis_mask": {"i": "0"}, "begin_mask": {"i": "-1"}, "shrink_axis_mask": {"i": "0"}, "Index": {"type": "DT_INT64"}, "ellipsis_mask": {"i": "0"}, "T": {"type": "DT_FLOAT"}}}, {"name": "model/tf.strided_slice_29/StridedSlice", "op": "StridedSlice", "input": ["model/tf.math.add_104/Add", "model/tf.strided_slice_29/StridedSlice/begin", "model/tf.strided_slice_29/StridedSlice/end", "model/tf.strided_slice_29/StridedSlice/strides"], "attr": {"Index": {"type": "DT_INT64"}, "end_mask": {"i": "3"}, "ellipsis_mask": {"i": "0"}, "T": {"type": "DT_FLOAT"}, "shrink_axis_mask": {"i": "0"}, "begin_mask": {"i": "3"}, "new_axis_mask": {"i": "0"}}}, {"name": "model/tf.math.multiply_30/Mul", "op": "Mul", "input": ["model/tf.strided_slice_28/StridedSlice", "model/tf.math.multiply_30/Mul/y"], "attr": {"T": {"type": "DT_FLOAT"}}}, {"name": "model/tf.math.reduce_mean_43/Mean", "op": "Mean", "input": ["model/tf.strided_slice_29/StridedSlice", "model/tf.math.reduce_mean_43/Const"], "attr": {"Tidx": {"type": "DT_INT32"}, "keep_dims": {"b": true}, "T": {"type": "DT_FLOAT"}}}, {"name": "model/tf.math.reduce_mean_44/Mean", "op": "Mean", "input": ["model/tf.strided_slice_29/StridedSlice", "model/tf.math.reduce_mean_44/Const"], "attr": {"Tidx": {"type": "DT_INT32"}, "T": {"type": "DT_FLOAT"}, "keep_dims": {"b": true}}}, {"name": "model/tf.math.add_105/Add", "op": "Add", "input": ["model/tf.math.multiply_30/Mul", "model/tf.math.add_105/Add/y"], "attr": {"T": {"type": "DT_FLOAT"}}}, {"name": "model/tf.math.subtract_29/Sub", "op": "Sub", "input": ["model/tf.strided_slice_29/StridedSlice", "model/tf.math.reduce_mean_43/Mean"], "attr": {"T": {"type": "DT_FLOAT"}}}, {"name": "model/tf.math.subtract_28/Sub", "op": "SquaredDifference", "input": ["model/tf.strided_slice_29/StridedSlice", "model/tf.math.reduce_mean_44/Mean"], "attr": {"T": {"type": "DT_FLOAT"}}}, {"name": "model/tf.math.reduce_mean_45/Mean", "op": "Mean", "input": ["model/tf.math.subtract_28/Sub", "model/tf.math.reduce_mean_45/Const"], "attr": {"Tidx": {"type": "DT_INT32"}, "keep_dims": {"b": true}, "T": {"type": "DT_FLOAT"}}}, {"name": "model/tf.__operators__.add_14/AddV2", "op": "AddV2", "input": ["model/tf.math.reduce_mean_45/Mean", "model/tf.__operators__.add_14/y"], "attr": {"T": {"type": "DT_FLOAT"}}}, {"name": "model/tf.math.sqrt_14/Sqrt", "op": "Rsqrt", "input": ["model/tf.__operators__.add_14/AddV2"], "attr": {"T": {"type": "DT_FLOAT"}}}, {"name": "model/tf.math.truediv_14/truediv", "op": "Mul", "input": ["model/tf.math.subtract_29/Sub", "model/tf.math.sqrt_14/Sqrt"], "attr": {"T": {"type": "DT_FLOAT"}}}, {"name": "model/tf.concat_19/concat", "op": "ConcatV2", "input": ["model/tf.math.add_105/Add", "model/tf.math.truediv_14/truediv", "model/tf.concat_19/concat/axis"], "attr": {"T": {"type": "DT_FLOAT"}, "Tidx": {"type": "DT_INT32"}, "N": {"i": "2"}}}, {"name": "model/tf.nn.relu_15/Relu", "op": "Relu", "input": ["model/tf.concat_19/concat"], "attr": {"T": {"type": "DT_FLOAT"}}}, {"name": "model/lambda_6/resize/ResizeBilinear", "op": "ResizeBilinear", "input": ["model/tf.nn.relu_15/Relu", "model/lambda_6/resize/size"], "attr": {"half_pixel_centers": {"b": true}, "T": {"type": "DT_FLOAT"}, "align_corners": {"b": false}}}, {"name": "model/tf.concat_20/concat", "op": "ConcatV2", "input": ["model/lambda_6/resize/ResizeBilinear", "inputs", "model/tf.concat_20/concat/axis"], "attr": {"N": {"i": "2"}, "Tidx": {"type": "DT_INT32"}, "T": {"type": "DT_FLOAT"}}}, {"name": "model/zero_padding2d_31/Pad", "op": "Pad", "input": ["model/tf.concat_20/concat", "model/zero_padding2d_31/Pad/paddings"], "attr": {"T": {"type": "DT_FLOAT"}, "Tpaddings": {"type": "DT_INT32"}}}, {"name": "model/conv2d_50/Conv2D", "op": "Conv2D", "input": ["model/zero_padding2d_31/Pad", "model/conv2d_50/Conv2D/ReadVariableOp"], "device": "/device:CPU:0", "attr": {"T": {"type": "DT_FLOAT"}, "strides": {"list": {"i": ["1", "1", "1", "1"]}}, "dilations": {"list": {"i": ["1", "1", "1", "1"]}}, "data_format": {"s": "TkhXQw=="}, "padding": {"s": "VkFMSUQ="}, "use_cudnn_on_gpu": {"b": true}, "explicit_paddings": {"list": {}}}}, {"name": "model/tf.math.add_107/Add", "op": "Add", "input": ["model/conv2d_50/Conv2D", "model/tf.math.add_107/Add/y"], "attr": {"T": {"type": "DT_FLOAT"}}}, {"name": "model/tf.strided_slice_30/StridedSlice", "op": "StridedSlice", "input": ["model/tf.math.add_107/Add", "model/tf.strided_slice_30/StridedSlice/begin", "model/tf.strided_slice_30/StridedSlice/end", "model/tf.strided_slice_30/StridedSlice/strides"], "attr": {"begin_mask": {"i": "-1"}, "shrink_axis_mask": {"i": "0"}, "Index": {"type": "DT_INT64"}, "ellipsis_mask": {"i": "0"}, "T": {"type": "DT_FLOAT"}, "new_axis_mask": {"i": "0"}, "end_mask": {"i": "3"}}}, {"name": "model/tf.strided_slice_31/StridedSlice", "op": "StridedSlice", "input": ["model/tf.math.add_107/Add", "model/tf.strided_slice_31/StridedSlice/begin", "model/tf.strided_slice_31/StridedSlice/end", "model/tf.strided_slice_31/StridedSlice/strides"], "attr": {"begin_mask": {"i": "3"}, "new_axis_mask": {"i": "0"}, "T": {"type": "DT_FLOAT"}, "Index": {"type": "DT_INT64"}, "shrink_axis_mask": {"i": "0"}, "end_mask": {"i": "3"}, "ellipsis_mask": {"i": "0"}}}, {"name": "model/tf.math.multiply_32/Mul", "op": "Mul", "input": ["model/tf.strided_slice_30/StridedSlice", "model/tf.math.multiply_32/Mul/y"], "attr": {"T": {"type": "DT_FLOAT"}}}, {"name": "model/tf.math.reduce_mean_46/Mean", "op": "Mean", "input": ["model/tf.strided_slice_31/StridedSlice", "model/tf.math.reduce_mean_46/Const"], "attr": {"keep_dims": {"b": true}, "Tidx": {"type": "DT_INT32"}, "T": {"type": "DT_FLOAT"}}}, {"name": "model/tf.math.reduce_mean_47/Mean", "op": "Mean", "input": ["model/tf.strided_slice_31/StridedSlice", "model/tf.math.reduce_mean_47/Const"], "attr": {"keep_dims": {"b": true}, "T": {"type": "DT_FLOAT"}, "Tidx": {"type": "DT_INT32"}}}, {"name": "model/tf.math.add_108/Add", "op": "Add", "input": ["model/tf.math.multiply_32/Mul", "model/tf.math.add_108/Add/y"], "attr": {"T": {"type": "DT_FLOAT"}}}, {"name": "model/tf.math.subtract_31/Sub", "op": "Sub", "input": ["model/tf.strided_slice_31/StridedSlice", "model/tf.math.reduce_mean_46/Mean"], "attr": {"T": {"type": "DT_FLOAT"}}}, {"name": "model/tf.math.subtract_30/Sub", "op": "SquaredDifference", "input": ["model/tf.strided_slice_31/StridedSlice", "model/tf.math.reduce_mean_47/Mean"], "attr": {"T": {"type": "DT_FLOAT"}}}, {"name": "model/tf.math.reduce_mean_48/Mean", "op": "Mean", "input": ["model/tf.math.subtract_30/Sub", "model/tf.math.reduce_mean_48/Const"], "attr": {"keep_dims": {"b": true}, "Tidx": {"type": "DT_INT32"}, "T": {"type": "DT_FLOAT"}}}, {"name": "model/tf.__operators__.add_15/AddV2", "op": "AddV2", "input": ["model/tf.math.reduce_mean_48/Mean", "model/tf.__operators__.add_15/y"], "attr": {"T": {"type": "DT_FLOAT"}}}, {"name": "model/tf.math.sqrt_15/Sqrt", "op": "Rsqrt", "input": ["model/tf.__operators__.add_15/AddV2"], "attr": {"T": {"type": "DT_FLOAT"}}}, {"name": "model/tf.math.truediv_15/truediv", "op": "Mul", "input": ["model/tf.math.subtract_31/Sub", "model/tf.math.sqrt_15/Sqrt"], "attr": {"T": {"type": "DT_FLOAT"}}}, {"name": "model/tf.concat_21/concat", "op": "ConcatV2", "input": ["model/tf.math.add_108/Add", "model/tf.math.truediv_15/truediv", "model/tf.concat_21/concat/axis"], "attr": {"T": {"type": "DT_FLOAT"}, "Tidx": {"type": "DT_INT32"}, "N": {"i": "2"}}}, {"name": "model/tf.nn.relu_16/Relu", "op": "Relu", "input": ["model/tf.concat_21/concat"], "attr": {"T": {"type": "DT_FLOAT"}}}, {"name": "model/conv2d_51/Conv2D", "op": "Conv2D", "input": ["model/tf.nn.relu_16/Relu", "model/conv2d_51/Conv2D/ReadVariableOp"], "device": "/device:CPU:0", "attr": {"strides": {"list": {"i": ["1", "1", "1", "1"]}}, "T": {"type": "DT_FLOAT"}, "data_format": {"s": "TkhXQw=="}, "use_cudnn_on_gpu": {"b": true}, "explicit_paddings": {"list": {}}, "dilations": {"list": {"i": ["1", "1", "1", "1"]}}, "padding": {"s": "VkFMSUQ="}}}, {"name": "model/tf.math.add_110/Add", "op": "Add", "input": ["model/conv2d_51/Conv2D", "model/tf.math.add_110/Add/y"], "attr": {"T": {"type": "DT_FLOAT"}}}, {"name": "model/tf.math.sigmoid_1/Sigmoid", "op": "Sigmoid", "input": ["model/tf.math.add_110/Add"], "attr": {"T": {"type": "DT_FLOAT"}}}, {"name": "Identity", "op": "Identity", "input": ["model/tf.math.sigmoid_1/Sigmoid"], "attr": {"T": {"type": "DT_FLOAT"}}}], "library": {}, "versions": {"producer": 561}}, "weightsManifest": [{"paths": ["group1-shard1of1.bin"], "weights": [{"name": "model/tf.strided_slice_30/StridedSlice/begin", "shape": [4], "dtype": "int32"}, {"name": "model/tf.strided_slice_30/StridedSlice/end", "shape": [4], "dtype": "int32"}, {"name": "model/tf.strided_slice_30/StridedSlice/strides", "shape": [4], "dtype": "int32"}, {"name": "model/tf.math.multiply_32/Mul/y", "shape": [1, 1, 1, 8], "dtype": "float32"}, {"name": "model/tf.math.add_108/Add/y", "shape": [8], "dtype": "float32"}, {"name": "model/tf.math.reduce_mean_46/Const", "shape": [4], "dtype": "int32"}, {"name": "model/tf.strided_slice_28/StridedSlice/begin", "shape": [4], "dtype": "int32"}, {"name": "model/tf.strided_slice_28/StridedSlice/end", "shape": [4], "dtype": "int32"}, {"name": "model/tf.strided_slice_28/StridedSlice/strides", "shape": [4], "dtype": "int32"}, {"name": "model/tf.math.multiply_30/Mul/y", "shape": [1, 1, 1, 16], "dtype": "float32"}, {"name": "model/tf.math.add_105/Add/y", "shape": [16], "dtype": "float32"}, {"name": "model/tf.math.reduce_mean_43/Const", "shape": [4], "dtype": "int32"}, {"name": "model/tf.strided_slice_4/StridedSlice/begin", "shape": [4], "dtype": "int32"}, {"name": "model/tf.strided_slice_4/StridedSlice/end", "shape": [4], "dtype": "int32"}, {"name": "model/tf.strided_slice_4/StridedSlice/strides", "shape": [4], "dtype": "int32"}, {"name": "model/tf.math.multiply_6/Mul/y", "shape": [1, 1, 1, 16], "dtype": "float32"}, {"name": "model/tf.math.add_69/Add/y", "shape": [16], "dtype": "float32"}, {"name": "model/tf.math.reduce_mean_7/Const", "shape": [4], "dtype": "int32"}, {"name": "model/lambda_2/resize/size", "shape": [2], "dtype": "int32"}, {"name": "model/zero_padding2d_20/Pad/paddings", "shape": [4, 2], "dtype": "int32"}, {"name": "model/conv2d_37/Conv2D/ReadVariableOp", "shape": [5, 5, 32, 32], "dtype": "float32"}, {"name": "model/tf.math.add_68/Add/y", "shape": [32], "dtype": "float32"}, {"name": "model/tf.strided_slice_5/StridedSlice/begin", "shape": [4], "dtype": "int32"}, {"name": "model/tf.strided_slice_5/StridedSlice/end", "shape": [4], "dtype": "int32"}, {"name": "model/tf.strided_slice_5/StridedSlice/strides", "shape": [4], "dtype": "int32"}, {"name": "model/tf.math.reduce_mean_8/Const", "shape": [4], "dtype": "int32"}, {"name": "model/tf.math.reduce_mean_9/Const", "shape": [4], "dtype": "int32"}, {"name": "model/tf.__operators__.add_2/y", "shape": [], "dtype": "float32"}, {"name": "model/tf.concat_2/concat/axis", "shape": [], "dtype": "int32"}, {"name": "model/lambda_3/resize/size", "shape": [2], "dtype": "int32"}, {"name": "model/tf.strided_slice_26/StridedSlice/begin", "shape": [4], "dtype": "int32"}, {"name": "model/tf.strided_slice_26/StridedSlice/end", "shape": [4], "dtype": "int32"}, {"name": "model/tf.strided_slice_26/StridedSlice/strides", "shape": [4], "dtype": "int32"}, {"name": "model/tf.math.multiply_28/Mul/y", "shape": [1, 1, 1, 16], "dtype": "float32"}, {"name": "model/tf.math.add_102/Add/y", "shape": [16], "dtype": "float32"}, {"name": "model/tf.math.reduce_mean_40/Const", "shape": [4], "dtype": "int32"}, {"name": "model/tf.strided_slice_24/StridedSlice/begin", "shape": [4], "dtype": "int32"}, {"name": "model/tf.strided_slice_24/StridedSlice/end", "shape": [4], "dtype": "int32"}, {"name": "model/tf.strided_slice_24/StridedSlice/strides", "shape": [4], "dtype": "int32"}, {"name": "model/tf.math.multiply_26/Mul/y", "shape": [1, 1, 1, 16], "dtype": "float32"}, {"name": "model/tf.math.add_99/Add/y", "shape": [16], "dtype": "float32"}, {"name": "model/tf.math.reduce_mean_37/Const", "shape": [4], "dtype": "int32"}, {"name": "model/tf.strided_slice_22/StridedSlice/begin", "shape": [4], "dtype": "int32"}, {"name": "model/tf.strided_slice_22/StridedSlice/end", "shape": [4], "dtype": "int32"}, {"name": "model/tf.strided_slice_22/StridedSlice/strides", "shape": [4], "dtype": "int32"}, {"name": "model/tf.math.multiply_24/Mul/y", "shape": [1, 1, 1, 16], "dtype": "float32"}, {"name": "model/tf.math.add_96/Add/y", "shape": [16], "dtype": "float32"}, {"name": "model/tf.math.reduce_mean_34/Const", "shape": [4], "dtype": "int32"}, {"name": "model/tf.strided_slice_20/StridedSlice/begin", "shape": [4], "dtype": "int32"}, {"name": "model/tf.strided_slice_20/StridedSlice/end", "shape": [4], "dtype": "int32"}, {"name": "model/tf.strided_slice_20/StridedSlice/strides", "shape": [4], "dtype": "int32"}, {"name": "model/tf.math.multiply_22/Mul/y", "shape": [1, 1, 1, 32], "dtype": "float32"}, {"name": "model/tf.math.add_93/Add/y", "shape": [32], "dtype": "float32"}, {"name": "model/tf.math.reduce_mean_31/Const", "shape": [4], "dtype": "int32"}, {"name": "model/tf.strided_slice_18/StridedSlice/begin", "shape": [4], "dtype": "int32"}, {"name": "model/tf.strided_slice_18/StridedSlice/end", "shape": [4], "dtype": "int32"}, {"name": "model/tf.strided_slice_18/StridedSlice/strides", "shape": [4], "dtype": "int32"}, {"name": "model/tf.math.multiply_20/Mul/y", "shape": [1, 1, 1, 16], "dtype": "float32"}, {"name": "model/tf.math.add_90/Add/y", "shape": [16], "dtype": "float32"}, {"name": "model/tf.math.reduce_mean_28/Const", "shape": [4], "dtype": "int32"}, {"name": "model/tf.strided_slice_16/StridedSlice/begin", "shape": [4], "dtype": "int32"}, {"name": "model/tf.strided_slice_16/StridedSlice/end", "shape": [4], "dtype": "int32"}, {"name": "model/tf.strided_slice_16/StridedSlice/strides", "shape": [4], "dtype": "int32"}, {"name": "model/tf.math.multiply_18/Mul/y", "shape": [1, 1, 1, 32], "dtype": "float32"}, {"name": "model/tf.math.add_87/Add/y", "shape": [32], "dtype": "float32"}, {"name": "model/tf.math.reduce_mean_25/Const", "shape": [4], "dtype": "int32"}, {"name": "model/tf.strided_slice_14/StridedSlice/begin", "shape": [4], "dtype": "int32"}, {"name": "model/tf.strided_slice_14/StridedSlice/end", "shape": [4], "dtype": "int32"}, {"name": "model/tf.strided_slice_14/StridedSlice/strides", "shape": [4], "dtype": "int32"}, {"name": "model/tf.math.multiply_16/Mul/y", "shape": [1, 1, 1, 32], "dtype": "float32"}, {"name": "model/tf.math.add_84/Add/y", "shape": [32], "dtype": "float32"}, {"name": "model/tf.math.reduce_mean_22/Const", "shape": [4], "dtype": "int32"}, {"name": "model/tf.strided_slice_12/StridedSlice/begin", "shape": [4], "dtype": "int32"}, {"name": "model/tf.strided_slice_12/StridedSlice/end", "shape": [4], "dtype": "int32"}, {"name": "model/tf.strided_slice_12/StridedSlice/strides", "shape": [4], "dtype": "int32"}, {"name": "model/tf.math.multiply_14/Mul/y", "shape": [1, 1, 1, 32], "dtype": "float32"}, {"name": "model/tf.math.add_81/Add/y", "shape": [32], "dtype": "float32"}, {"name": "model/tf.math.reduce_mean_19/Const", "shape": [4], "dtype": "int32"}, {"name": "model/tf.strided_slice_8/StridedSlice/begin", "shape": [4], "dtype": "int32"}, {"name": "model/tf.strided_slice_8/StridedSlice/end", "shape": [4], "dtype": "int32"}, {"name": "model/tf.strided_slice_8/StridedSlice/strides", "shape": [4], "dtype": "int32"}, {"name": "model/tf.math.multiply_10/Mul/y", "shape": [1, 1, 1, 16], "dtype": "float32"}, {"name": "model/tf.math.add_75/Add/y", "shape": [16], "dtype": "float32"}, {"name": "model/tf.math.reduce_mean_13/Const", "shape": [4], "dtype": "int32"}, {"name": "model/tf.image.resize/resize/size", "shape": [2], "dtype": "int32"}, {"name": "model/tf.concat_4/concat/axis", "shape": [], "dtype": "int32"}, {"name": "model/zero_padding2d_21/Pad/paddings", "shape": [4, 2], "dtype": "int32"}, {"name": "model/conv2d_39/Conv2D/ReadVariableOp", "shape": [3, 3, 35, 32], "dtype": "float32"}, {"name": "model/tf.math.add_74/Add/y", "shape": [32], "dtype": "float32"}, {"name": "model/tf.strided_slice_9/StridedSlice/begin", "shape": [4], "dtype": "int32"}, {"name": "model/tf.strided_slice_9/StridedSlice/end", "shape": [4], "dtype": "int32"}, {"name": "model/tf.strided_slice_9/StridedSlice/strides", "shape": [4], "dtype": "int32"}, {"name": "model/tf.math.reduce_mean_14/Const", "shape": [4], "dtype": "int32"}, {"name": "model/tf.math.reduce_mean_15/Const", "shape": [4], "dtype": "int32"}, {"name": "model/tf.__operators__.add_4/y", "shape": [], "dtype": "float32"}, {"name": "model/tf.strided_slice_10/StridedSlice/begin", "shape": [4], "dtype": "int32"}, {"name": "model/tf.strided_slice_10/StridedSlice/end", "shape": [4], "dtype": "int32"}, {"name": "model/tf.strided_slice_10/StridedSlice/strides", "shape": [4], "dtype": "int32"}, {"name": "model/tf.math.multiply_12/Mul/y", "shape": [1, 1, 1, 16], "dtype": "float32"}, {"name": "model/tf.math.add_78/Add/y", "shape": [16], "dtype": "float32"}, {"name": "model/tf.math.reduce_mean_16/Const", "shape": [4], "dtype": "int32"}, {"name": "model/conv2d_40/Conv2D/ReadVariableOp", "shape": [1, 1, 24, 32], "dtype": "float32"}, {"name": "model/tf.math.add_77/Add/y", "shape": [32], "dtype": "float32"}, {"name": "model/tf.strided_slice_11/StridedSlice/begin", "shape": [4], "dtype": "int32"}, {"name": "model/tf.strided_slice_11/StridedSlice/end", "shape": [4], "dtype": "int32"}, {"name": "model/tf.strided_slice_11/StridedSlice/strides", "shape": [4], "dtype": "int32"}, {"name": "model/tf.math.reduce_mean_17/Const", "shape": [4], "dtype": "int32"}, {"name": "model/tf.math.reduce_mean_18/Const", "shape": [4], "dtype": "int32"}, {"name": "model/tf.__operators__.add_5/y", "shape": [], "dtype": "float32"}, {"name": "model/tf.concat_7/concat/axis", "shape": [], "dtype": "int32"}, {"name": "model/zero_padding2d_22/Pad/paddings", "shape": [4, 2], "dtype": "int32"}, {"name": "model/conv2d_41/Conv2D/ReadVariableOp", "shape": [3, 3, 64, 64], "dtype": "float32"}, {"name": "model/tf.math.add_80/Add/y", "shape": [64], "dtype": "float32"}, {"name": "model/tf.strided_slice_13/StridedSlice/begin", "shape": [4], "dtype": "int32"}, {"name": "model/tf.strided_slice_13/StridedSlice/end", "shape": [4], "dtype": "int32"}, {"name": "model/tf.strided_slice_13/StridedSlice/strides", "shape": [4], "dtype": "int32"}, {"name": "model/tf.math.reduce_mean_20/Const", "shape": [4], "dtype": "int32"}, {"name": "model/tf.math.reduce_mean_21/Const", "shape": [4], "dtype": "int32"}, {"name": "model/tf.__operators__.add_6/y", "shape": [], "dtype": "float32"}, {"name": "model/tf.concat_8/concat/axis", "shape": [], "dtype": "int32"}, {"name": "model/tf.strided_slice_2/StridedSlice/begin", "shape": [4], "dtype": "int32"}, {"name": "model/tf.strided_slice_2/StridedSlice/end", "shape": [4], "dtype": "int32"}, {"name": "model/tf.strided_slice_2/StridedSlice/strides", "shape": [4], "dtype": "int32"}, {"name": "model/tf.math.multiply_4/Mul/y", "shape": [1, 1, 1, 16], "dtype": "float32"}, {"name": "model/tf.math.add_66/Add/y", "shape": [16], "dtype": "float32"}, {"name": "model/tf.math.reduce_mean_4/Const", "shape": [4], "dtype": "int32"}, {"name": "model/tf.strided_slice/StridedSlice/begin", "shape": [4], "dtype": "int32"}, {"name": "model/tf.strided_slice/StridedSlice/end", "shape": [4], "dtype": "int32"}, {"name": "model/tf.strided_slice/StridedSlice/strides", "shape": [4], "dtype": "int32"}, {"name": "model/tf.math.multiply_2/Mul/y", "shape": [1, 1, 1, 48], "dtype": "float32"}, {"name": "model/tf.math.add_63/Add/y", "shape": [48], "dtype": "float32"}, {"name": "model/tf.math.reduce_mean_1/Const", "shape": [4], "dtype": "int32"}, {"name": "model/conv2d_2/Conv2D/ReadVariableOp", "shape": [1, 1, 16, 96], "dtype": "float32"}, {"name": "model/tf.math.add_3/Add/y", "shape": [96], "dtype": "float32"}, {"name": "model/zero_padding2d_2/Pad/paddings", "shape": [4, 2], "dtype": "int32"}, {"name": "model/depthwise_conv2d_1/depthwise/ReadVariableOp", "shape": [3, 3, 96, 1], "dtype": "float32"}, {"name": "model/tf.math.add_4/Add/y", "shape": [96], "dtype": "float32"}, {"name": "model/conv2d_3/Conv2D/ReadVariableOp", "shape": [1, 1, 96, 24], "dtype": "float32"}, {"name": "model/tf.math.add_5/Add/y", "shape": [24], "dtype": "float32"}, {"name": "model/conv2d_4/Conv2D/ReadVariableOp", "shape": [1, 1, 24, 144], "dtype": "float32"}, {"name": "model/tf.math.add_6/Add/y", "shape": [144], "dtype": "float32"}, {"name": "model/zero_padding2d_3/Pad/paddings", "shape": [4, 2], "dtype": "int32"}, {"name": "model/depthwise_conv2d_2/depthwise/ReadVariableOp", "shape": [3, 3, 144, 1], "dtype": "float32"}, {"name": "model/tf.math.add_7/Add/y", "shape": [144], "dtype": "float32"}, {"name": "model/conv2d_5/Conv2D/ReadVariableOp", "shape": [1, 1, 144, 24], "dtype": "float32"}, {"name": "model/tf.math.add_8/Add/y", "shape": [24], "dtype": "float32"}, {"name": "model/conv2d_6/Conv2D/ReadVariableOp", "shape": [1, 1, 24, 144], "dtype": "float32"}, {"name": "model/tf.math.add_10/Add/y", "shape": [144], "dtype": "float32"}, {"name": "model/zero_padding2d_4/Pad/paddings", "shape": [4, 2], "dtype": "int32"}, {"name": "model/depthwise_conv2d_3/depthwise/ReadVariableOp", "shape": [3, 3, 144, 1], "dtype": "float32"}, {"name": "model/tf.math.add_11/Add/y", "shape": [144], "dtype": "float32"}, {"name": "model/conv2d_7/Conv2D/ReadVariableOp", "shape": [1, 1, 144, 32], "dtype": "float32"}, {"name": "model/tf.math.add_12/Add/y", "shape": [32], "dtype": "float32"}, {"name": "model/conv2d_8/Conv2D/ReadVariableOp", "shape": [1, 1, 32, 192], "dtype": "float32"}, {"name": "model/tf.math.add_13/Add/y", "shape": [192], "dtype": "float32"}, {"name": "model/zero_padding2d_5/Pad/paddings", "shape": [4, 2], "dtype": "int32"}, {"name": "model/depthwise_conv2d_4/depthwise/ReadVariableOp", "shape": [3, 3, 192, 1], "dtype": "float32"}, {"name": "model/tf.math.add_14/Add/y", "shape": [192], "dtype": "float32"}, {"name": "model/conv2d_9/Conv2D/ReadVariableOp", "shape": [1, 1, 192, 32], "dtype": "float32"}, {"name": "model/tf.math.add_15/Add/y", "shape": [32], "dtype": "float32"}, {"name": "model/conv2d_10/Conv2D/ReadVariableOp", "shape": [1, 1, 32, 192], "dtype": "float32"}, {"name": "model/tf.math.add_17/Add/y", "shape": [192], "dtype": "float32"}, {"name": "model/zero_padding2d_6/Pad/paddings", "shape": [4, 2], "dtype": "int32"}, {"name": "model/depthwise_conv2d_5/depthwise/ReadVariableOp", "shape": [3, 3, 192, 1], "dtype": "float32"}, {"name": "model/tf.math.add_18/Add/y", "shape": [192], "dtype": "float32"}, {"name": "model/conv2d_11/Conv2D/ReadVariableOp", "shape": [1, 1, 192, 32], "dtype": "float32"}, {"name": "model/tf.math.add_19/Add/y", "shape": [32], "dtype": "float32"}, {"name": "model/conv2d_12/Conv2D/ReadVariableOp", "shape": [1, 1, 32, 192], "dtype": "float32"}, {"name": "model/tf.math.add_21/Add/y", "shape": [192], "dtype": "float32"}, {"name": "model/zero_padding2d_7/Pad/paddings", "shape": [4, 2], "dtype": "int32"}, {"name": "model/depthwise_conv2d_6/depthwise/ReadVariableOp", "shape": [3, 3, 192, 1], "dtype": "float32"}, {"name": "model/tf.math.add_22/Add/y", "shape": [192], "dtype": "float32"}, {"name": "model/conv2d_13/Conv2D/ReadVariableOp", "shape": [1, 1, 192, 64], "dtype": "float32"}, {"name": "model/tf.math.add_23/Add/y", "shape": [64], "dtype": "float32"}, {"name": "model/conv2d_14/Conv2D/ReadVariableOp", "shape": [1, 1, 64, 384], "dtype": "float32"}, {"name": "model/tf.math.add_24/Add/y", "shape": [384], "dtype": "float32"}, {"name": "model/zero_padding2d_8/Pad/paddings", "shape": [4, 2], "dtype": "int32"}, {"name": "model/depthwise_conv2d_7/depthwise/ReadVariableOp", "shape": [3, 3, 384, 1], "dtype": "float32"}, {"name": "model/tf.math.add_25/Add/y", "shape": [384], "dtype": "float32"}, {"name": "model/conv2d_15/Conv2D/ReadVariableOp", "shape": [1, 1, 384, 64], "dtype": "float32"}, {"name": "model/tf.math.add_26/Add/y", "shape": [64], "dtype": "float32"}, {"name": "model/conv2d_16/Conv2D/ReadVariableOp", "shape": [1, 1, 64, 384], "dtype": "float32"}, {"name": "model/tf.math.add_28/Add/y", "shape": [384], "dtype": "float32"}, {"name": "model/zero_padding2d_9/Pad/paddings", "shape": [4, 2], "dtype": "int32"}, {"name": "model/depthwise_conv2d_8/depthwise/ReadVariableOp", "shape": [3, 3, 384, 1], "dtype": "float32"}, {"name": "model/tf.math.add_29/Add/y", "shape": [384], "dtype": "float32"}, {"name": "model/conv2d_17/Conv2D/ReadVariableOp", "shape": [1, 1, 384, 64], "dtype": "float32"}, {"name": "model/tf.math.add_30/Add/y", "shape": [64], "dtype": "float32"}, {"name": "model/conv2d_18/Conv2D/ReadVariableOp", "shape": [1, 1, 64, 384], "dtype": "float32"}, {"name": "model/tf.math.add_32/Add/y", "shape": [384], "dtype": "float32"}, {"name": "model/zero_padding2d_10/Pad/paddings", "shape": [4, 2], "dtype": "int32"}, {"name": "model/depthwise_conv2d_9/depthwise/ReadVariableOp", "shape": [3, 3, 384, 1], "dtype": "float32"}, {"name": "model/tf.math.add_33/Add/y", "shape": [384], "dtype": "float32"}, {"name": "model/conv2d_19/Conv2D/ReadVariableOp", "shape": [1, 1, 384, 64], "dtype": "float32"}, {"name": "model/tf.math.add_34/Add/y", "shape": [64], "dtype": "float32"}, {"name": "model/conv2d_20/Conv2D/ReadVariableOp", "shape": [1, 1, 64, 384], "dtype": "float32"}, {"name": "model/tf.math.add_36/Add/y", "shape": [384], "dtype": "float32"}, {"name": "model/zero_padding2d_11/Pad/paddings", "shape": [4, 2], "dtype": "int32"}, {"name": "model/depthwise_conv2d_10/depthwise/ReadVariableOp", "shape": [3, 3, 384, 1], "dtype": "float32"}, {"name": "model/tf.math.add_37/Add/y", "shape": [384], "dtype": "float32"}, {"name": "model/conv2d_21/Conv2D/ReadVariableOp", "shape": [1, 1, 384, 96], "dtype": "float32"}, {"name": "model/tf.math.add_38/Add/y", "shape": [96], "dtype": "float32"}, {"name": "model/conv2d_22/Conv2D/ReadVariableOp", "shape": [1, 1, 96, 576], "dtype": "float32"}, {"name": "model/tf.math.add_39/Add/y", "shape": [576], "dtype": "float32"}, {"name": "model/zero_padding2d_12/Pad/paddings", "shape": [4, 2], "dtype": "int32"}, {"name": "model/depthwise_conv2d_11/depthwise/ReadVariableOp", "shape": [3, 3, 576, 1], "dtype": "float32"}, {"name": "model/tf.math.add_40/Add/y", "shape": [576], "dtype": "float32"}, {"name": "model/conv2d_23/Conv2D/ReadVariableOp", "shape": [1, 1, 576, 96], "dtype": "float32"}, {"name": "model/tf.math.add_41/Add/y", "shape": [96], "dtype": "float32"}, {"name": "model/conv2d_24/Conv2D/ReadVariableOp", "shape": [1, 1, 96, 576], "dtype": "float32"}, {"name": "model/tf.math.add_43/Add/y", "shape": [576], "dtype": "float32"}, {"name": "model/zero_padding2d_13/Pad/paddings", "shape": [4, 2], "dtype": "int32"}, {"name": "model/depthwise_conv2d_12/depthwise/ReadVariableOp", "shape": [3, 3, 576, 1], "dtype": "float32"}, {"name": "model/tf.math.add_44/Add/y", "shape": [576], "dtype": "float32"}, {"name": "model/conv2d_25/Conv2D/ReadVariableOp", "shape": [1, 1, 576, 96], "dtype": "float32"}, {"name": "model/tf.math.add_45/Add/y", "shape": [96], "dtype": "float32"}, {"name": "model/conv2d_26/Conv2D/ReadVariableOp", "shape": [1, 1, 96, 576], "dtype": "float32"}, {"name": "model/tf.math.add_47/Add/y", "shape": [576], "dtype": "float32"}, {"name": "model/zero_padding2d_14/Pad/paddings", "shape": [4, 2], "dtype": "int32"}, {"name": "model/depthwise_conv2d_13/depthwise/ReadVariableOp", "shape": [3, 3, 576, 1], "dtype": "float32"}, {"name": "model/tf.math.add_48/Add/y", "shape": [576], "dtype": "float32"}, {"name": "model/conv2d_27/Conv2D/ReadVariableOp", "shape": [1, 1, 576, 160], "dtype": "float32"}, {"name": "model/tf.math.add_49/Add/y", "shape": [160], "dtype": "float32"}, {"name": "model/conv2d_28/Conv2D/ReadVariableOp", "shape": [1, 1, 160, 960], "dtype": "float32"}, {"name": "model/tf.math.add_50/Add/y", "shape": [960], "dtype": "float32"}, {"name": "model/zero_padding2d_15/Pad/paddings", "shape": [4, 2], "dtype": "int32"}, {"name": "model/depthwise_conv2d_14/depthwise/ReadVariableOp", "shape": [3, 3, 960, 1], "dtype": "float32"}, {"name": "model/tf.math.add_51/Add/y", "shape": [960], "dtype": "float32"}, {"name": "model/conv2d_29/Conv2D/ReadVariableOp", "shape": [1, 1, 960, 160], "dtype": "float32"}, {"name": "model/tf.math.add_52/Add/y", "shape": [160], "dtype": "float32"}, {"name": "model/conv2d_30/Conv2D/ReadVariableOp", "shape": [1, 1, 160, 960], "dtype": "float32"}, {"name": "model/tf.math.add_54/Add/y", "shape": [960], "dtype": "float32"}, {"name": "model/zero_padding2d_16/Pad/paddings", "shape": [4, 2], "dtype": "int32"}, {"name": "model/depthwise_conv2d_15/depthwise/ReadVariableOp", "shape": [3, 3, 960, 1], "dtype": "float32"}, {"name": "model/tf.math.add_55/Add/y", "shape": [960], "dtype": "float32"}, {"name": "model/conv2d_31/Conv2D/ReadVariableOp", "shape": [1, 1, 960, 160], "dtype": "float32"}, {"name": "model/tf.math.add_56/Add/y", "shape": [160], "dtype": "float32"}, {"name": "model/conv2d_32/Conv2D/ReadVariableOp", "shape": [1, 1, 160, 960], "dtype": "float32"}, {"name": "model/tf.math.add_58/Add/y", "shape": [960], "dtype": "float32"}, {"name": "model/zero_padding2d_17/Pad/paddings", "shape": [4, 2], "dtype": "int32"}, {"name": "model/depthwise_conv2d_16/depthwise/ReadVariableOp", "shape": [3, 3, 960, 1], "dtype": "float32"}, {"name": "model/tf.math.add_59/Add/y", "shape": [960], "dtype": "float32"}, {"name": "model/conv2d_33/Conv2D/ReadVariableOp", "shape": [1, 1, 960, 320], "dtype": "float32"}, {"name": "model/tf.math.add_60/Add/y", "shape": [320], "dtype": "float32"}, {"name": "model/conv2d_34/Conv2D/ReadVariableOp", "shape": [1, 1, 320, 1280], "dtype": "float32"}, {"name": "model/tf.math.add_61/Add/y", "shape": [1280], "dtype": "float32"}, {"name": "model/tf.math.reduce_mean/Mean/reduction_indices", "shape": [2], "dtype": "int32"}, {"name": "model/tf.reshape/Reshape/shape", "shape": [2], "dtype": "int32"}, {"name": "model/tf.linalg.matmul/MatMul/b", "shape": [320, 1280], "dtype": "float32"}, {"name": "model/tf.linalg.matmul_1/MatMul/b", "shape": [1280, 320], "dtype": "float32"}, {"name": "model/tf.reshape_1/Reshape/shape", "shape": [4], "dtype": "int32"}, {"name": "ConstantFolding/model/tf.math.multiply/Mul-broadcastto_shape-0", "shape": [4], "dtype": "int32"}, {"name": "model/lambda/resize/size", "shape": [2], "dtype": "int32"}, {"name": "model/zero_padding2d_18/Pad/paddings", "shape": [4, 2], "dtype": "int32"}, {"name": "model/conv2d_35/Conv2D/ReadVariableOp", "shape": [5, 5, 1280, 96], "dtype": "float32"}, {"name": "model/tf.math.add_62/Add/y", "shape": [96], "dtype": "float32"}, {"name": "model/tf.strided_slice_1/StridedSlice/begin", "shape": [4], "dtype": "int32"}, {"name": "model/tf.strided_slice_1/StridedSlice/end", "shape": [4], "dtype": "int32"}, {"name": "model/tf.strided_slice_1/StridedSlice/strides", "shape": [4], "dtype": "int32"}, {"name": "model/tf.math.reduce_mean_2/Const", "shape": [4], "dtype": "int32"}, {"name": "model/tf.math.reduce_mean_3/Const", "shape": [4], "dtype": "int32"}, {"name": "model/tf.__operators__.add/y", "shape": [], "dtype": "float32"}, {"name": "model/tf.concat/concat/axis", "shape": [], "dtype": "int32"}, {"name": "model/lambda_1/resize/size", "shape": [2], "dtype": "int32"}, {"name": "model/zero_padding2d_19/Pad/paddings", "shape": [4, 2], "dtype": "int32"}, {"name": "model/conv2d_36/Conv2D/ReadVariableOp", "shape": [5, 5, 96, 32], "dtype": "float32"}, {"name": "model/tf.math.add_65/Add/y", "shape": [32], "dtype": "float32"}, {"name": "model/tf.strided_slice_3/StridedSlice/begin", "shape": [4], "dtype": "int32"}, {"name": "model/tf.strided_slice_3/StridedSlice/end", "shape": [4], "dtype": "int32"}, {"name": "model/tf.strided_slice_3/StridedSlice/strides", "shape": [4], "dtype": "int32"}, {"name": "model/tf.math.reduce_mean_5/Const", "shape": [4], "dtype": "int32"}, {"name": "model/tf.math.reduce_mean_6/Const", "shape": [4], "dtype": "int32"}, {"name": "model/tf.__operators__.add_1/y", "shape": [], "dtype": "float32"}, {"name": "model/tf.concat_1/concat/axis", "shape": [], "dtype": "int32"}, {"name": "model/lambda_4/resize/size", "shape": [2], "dtype": "int32"}, {"name": "model/tf.image.resize_1/resize/size", "shape": [2], "dtype": "int32"}, {"name": "model/tf.concat_9/concat/axis", "shape": [], "dtype": "int32"}, {"name": "model/zero_padding2d_23/Pad/paddings", "shape": [4, 2], "dtype": "int32"}, {"name": "model/conv2d_42/Conv2D/ReadVariableOp", "shape": [3, 3, 99, 64], "dtype": "float32"}, {"name": "model/tf.math.add_83/Add/y", "shape": [64], "dtype": "float32"}, {"name": "model/tf.strided_slice_15/StridedSlice/begin", "shape": [4], "dtype": "int32"}, {"name": "model/tf.strided_slice_15/StridedSlice/end", "shape": [4], "dtype": "int32"}, {"name": "model/tf.strided_slice_15/StridedSlice/strides", "shape": [4], "dtype": "int32"}, {"name": "model/tf.math.reduce_mean_23/Const", "shape": [4], "dtype": "int32"}, {"name": "model/tf.math.reduce_mean_24/Const", "shape": [4], "dtype": "int32"}, {"name": "model/tf.__operators__.add_7/y", "shape": [], "dtype": "float32"}, {"name": "model/tf.concat_10/concat/axis", "shape": [], "dtype": "int32"}, {"name": "model/zero_padding2d_24/Pad/paddings", "shape": [4, 2], "dtype": "int32"}, {"name": "model/conv2d_43/Conv2D/ReadVariableOp", "shape": [3, 3, 64, 64], "dtype": "float32"}, {"name": "model/tf.math.add_86/Add/y", "shape": [64], "dtype": "float32"}, {"name": "model/tf.strided_slice_17/StridedSlice/begin", "shape": [4], "dtype": "int32"}, {"name": "model/tf.strided_slice_17/StridedSlice/end", "shape": [4], "dtype": "int32"}, {"name": "model/tf.strided_slice_17/StridedSlice/strides", "shape": [4], "dtype": "int32"}, {"name": "model/tf.math.reduce_mean_26/Const", "shape": [4], "dtype": "int32"}, {"name": "model/tf.math.reduce_mean_27/Const", "shape": [4], "dtype": "int32"}, {"name": "model/tf.__operators__.add_8/y", "shape": [], "dtype": "float32"}, {"name": "model/tf.concat_11/concat/axis", "shape": [], "dtype": "int32"}, {"name": "model/zero_padding2d_25/Pad/paddings", "shape": [4, 2], "dtype": "int32"}, {"name": "model/conv2d_44/Conv2D/ReadVariableOp", "shape": [3, 3, 64, 32], "dtype": "float32"}, {"name": "model/tf.math.add_89/Add/y", "shape": [32], "dtype": "float32"}, {"name": "model/tf.strided_slice_19/StridedSlice/begin", "shape": [4], "dtype": "int32"}, {"name": "model/tf.strided_slice_19/StridedSlice/end", "shape": [4], "dtype": "int32"}, {"name": "model/tf.strided_slice_19/StridedSlice/strides", "shape": [4], "dtype": "int32"}, {"name": "model/tf.math.reduce_mean_29/Const", "shape": [4], "dtype": "int32"}, {"name": "model/tf.math.reduce_mean_30/Const", "shape": [4], "dtype": "int32"}, {"name": "model/tf.__operators__.add_9/y", "shape": [], "dtype": "float32"}, {"name": "model/tf.concat_12/concat/axis", "shape": [], "dtype": "int32"}, {"name": "model/lambda_5/resize/size", "shape": [2], "dtype": "int32"}, {"name": "model/tf.strided_slice_6/StridedSlice/begin", "shape": [4], "dtype": "int32"}, {"name": "model/tf.strided_slice_6/StridedSlice/end", "shape": [4], "dtype": "int32"}, {"name": "model/tf.strided_slice_6/StridedSlice/strides", "shape": [4], "dtype": "int32"}, {"name": "model/tf.math.multiply_8/Mul/y", "shape": [1, 1, 1, 16], "dtype": "float32"}, {"name": "model/tf.math.add_72/Add/y", "shape": [16], "dtype": "float32"}, {"name": "model/tf.math.reduce_mean_10/Const", "shape": [4], "dtype": "int32"}, {"name": "model/zero_padding2d/Pad/paddings", "shape": [4, 2], "dtype": "int32"}, {"name": "model/conv2d/Conv2D/ReadVariableOp", "shape": [3, 3, 3, 32], "dtype": "float32"}, {"name": "model/tf.math.add/Add/y", "shape": [32], "dtype": "float32"}, {"name": "model/zero_padding2d_1/Pad/paddings", "shape": [4, 2], "dtype": "int32"}, {"name": "model/depthwise_conv2d/depthwise/ReadVariableOp", "shape": [3, 3, 32, 1], "dtype": "float32"}, {"name": "model/tf.math.add_1/Add/y", "shape": [32], "dtype": "float32"}, {"name": "model/conv2d_1/Conv2D/ReadVariableOp", "shape": [1, 1, 32, 16], "dtype": "float32"}, {"name": "model/tf.math.add_2/Add/y", "shape": [16], "dtype": "float32"}, {"name": "model/conv2d_38/Conv2D/ReadVariableOp", "shape": [1, 1, 16, 32], "dtype": "float32"}, {"name": "model/tf.math.add_71/Add/y", "shape": [32], "dtype": "float32"}, {"name": "model/tf.strided_slice_7/StridedSlice/begin", "shape": [4], "dtype": "int32"}, {"name": "model/tf.strided_slice_7/StridedSlice/end", "shape": [4], "dtype": "int32"}, {"name": "model/tf.strided_slice_7/StridedSlice/strides", "shape": [4], "dtype": "int32"}, {"name": "model/tf.math.reduce_mean_11/Const", "shape": [4], "dtype": "int32"}, {"name": "model/tf.math.reduce_mean_12/Const", "shape": [4], "dtype": "int32"}, {"name": "model/tf.__operators__.add_3/y", "shape": [], "dtype": "float32"}, {"name": "model/tf.concat_3/concat/axis", "shape": [], "dtype": "int32"}, {"name": "model/tf.concat_13/concat/axis", "shape": [], "dtype": "int32"}, {"name": "model/zero_padding2d_26/Pad/paddings", "shape": [4, 2], "dtype": "int32"}, {"name": "model/conv2d_45/Conv2D/ReadVariableOp", "shape": [3, 3, 64, 64], "dtype": "float32"}, {"name": "model/tf.math.add_92/Add/y", "shape": [64], "dtype": "float32"}, {"name": "model/tf.strided_slice_21/StridedSlice/begin", "shape": [4], "dtype": "int32"}, {"name": "model/tf.strided_slice_21/StridedSlice/end", "shape": [4], "dtype": "int32"}, {"name": "model/tf.strided_slice_21/StridedSlice/strides", "shape": [4], "dtype": "int32"}, {"name": "model/tf.math.reduce_mean_32/Const", "shape": [4], "dtype": "int32"}, {"name": "model/tf.math.reduce_mean_33/Const", "shape": [4], "dtype": "int32"}, {"name": "model/tf.__operators__.add_10/y", "shape": [], "dtype": "float32"}, {"name": "model/tf.concat_14/concat/axis", "shape": [], "dtype": "int32"}, {"name": "model/zero_padding2d_27/Pad/paddings", "shape": [4, 2], "dtype": "int32"}, {"name": "model/conv2d_46/Conv2D/ReadVariableOp", "shape": [3, 3, 64, 32], "dtype": "float32"}, {"name": "model/tf.math.add_95/Add/y", "shape": [32], "dtype": "float32"}, {"name": "model/tf.strided_slice_23/StridedSlice/begin", "shape": [4], "dtype": "int32"}, {"name": "model/tf.strided_slice_23/StridedSlice/end", "shape": [4], "dtype": "int32"}, {"name": "model/tf.strided_slice_23/StridedSlice/strides", "shape": [4], "dtype": "int32"}, {"name": "model/tf.math.reduce_mean_35/Const", "shape": [4], "dtype": "int32"}, {"name": "model/tf.math.reduce_mean_36/Const", "shape": [4], "dtype": "int32"}, {"name": "model/tf.__operators__.add_11/y", "shape": [], "dtype": "float32"}, {"name": "model/tf.concat_15/concat/axis", "shape": [], "dtype": "int32"}, {"name": "model/zero_padding2d_28/Pad/paddings", "shape": [4, 2], "dtype": "int32"}, {"name": "model/conv2d_47/Conv2D/ReadVariableOp", "shape": [3, 3, 32, 32], "dtype": "float32"}, {"name": "model/tf.math.add_98/Add/y", "shape": [32], "dtype": "float32"}, {"name": "model/tf.strided_slice_25/StridedSlice/begin", "shape": [4], "dtype": "int32"}, {"name": "model/tf.strided_slice_25/StridedSlice/end", "shape": [4], "dtype": "int32"}, {"name": "model/tf.strided_slice_25/StridedSlice/strides", "shape": [4], "dtype": "int32"}, {"name": "model/tf.math.reduce_mean_38/Const", "shape": [4], "dtype": "int32"}, {"name": "model/tf.math.reduce_mean_39/Const", "shape": [4], "dtype": "int32"}, {"name": "model/tf.__operators__.add_12/y", "shape": [], "dtype": "float32"}, {"name": "model/tf.concat_16/concat/axis", "shape": [], "dtype": "int32"}, {"name": "model/zero_padding2d_29/Pad/paddings", "shape": [4, 2], "dtype": "int32"}, {"name": "model/conv2d_48/Conv2D/ReadVariableOp", "shape": [3, 3, 32, 32], "dtype": "float32"}, {"name": "model/tf.math.add_101/Add/y", "shape": [32], "dtype": "float32"}, {"name": "model/tf.strided_slice_27/StridedSlice/begin", "shape": [4], "dtype": "int32"}, {"name": "model/tf.strided_slice_27/StridedSlice/end", "shape": [4], "dtype": "int32"}, {"name": "model/tf.strided_slice_27/StridedSlice/strides", "shape": [4], "dtype": "int32"}, {"name": "model/tf.math.reduce_mean_41/Const", "shape": [4], "dtype": "int32"}, {"name": "model/tf.math.reduce_mean_42/Const", "shape": [4], "dtype": "int32"}, {"name": "model/tf.__operators__.add_13/y", "shape": [], "dtype": "float32"}, {"name": "model/tf.concat_17/concat/axis", "shape": [], "dtype": "int32"}, {"name": "model/tf.concat_18/concat/axis", "shape": [], "dtype": "int32"}, {"name": "model/zero_padding2d_30/Pad/paddings", "shape": [4, 2], "dtype": "int32"}, {"name": "model/conv2d_49/Conv2D/ReadVariableOp", "shape": [3, 3, 64, 32], "dtype": "float32"}, {"name": "model/tf.math.add_104/Add/y", "shape": [32], "dtype": "float32"}, {"name": "model/tf.strided_slice_29/StridedSlice/begin", "shape": [4], "dtype": "int32"}, {"name": "model/tf.strided_slice_29/StridedSlice/end", "shape": [4], "dtype": "int32"}, {"name": "model/tf.strided_slice_29/StridedSlice/strides", "shape": [4], "dtype": "int32"}, {"name": "model/tf.math.reduce_mean_44/Const", "shape": [4], "dtype": "int32"}, {"name": "model/tf.math.reduce_mean_45/Const", "shape": [4], "dtype": "int32"}, {"name": "model/tf.__operators__.add_14/y", "shape": [], "dtype": "float32"}, {"name": "model/tf.concat_19/concat/axis", "shape": [], "dtype": "int32"}, {"name": "model/lambda_6/resize/size", "shape": [2], "dtype": "int32"}, {"name": "model/tf.concat_20/concat/axis", "shape": [], "dtype": "int32"}, {"name": "model/zero_padding2d_31/Pad/paddings", "shape": [4, 2], "dtype": "int32"}, {"name": "model/conv2d_50/Conv2D/ReadVariableOp", "shape": [3, 3, 35, 16], "dtype": "float32"}, {"name": "model/tf.math.add_107/Add/y", "shape": [16], "dtype": "float32"}, {"name": "model/tf.strided_slice_31/StridedSlice/begin", "shape": [4], "dtype": "int32"}, {"name": "model/tf.strided_slice_31/StridedSlice/end", "shape": [4], "dtype": "int32"}, {"name": "model/tf.strided_slice_31/StridedSlice/strides", "shape": [4], "dtype": "int32"}, {"name": "model/tf.math.reduce_mean_47/Const", "shape": [4], "dtype": "int32"}, {"name": "model/tf.math.reduce_mean_48/Const", "shape": [4], "dtype": "int32"}, {"name": "model/tf.__operators__.add_15/y", "shape": [], "dtype": "float32"}, {"name": "model/tf.concat_21/concat/axis", "shape": [], "dtype": "int32"}, {"name": "model/conv2d_51/Conv2D/ReadVariableOp", "shape": [1, 1, 16, 1], "dtype": "float32"}, {"name": "model/tf.math.add_110/Add/y", "shape": [1], "dtype": "float32"}]}]}